trained models/DSSO/DeepIntRa_Params_02.pt (torch, 194310 bytes, 27 tensors)

pep_embed.weight f4 [26, 60]
0.73695713 -0.1521913 -0.26669928 -0.5804753 0.2090741 -1.4344238 1.7633898 -0.8099311
-1.4956642 -0.9694651 0.42877802 0.1517585 -1.0510743 -0.13175328 -0.411338 0.21904229
-0.3412138 -1.5666999 0.18135643 1.078963 0.57188696 0.8924263 0.25566867 -0.09240006
0.9525179 1.8944502 -1.6934897 0.75117743 -0.118364975 -0.21224338 -0.8288714 -0.039696094
1.3717222 0.82059276 0.58368856 -1.3190635 0.4141838 0.14506619 -0.68474406 1.4191769
-0.47676352 -0.7007516 -0.64305085 -0.19286308 -0.18596204 1.3823711 1.3754278 0.32624254
0.12711401 -1.006374 0.92202884 -0.5644409 1.9909774 1.3190275 -0.007737399 -0.43331227
-1.094701 0.100124165 -2.086505 1.6221386 0.8140201 1.5211248 -0.45243585 0.42253217
-1.0902364 -1.3586462 -0.6697605 0.106793955 0.32615724 0.31072044 -0.703147 0.67361933
1.1487768 -0.14354573 -1.5248226 0.63983047 -0.17364712 -0.7072413 0.05286806 0.18933462
-0.8857661 -0.6577206 -0.3137686 -0.23768151 -0.14777642 0.67733395 -1.0911046 -1.0669414
-0.26543894 0.08836606 -0.56187123 1.051098 -0.06961018 -0.13703105 1.512279 1.6993349
0.5869256 -1.2795771 1.213754 0.5226471 0.25778168 -0.7029816 -2.2357857 1.0234193
-1.101909 -1.4637313 -1.466361 -1.0385092 0.34526408 -0.08141811 1.069731 0.904166
1.0030745 -1.4022946 -0.95570123 2.1896667 -0.44962043 1.7584561 0.57583004 -0.8126413
0.99627155 -1.0635169 1.0226357 -0.9440275 -0.54675436 1.066104 -1.5898495 -1.2823902
-0.43689224 -0.31290498 0.052311 0.38224256 0.047156226 -0.31205264 0.16587701 0.64327705
0.21628284 0.0027233257 -2.0514796 1.2994591 -0.1617311 -0.37057105 0.89491075 0.16042939
-2.3580778 1.3442411 0.7496034 -1.0237683 -1.6232353 0.33907276 -0.45698866 -1.3866835
-1.5567427 1.3873749 0.9873992 -1.6847389 -1.50133 1.330676 2.014684 0.34722018
-0.21126293 0.70199114 0.030149633 0.58805066 -0.22963476 -2.1018074 -0.21069077 0.27175066
-1.1566062 0.017225286 0.37272146 0.9843887 -0.65092474 0.10469247 0.73070616 0.42149037
0.32053244 -1.7476896 0.1839198 0.95681 0.22437946 0.5780984 -1.1397464 0.2839765
-0.9773981 0.8686181 1.1992269 0.4533229 0.7807601 -0.9125183 1.011533 0.75039566
-0.399162 -0.75001603 1.6973002 -1.0713717 0.8503872 -1.9771026 0.0015709712 -0.3971835
-2.1911058 0.4192928 0.43195054 0.62651837 1.4210019 0.41597235 -1.3622777 -1.042468
-0.16930833 0.315881 -0.3275342 0.19083674 2.6434596 1.2152847 -1.1261544 0.38152355
-1.2456298 -0.26352593 -0.16821784 -0.9696412 0.46345586 0.09347239 -0.41331896 -0.7289488
-0.8511628 1.1675576 0.33803195 -0.6813106 0.8321521 0.5808561 0.65784764 -0.71538895
-0.16410905 -0.19787604 0.034416147 0.9383728 -1.1168376 0.16682233 -0.4902469 -1.6432768
0.11409224 0.45770997 -1.5219777 0.74632555 0.5466188 -1.8138818 -0.11165153 0.54443306
-1.2252578 -0.016189674 0.050239585 0.47894412 0.7543633 -0.64155114 1.2483342 -0.44985282
00000000: 39a9 3c3f 09d8 1bbe cf8c 88be 079a 14bf
00000010: 8517 563e 339b b7bf c2b6 e13f a557 4fbf
00000020: ed71 bfbf dd2e 78bf cb88 db3e 9566 1b3e
00000030: 9a89 86bf 55ea 06be e59a d2be 9f4c 603e
00000040: 93b3 aebe 9f89 c8bf 80b5 393e 761b 8a3f
00000050: 2f67 123f 0d76 643f 01e7 823e 3e3c bdbd
00000060: 37d8 733f 587d f23f 45c4 d8bf 2a4d 403f
00000070: 5669 f2bd 5456 59be eb30 54bf 5f98 22bd
00000080: 9894 af3f 5e12 523f 9d6c 153f 13d7 a8bf
00000090: e60f d43e 3b8c 143e 634b 2fbf 97a7 b53f
000000a0: 591a f4be 7564 33bf fb9e 24bf e67d 45be
000000b0: d56c 3ebe 89f1 b03f 050e b03f 4309 a73e
000000c0: 2d2a 023e ddd0 80bf 150a 6c3f 337f 10bf
000000d0: 59d8 fe3f e5d5 a83f 028a fdbb 1bdb ddbe
000000e0: 2a1f 8cbf e60d cd3d 4c89 05c0 3da2 cf3f
000000f0: 9f63 503f 38b4 c23f aca5 e7be 2356 d83e
00000100: de8c 8bbf 1ee8 adbf 6d75 2bbf cab6 da3d
00000110: 15fe a63e c016 9f3e 7101 34bf 5172 2c3f
00000120: 1e0b 933f a7fd 12be 632d c3bf eecb 233f
00000130: 8dd0 31be c40d 35bf 2e8c 583d efe0 413e
00000140: 91c1 62bf 6160 28bf 47a6 a0be c862 73be
00000150: b452 17be c265 2d3f 51a9 8bbf 8991 88bf
00000160: 9de7 87be 44f9 b43d cbd6 0fbf 618a 863f
00000170: c88f 8ebd de51 0cbe 5c92 c13f ce83 d93f
00000180: c240 163f 2fc9 a3bf 4b5c 9b3f 33cc 053f
00000190: f6fb 833e 9af6 33bf 1d17 0fc0 67ff 823f
000001a0: 5b0b 8dbf 8c5b bbbf b8b1 bbbf dfed 84bf
000001b0: 74c6 b03e 8abe a6bd f2ec 883f 6c77 673f
000001c0: bf64 803f 647e b3bf d6a8 74bf 8023 0c40
000001d0: a634 e6be 1715 e13f 9969 133f 4309 50bf
000001e0: a70b 7f3f 5221 88bf bae5 823f c9ab 71bf
000001f0: 18f8 0bbf 1976 883f 3080 cbbf 5d25 a4bf
00000200: 57b0 dfbe 1535 a0be 0f44 563d 4cb5 c33e
00000210: e326 413d 5dc5 9fbe aadb 293e cead 243f
00000220: 4079 5d3e d379 323b 714b 03c0 ad54 a63f
00000230: d69c 25be 7dbb bdbe df18 653f 9a47 243e
00000240: bfea 16c0 1810 ac3f 02e6 3f3f d70a 83bf
00000250: 2dc6 cfbf f29a ad3e 6bfa e9be d87e b1bf
00000260: 5843 c7bf 8095 b13f 32c6 7c3f 86a5 d7bf
00000270: 952b c0bf 9753 aa3f 95f0 0040 d8c6 b13e
00000280: 4f55 58be b1b5 333f 5dfc f63c 7d8a 163f
00000290: 6025 6bbe 0384 06c0 52bf 57be e722 8b3e
000002a0: ac0b 94bf 0b1c 8d3c 59d5 be3e e600 7c3f
000002b0: 01a3 26bf 0169 d63d 8f0f 3b3f 96cd d73e
000002c0: d41c a43e 4bb4 dfbf 7955 3c3e 80f1 743f
000002d0: bbc3 653e 42fe 133f 36e3 91bf 5e65 913e
000002e0: c336 7abf c15d 5e3f 4480 993f f019 e83e
000002f0: e5df 473f cd9a 69bf ea79 813f ee19 403f
00000300: f65e ccbe 0d01 40bf 2241 d93f b522 89bf
00000310: fab2 593f b311 fdbf 0ce9 cd3a a35b cbbe
00000320: 143b 0cc0 8cad d63e 9f28 dd3e 8263 203f
00000330: 64e3 b53f 54fa d43e 1e5f aebf 976f 85bf
00000340: 2a5f 2dbe 28bb a13e 90b2 a7be b56a 433e
00000350: 712e 2940 738e 9b3f d425 90bf 0e57 c33e
00000360: cc70 9fbf dfec 86be 4c41 2cbe 683a 78bf
00000370: 164a ed3e 746e bf3d 8b9e d3be 639c 3abf
00000380: cee5 59bf 8772 953f 8612 ad3e 5f6a 2ebf
00000390: ec07 553f fcb2 143f b468 283f bb23 37bf
000003a0: 340c 28be 04a0 4abe f2f7 0c3d 3339 703f
000003b0: 89f4 8ebf 79d3 2a3e a401 fbbe e556 d2bf
000003c0: 31a9 e93d f658 ea3e 2ad0 c2bf 310f 3f3f
000003d0: 36ef 0b3f 472d e8bf 8fa9 e4bd f75f 0b3f
000003e0: 3fd5 9cbf 35a0 84bc 06c8 4d3d 2a38 f53e
000003f0: f41d 413f b23c 24bf 6ac9 9f3f 1c53 e6be

mod_embed.weight f4 [4, 4]
0.9202315 -1.4957427 -0.832001 2.0241868 0.6138501 0.8980157 1.8098019 -0.13873385
-1.4042692 0.039755512 -0.20173387 0.14945316 -0.38319102 -0.3394133 -1.2880563 0.12124817
00000000: 4b94 6b3f 7f74 bfbf 04fe 54bf 478c 0140
00000010: 4825 1d3f 5be4 653f 97a7 e73f 3f10 0ebe
00000020: 18bf b3bf add6 223d 5393 4ebe 400a 193e
00000030: 9d31 c4be 94c7 adbe 07df a4bf f650 f83d

conv_pep.0.weight f4 [16, 64, 3]
0.051803924 -0.042616904 0.012409676 0.043262925 -0.04579892 0.06023725 -0.032382857 0.061570544
0.066851586 0.070464626 -0.07269867 -0.017335152 -0.018974818 0.007765712 0.07104107 0.05930712
-0.01761274 0.027007481 0.05263973 -0.0050083627 0.006181987 -0.010341986 -0.028356979 -0.071210526
0.016950304 -0.02689467 0.051102825 0.036387656 -0.07539461 0.0415584 -0.030861044 0.0045354315
-0.032685902 0.0039041294 0.06349722 -0.018625347 -0.02126353 0.052252 -0.07207492 0.013818586
0.035964858 -0.003701352 0.013755757 0.030186879 0.019906543 -0.0329428 0.030053899 -0.07636308
0.028100552 0.05014865 -0.016714849 -0.032915637 -0.004741249 0.041460894 -0.0553005 0.051100895
0.0020914315 0.049625188 -0.09047125 0.020184452 -0.04509125 0.067094006 -0.059678778 0.09011979
0.002103398 0.050129376 0.034780283 0.056005236 0.06737717 -0.009968493 -0.00077309547 0.08494481
0.024576817 -0.044881947 -0.056689516 -0.035452653 0.087842755 -0.006860512 0.014572296 0.056584418
-0.08274005 0.031467285 0.09345305 -0.027908916 0.04003215 -0.03516839 -0.08271351 -0.020829974
0.0021589433 0.054825984 -0.011857172 0.049283024 0.038131505 0.048408333 0.013099658 -0.072708145
0.00865326 -0.0236373 0.022861714 -0.02033815 -0.03532 0.03953743 0.0017622054 0.05327121
0.012336426 0.0059354496 -0.022532772 0.006774786 -0.02860319 0.02063532 -0.068391524 -0.106673166
-0.009178401 0.04530433 0.0559674 0.016840417 -0.037032254 -0.03925943 0.017286768 -0.014595046
-0.015535371 -0.040220387 -0.04248732 -0.083767034 -0.04274865 0.015946932 0.012471784 -0.07504349
-0.0693556 0.027849548 -0.0246754 0.03302097 -0.04520294 -0.08340551 0.010840114 0.05483948
-0.042207845 0.054981086 -0.030816726 0.064018264 -0.048817888 0.008337721 0.060912922 -0.015357185
-0.0150987925 -0.07902302 -0.010471457 0.056442264 -0.0013651919 -0.044485185 0.12798522 0.009267146
-0.006391225 0.10393004 0.016091755 -0.11148456 -0.066717744 -0.031781144 -0.009208218 -0.062386334
0.06211164 0.0384613 -0.027964903 0.0688131 0.0268596 0.016463814 -0.0073082102 -0.028395392
-0.03289799 -0.031138213 0.022847923 -0.034239396 0.045115523 -0.0100262435 -0.06736286 0.0495202
-0.08526764 -0.052702405 0.052492835 0.05627103 0.009624955 0.05665183 -0.020589437 -0.052210227
-0.054129913 -0.12420013 0.07753809 -0.01635692 -0.22780079 -0.039307814 -0.044528626 0.1953135
0.039705444 -0.09192739 0.051459588 -0.04638142 -0.079704545 -0.046260722 0.02110516 -0.01901907
-0.042440664 0.058132853 0.053859495 -0.06684842 0.049836867 -0.00552311 -0.021662137 0.10523053
-0.015185628 -0.0025557484 0.047679283 -0.08524484 0.02191891 0.05243092 -0.024711642 0.013288951
-0.013572991 0.09924087 -0.053910565 0.07575357 -0.033822726 -0.069255844 -0.010610203 -0.053480323
-0.026135968 -0.05350502 -0.0002899637 -0.033667672 0.018177811 -0.047472205 0.03836971 -0.027547473
-0.0959076 -0.0007876542 -0.0051857475 0.026021905 -0.019820374 0.04039729 -0.04574495 -0.018592982
0.07280176 -0.04219445 0.0093391165 -0.013978604 0.014143974 0.10636545 -0.08405354 0.09735862
-0.014390971 0.046285868 -0.09511581 -0.10005386 -0.08483553 0.06462876 -0.00027303008 0.019354949
00000000: 5a30 543d 108f 2ebd f451 4b3c 7734 313d
00000010: a697 3bbd 56bb 763d e3a3 04bd 6531 7c3d
00000020: 7ce9 883d c24f 903d 0ae3 94bd 7302 8ebc
00000030: 1471 9bbc 8477 fe3b fb7d 913d 06ec 723d
00000040: 9848 90bc cb3e dd3c c29c 573d 311d a4bb
00000050: 4492 ca3b 6f71 29bc e54c e8bc d3d6 91bd
00000060: 5ddb 8a3c 3652 dcbc 3251 513d 390b 153d
00000070: 7d68 9abd 2439 2a3d 4dd0 fcbc f59d 943b
00000080: a7e1 05bd 6cdc 7f3b d50a 823d 2f94 98bc
00000090: db30 aebc 3106 563d 049c 93bd 5a67 623c
000000a0: e34f 133d 6292 72bb d45f 613c 794a f73c
000000b0: 0c13 a33c 08ef 06bd 9833 f63c 3f64 9cbd
000000c0: 2133 e63c ac68 4d3d 94ed 88bc 8cd2 06bd
000000d0: 7b5c 9bbb e6d2 293d c782 62bd 2c4f 513d
000000e0: 6610 093b c843 4b3d fe48 b9bd dd59 a53c
000000f0: 9ab1 38bd 9568 893d bc71 74bd b990 b83d
00000100: 2ad9 093b 7654 4d3d c575 0e3d bf65 653d
00000110: 0bfd 893d e452 23bc 8fa9 4aba 8bf7 ad3d
00000120: 5255 c93c 22d6 37bd 4433 68bd cd36 11bd
00000130: e7e6 b33d 25ce e0bb a4c0 6e3c 10c5 673d
00000140: 9e73 a9bd d7e3 003d 5064 bf3d 3da1 e4bc
00000150: c0f8 233d bb0c 10bd b365 a9bd 9fa3 aabc
00000160: 0f7d 0d3b 3691 603d 9544 42bc ffdc 493d
00000170: c82f 1c3d d147 463d f39f 563c 02e8 94bd
00000180: 67c6 0d3c 03a3 c1bc 7d48 bb3c 319c a6bc
00000190: b4ab 10bd 00f2 213d cdf9 e63a ea32 5a3d
000001a0: b91e 4a3c 297e c23b a696 b8bc 06ff dd3b
000001b0: 3d51 eabc 670b a93c db10 8cbd 7677 dabd
000001c0: 0161 16bc 0891 393d 133e 653d eaf4 893c
000001d0: 22af 17bd 7fce 20bd fb9c 8d3c 0f20 6fbc
000001e0: 1288 7ebc 22be 24bd 2f07 2ebd 0d8e abbd
000001f0: 3519 2fbd 24a3 823c 7456 4c3c 67b0 99bd
00000200: 4f0a 8ebd bc24 e43c 1124 cabc ff40 073d
00000210: b826 39bd 82d0 aabd bc9a 313c 5d9f 603d
00000220: 22e2 2cbd d933 613d 5c73 fcbc 021c 833d
00000230: 44f5 47bd f09a 083c d47f 793d b49c 7bbc
00000240: ed60 77bc d2d6 a1bd 7990 2bbc 0130 673d
00000250: 3df0 b2ba 1936 36bd 8f0e 033e 3ad5 173c
00000260: 7b6d d1bb 46d9 d43d dbd2 833c 0452 e4bd
00000270: 50a3 88bd f22c 02bd 11de 16bc d088 7fbd
00000280: c668 7e3d 9989 1d3d a716 e5bc e2ed 8c3d
00000290: aa08 dc3c 1fdf 863c b679 efbb 749d e8bc
000002a0: 0bc0 06bd 9115 ffbc 912b bb3c 9c3e 0cbd
000002b0: 0ecb 383d 1d45 24bc 8af5 89bd b1d5 4a3d
000002c0: cda0 aebd 7ade 57bd ba02 573d 747c 663d
000002d0: fdb1 1d3c c00b 683d 2eab a8bc 64da 55bd
000002e0: 54b7 5dbd a35c febd 4acc 9e3d f3fe 85bc
000002f0: 9c44 69be 3b01 21bd a663 36bd 4300 483e
00000300: 2da2 223d 6d44 bcbd 4ac7 523d 72fa 3dbd
00000310: 233c a3bd e27b 3dbd bae4 ac3c e1cd 9bbc
00000320: 43d6 2dbd b71c 6e3d c69b 5c3d d3e7 88bd
00000330: be21 4c3d 34fb b4bb cb74 b1bc 1b83 d73d
00000340: 24cd 78bc 587e 27bb 5a4b 433d d994 aebd
00000350: 498f b33c cec1 563d 1270 cabc e6b9 593c
00000360: 4061 5ebc cc3e cb3d 53d1 5cbd b024 9b3d
00000370: b389 0abd 02d6 8dbd 6bd6 2dbc 2f0e 5bbd
00000380: 191b d6bc 1428 5bbd 4506 98b9 1de7 09bd
00000390: a2e9 943c 3772 42bd 8f29 1d3d 3dab e1bc
000003a0: 346b c4bd 947a 4eba 34ed a9bb e42b d53c
000003b0: 565e a2bc a177 253d 0f5f 3bbd 4f50 98bc
000003c0: 1719 953d 16d4 2cbd 1803 193c 8406 65bc
000003d0: 20bc 673c 21d6 d93d 4324 acbd f563 c73d
000003e0: 1bc8 6bbc 4096 3d3d 14cc c2bd 0ae9 ccbd
000003f0: 40be adbd 155c 843d 7a25 8fb9 458e 9e3c

conv_pep.0.bias f4 [16]
-0.0107997535 -0.06390355 -0.013796666 0.07075764 -0.021912947 0.024636887 0.038555425 -0.017653227
0.01974088 -5.430467e-05 1.0605269e-05 -0.035844456 0.046295885 -0.04013198 -0.053528957 -0.03841411
00000000: 73f1 30bc dddf 82bd 690b 62bc 62e9 903d
00000010: c882 b3bc 4cd3 c93c 4bec 1d3d 809d 90bc
00000020: a0b7 a13c 32c5 63b8 49ed 3137 a3d1 12bd
00000030: c1a0 3d3d 6e61 24bd 2e41 5bbd 1d58 1dbd

conv_pep.1.weight f4 [16]
0.9734046 0.9849751 0.97789705 1.0336013 0.9876597 0.9956 1.0002731 0.9880548
1.0296428 0.9977807 1.034667 0.98932636 1.004872 0.9906969 0.99846214 0.9861371
00000000: 0b31 793f 5427 7c3f 7657 7a3f 0c4d 843f
00000010: 44d7 7c3f a4df 7e3f f308 803f 29f1 7c3f
00000020: 56cb 833f 8e6e 7f3f f86f 843f 7e44 7d3f
00000030: a59f 803f 509e 7d3f 379b 7f3f 7b73 7c3f

conv_pep.1.bias f4 [16]
-0.005771545 -0.016564466 0.0065187113 -0.015511361 -0.023692911 -0.022898559 0.008077657 0.0142034395
0.01789205 -0.019440128 0.09445356 -0.03617908 0.029557556 -0.02218357 0.011544154 -0.008167289
00000000: 3b1f bdbb 34b2 87bc ea9a d53b 5d23 7ebc
00000010: a317 c2bc c295 bbbc 2658 043c 8bb5 683c
00000020: 5992 923c e740 9fbc de70 c13d 8430 14bd
00000030: b022 f23c 51ba b5bc b123 3d3c 18d0 05bc

conv_pep.1.running_mean f4 [16]
1.1967261 -1.2690839 0.5063208 0.048579108 1.6300815 0.7832382 -0.76504433 -1.1648294
-0.6933139 -1.042886 0.44944575 -0.69493777 -0.4267764 0.21155179 0.035417266 -1.4233508
00000000: 522e 993f 5771 a2bf 3d9e 013f e3fa 463d
00000010: 83a6 d03f 4c82 483f f2d9 43bf 2119 95bf
00000020: 057d 31bf 4a7d 85bf c11d e63e 71e7 31bf
00000030: 7082 dabe 08a1 583e b211 113d 5c30 b6bf

conv_pep.1.running_var f4 [16]
0.25646296 0.64584476 0.21567151 0.35365275 0.81662875 0.30847785 0.79610133 0.19821306
0.20303273 0.45497057 0.34588912 0.30771166 0.50942886 0.27715293 0.38618317 0.7224538
00000000: 1d4f 833e 1556 253f fed8 5c3e f911 b53e
00000010: 950e 513f cff0 9d3e 4ccd 4b3f 5df8 4a3e
00000020: d0e7 4f3e e7f1 e83e 6118 b13e 628c 9d3e
00000030: ee69 023f fde6 8d3e cdb9 c53e bbf2 383f

conv_pep.3.weight f4 [64, 16, 3]
0.016003828 0.11294912 -0.09023495 0.099575095 -0.065090604 0.0848761 -0.040103916 -0.010086096
0.16461194 -0.022620456 0.013449445 -0.10911545 0.00681276 -0.15126194 -0.12053042 -0.033852514
0.06289584 -0.034512863 -0.02021419 0.11169053 0.07372052 -0.040618274 0.033426892 -0.118157014
-0.059791125 0.1073685 -0.124198414 -0.10451035 0.13642281 -9.903147e-07 0.011298604 -0.108845495
-0.14739467 0.053512502 0.13000277 0.106343806 -0.008997412 0.06583809 -0.04725996 -0.14330587
0.0028566865 -0.03621877 -0.071231864 0.06728307 -0.15662837 0.07571003 0.13278997 0.08391761
-0.111186884 -0.0107691595 -0.1108168 0.034216702 -0.054677483 -0.0331334 -0.05280751 0.13279817
-0.113157414 -0.15788127 -0.045527373 -0.054216392 0.07638213 -0.02112046 0.097879425 -0.14065838
0.07975334 -0.02129324 -0.09952174 -0.011254192 -0.10577084 0.0032531288 -0.026795803 0.029029518
-0.07348456 0.12824403 -0.084026925 -0.028006228 0.11008564 0.16227695 -0.112834334 -0.09949176
-0.047393147 0.05846384 -0.07465684 -0.09046348 -0.033395875 -0.12231115 -0.06121704 0.12066869
0.029278805 -0.09311617 0.0036761258 -0.16306286 0.08216272 -0.0130668515 0.07829294 0.03406913
0.11375718 0.086216316 0.007477106 -0.08889036 0.008606298 0.10319092 0.11026738 -0.06818511
-0.062466122 -0.004159336 -0.0865745 0.08906001 0.12525865 0.05208137 -0.04924067 -0.0071513765
-0.07530566 -0.075865954 -0.07041162 0.051309895 -0.1536428 0.051883686 0.08157218 0.088336006
-0.047671232 0.04189324 0.07772533 -0.09965466 -0.14881755 -0.13889366 -0.0030238521 -0.010910079
0.13378909 -0.09414575 0.14507271 0.07118474 -0.04868971 0.10734895 -0.03376541 0.04554347
-0.062086444 -0.029596966 -0.16738479 0.08281951 0.061127618 0.060579784 -0.11231759 -0.11331649
0.020782525 0.0459681 0.029875353 0.18116312 -0.049403857 0.031519495 -0.12161914 -0.07862703
0.0013068252 0.14474058 0.11487925 0.10169245 -0.08836033 -0.021697547 -0.024679955 -0.12982023
-0.012984166 -0.13637753 0.04044073 0.020015806 0.14540325 0.09089378 -0.019619925 -0.08730073
0.06140706 -0.0015409352 -0.021568151 -0.13371766 -0.09034867 0.093512855 -0.13607444 0.05480762
-0.04134377 0.07234855 0.122124925 -0.011596169 0.034672637 -0.03659447 0.079251185 0.06334448
0.0773039 -0.08296946 -0.124755375 0.039703894 -0.07598859 -0.04127396 -0.12016922 0.026356706
-0.13931705 0.023348685 -0.1602096 -0.11041788 0.13698629 -0.10866803 0.11753059 0.113532074
0.114225745 -0.11588078 0.103662275 0.05619358 -0.06561551 0.11865058 0.09141092 0.11012453
0.008077686 0.07834219 -0.030461624 0.15489128 0.08086239 0.033538423 0.0004432904 0.08063008
0.06537775 -0.12858167 0.092543624 -0.11665022 0.102957405 -0.12161134 -0.06458899 0.039704837
-0.08792222 -0.18184063 -0.110187024 -0.03037827 0.046626527 0.06513788 -0.16380136 -0.14359164
0.023377808 -0.049140826 -0.018875996 0.1185352 -0.08519114 -0.06793579 -0.118894815 -0.09216408
-0.0965327 -0.025130117 -0.086715765 -0.08294813 -0.003683225 -0.071502455 0.08718071 -0.047848858
-0.104416594 -0.12736031 0.101379864 -0.11563554 0.09251948 -0.0652348 0.05253399 -0.0769311
00000000: 761a 833c de51 e73d 1acd b8bd 07ee cb3d
00000010: 394e 85bd 85d3 ad3d 0144 24bd 2740 25bc
00000020: 0890 283e 894e b9bc 105b 5c3c ec77 dfbd
00000030: 933d df3b 69e4 1abe a7d8 f6bd efa8 0abd
00000040: 89cf 803d 5c5d 0dbd 3b98 a5bc 01be e43d
00000050: c9fa 963d 595f 26bd a3ea 083d 4efc f1bd
00000060: 8ae7 74bd 04e4 db3d bd5b febd 8609 d6bd
00000070: 6cb2 0b3e f4ea 84b5 c81d 393c 63ea debd
00000080: a1ee 16be ed2f 5b3d 721f 053e c8ca d93d
00000090: e269 13bc 1fd6 863d a993 41bd c6be 12be
000000a0: 3f37 3b3b 225a 14bd 03e2 91bd b5cb 893d
000000b0: 3063 20be dc0d 9b3d 18fa 073e ffdc ab3d
000000c0: f3b5 e3bd 2171 30bc ebf3 e2bd d026 0c3d
000000d0: 7ff5 5fbd e3b6 07bd b04c 58bd 3efc 073e
000000e0: 13bf e7bd a1ab 21be e97a 3abd 0212 5ebd
000000f0: 3c6e 9c3d d104 adbc 0275 c83d c008 10be
00000100: b855 a33d 296f aebc 0ed2 cbbd 8163 38bc
00000110: 629e d8bd 7232 553b df82 dbbc 50cf ed3c
00000120: 137f 96bd 6752 033e 4f16 acbd 516d e5bc
00000130: 9474 e13d ee2b 263e b015 e7bd 56c2 cbbd
00000140: 511f 42bd c877 6f3d afe5 98bd eb44 b9bd
00000150: 1dca 08bd 457e fabd b8be 7abd 2521 f73d
00000160: 1bda ef3c b1b3 bebd 28eb 703b f3f9 26be
00000170: ee44 a83d 5916 56bc 0d58 a03d 128c 0b3d
00000180: 86f9 e83d 2e92 b03d 8302 f53b 260c b6bd
00000190: 6e01 0d3c c355 d33d ddd3 e13d a3a4 8bbd
000001a0: 7adc 7fbd 0a4b 88bb f94d b1bd 1865 b63d
000001b0: ce43 003e 4653 553d 96b0 49bd 1856 eabb
000001c0: db39 9abd 9c5f 9bbd f833 90bd 532a 523d
000001d0: 8a54 1dbe fd83 543d 510f a73d 82e9 b43d
000001e0: e942 43bd 3f98 2b3d 752e 9f3d be17 ccbd
000001f0: a163 18be 243a 0ebe d22b 46bb 30c0 32bc
00000200: 0200 093e 7dcf c0bd f18d 143e 4ec9 913d
00000210: dd6e 47bd c4d9 db3d 994d 0abd ca8b 3a3d
00000220: 5b4e 7ebd 5675 f2bc eb66 2bbe 469d a93d
00000230: f460 7a3d 8222 783d c406 e6bd 7a12 e8bd
00000240: 1d40 aa3c 0c49 3c3d 28bd f43c d382 393e
00000250: b35b 4abd 961a 013d 7513 f9bd 3507 a1bd
00000260: c749 ab3a e036 143e d045 eb3d 2244 d03d
00000270: 43f6 b4bd 0ebf b1bc 9e2d cabc 98ef 04be
00000280: 8abb 54bc 8da6 0bbe 2ea5 253d 30f8 a33c
00000290: 97e4 143e 8526 ba3d f7b9 a0bc baca b2bd
000002a0: f885 7b3d 35f9 c9ba b1af b0bc 48ed 08be
000002b0: b908 b9bd ab83 bf3d 1957 0bbe f47d 603d
000002c0: 1658 29bd 7a2b 943d a21c fa3d dcfd 3dbc
000002d0: e504 0e3d 15e4 15bd 724e a23d c0ba 813d
000002e0: 8251 9e3d e4eb a9bd bf7f ffbd 8da0 223d
000002f0: e89f 9bbd e20e 29bd 481b f6bd 05ea d73c
00000300: 21a9 0ebe be45 bf3c fc0d 24be c522 e2bd
00000310: 2246 0c3e 588d debd e1b3 f03d 8183 e83d
00000320: 30ef e93d e752 edbd e34c d43d 3d2b 663d
00000330: 6d61 86bd 13ff f23d a635 bb3d f888 e13d
00000340: 4558 043c df71 a03d a88a f9bc d29b 1e3e
00000350: 2e9b a53d 965f 093d 6e69 e839 6221 a53d
00000360: c5e4 853d eaaa 03be 8387 bd3d 4fe6 eebd
00000370: 55db d23d 5e0f f9bd 3b47 84bd 8aa1 223d
00000380: 9110 b4bd 6e34 3abe bca9 e1bd dadb f8bc
00000390: 75fb 3e3d 0267 853d 8bbb 27be b009 13be
000003a0: d182 bf3c e447 49bd d5a1 9abc 95c2 f23d
000003b0: b178 aebd eb21 8bbd 207f f3bd 85c0 bcbd
000003c0: f0b2 c5bd addd cdbc 0998 b1bd b6e0 a9bd
000003d0: 4362 71bb e16f 92bd cd8b b23d 2afd 43bd
000003e0: 5ed8 d5bd be6a 02be 3fa0 cf3d 53d2 ecbd
000003f0: da7a bd3d d399 85bd e22d 573d 0d8e 9dbd

conv_pep.3.bias f4 [64]
-0.11729935 0.05883702 -0.0954995 0.123024225 0.029948961 0.07174548 -0.09213741 0.053958707
0.09938886 -0.1424372 -0.05929055 -0.082709335 0.11193435 0.09851014 -0.078799136 -0.098516926
-0.032634187 0.03410262 0.14565091 -0.10283116 -0.021607876 0.030201357 0.13225457 -0.09513301
0.026822422 0.009052129 0.056614906 -0.084196344 0.04467722 0.10042936 0.03838305 -0.033636842
0.1184258 -0.09475471 0.038699057 0.052169804 -0.012374211 0.09106957 -0.069603056 0.054383285
-0.02005955 -0.13080008 0.0801254 -0.14223461 0.032727357 0.13716045 -0.03241153 0.11746272
0.0639296 -0.08489166 -0.08512723 -0.07526717 -0.12452795 -0.13642614 -0.037009377 -0.026069
-0.007862053 -0.0074689016 -0.02784163 0.035589356 0.10444175 -0.06479365 -0.0050109103 -0.10256149
00000000: a43a f0bd 16ff 703d 3e95 c3bd 20f4 fb3d
00000010: 8657 f53c 4bef 923d 8ab2 bcbd ce03 5d3d
00000020: 638c cb3d 0fdb 11be a6da 72bd 8363 a9bd
00000030: d63d e53d afbf c93d 7161 a1bd 3ec3 c9bd
00000040: 6dab 05bd 30af 0b3d 8325 153e 2599 d2bd
00000050: 0003 b1bc d668 f73c be6d 073e 18d5 c2bd
00000060: b2ba db3c 624f 143c 08e5 673d 226f acbd
00000070: 76ff 363d e9ad cd3d 8c37 1d3d c9c6 09bd
00000080: 3a89 f23d c20e c2bd e782 1e3d 01b0 553d
00000090: 34bd 4abc af82 ba3d 0c8c 8ebd 02c1 5e3d
000000a0: ed53 a4bc 75f0 05be c918 a43d f3a5 11be
000000b0: 1f0d 063d ca73 0c3e f4c1 04bd 4b90 f03d
000000c0: 86ed 823d aedb adbd 2f57 aebd ad25 9abd
000000d0: 8308 ffbd 4bb3 0bbe 2597 17bd a88e d5bc
000000e0: d7cf 00bc b0bd f4bb 2114 e4bc 25c6 113d
000000f0: 8ee5 d53d 88b2 84bd 9032 a4bb c20b d2bd

conv_pep.4.weight f4 [64]
0.97128063 0.94852746 0.97301483 1.0127918 0.9852773 1.0075047 1.0182025 0.98715025
0.99359894 1.0104318 1.0063088 1.0096427 1.0000484 1.0191189 0.9816678 0.9813565
1.0043337 1.0324179 0.9871075 1.0088251 1.0005966 1.0184214 0.96150964 0.9967111
1.0307778 0.9881736 0.9958556 0.9619003 0.9746671 0.97868615 0.98859644 0.98571545
0.9921956 0.9712352 1.0092216 1.0064069 0.9539291 1.0313281 1.0246457 1.0175145
0.98950374 0.95768565 0.97689605 0.9998577 1.0197232 1.0022403 1.0004207 1.0504717
1.0091344 1.0196072 1.0024877 0.98415416 1.021757 0.9576667 0.9791166 0.99879766
0.97616476 0.97253144 0.9974731 1.0251456 1.0418102 0.9911629 1.0192553 1.0521579
00000000: d9a5 783f b2d2 723f 8017 793f 29a3 813f
00000010: 223b 7c3f eaf5 803f 7654 823f e1b5 7c3f
00000020: 805c 7e3f d455 813f bace 803f f93b 813f
00000030: 9601 803f 7d72 823f 954e 7b3f 2e3a 7b3f
00000040: 028e 803f 4526 843f 14b3 7c3f 2e21 813f
00000050: 8d13 803f a25b 823f 7f25 763f 7528 7f3f
00000060: 87f0 833f f2f8 7c3f 65f0 7e3f 193f 763f
00000070: c883 793f 2d8b 7a3f a814 7d3f d957 7c3f
00000080: 8800 7e3f dfa2 783f 2c2e 813f f1d1 803f
00000090: b334 743f 8f02 843f 9727 833f ea3d 823f
000000a0: 1e50 7d3f e32a 753f dc15 7a3f adf6 7f3f
000000b0: 4a86 823f 6949 803f c90d 803f db75 863f
000000c0: 512b 813f 7d82 823f 8451 803f 87f1 7b3f
000000d0: efc8 823f a529 753f 63a7 7a3f 34b1 7f3f
000000e0: efe5 793f d2f7 783f 665a 7f3f f937 833f
000000f0: 095a 853f dabc 7d3f f576 823f 1cad 863f

conv_pep.4.bias f4 [64]
-0.00188359 0.001480099 -0.00075492274 -0.0018687855 -0.008051448 -0.0684168 0.028910073 -0.0046556937
-0.039460436 -0.037325304 0.035050467 -0.04558976 -0.01040413 -0.0454635 -0.042454164 -0.06512477
0.017037783 0.020646058 0.035049528 -0.0322786 0.022781122 0.016223183 -0.06680199 0.011559947
0.016670484 -0.024679797 0.030134182 -0.032159697 -0.04598468 -0.023729892 -0.027016824 0.016163154
-0.043357972 -0.03706698 0.00013059823 0.018230706 -0.09183511 -0.00955008 -0.00034576235 -0.022493603
0.004944218 -0.035203345 -0.012150876 -0.00091251865 0.01619452 0.017382057 -0.04501152 -0.017420702
0.035379604 0.046651434 -0.01271764 -0.016879058 -0.027841305 -0.004200018 0.02762016 -0.0145143205
-0.083647475 -0.023761164 0.020044358 -0.013341119 -0.03956044 -0.009808839 0.031117922 -0.00934781
00000000: cbe2 f6ba e2ff c13a 02e6 45ba 09f2 f4ba
00000010: 38ea 03bc 1b1e 8cbd d1d4 ec3c ca8e 98bb
00000020: 44a1 21bd 6be2 18bd 1491 0f3d 54bc 3abd
00000030: 1676 2abc ef37 3abd 6be4 2dbd 2360 85bd
00000040: d292 8b3c ec21 a93c 1890 0f3d 9136 04bd
00000050: 7a9f ba3c 7be6 843c 7bcf 88bd ef65 3d3c
00000060: 8a90 883c 492d cabc f6db f63c e3b9 03bd
00000070: 6f5a 3cbd 3165 c2bc 6352 ddbc 9768 843c
00000080: 2198 31bd 8cd3 17bd 32f1 0839 9058 953c
00000090: 0c14 bcbd f077 1cbc 7047 b5b9 8144 b8bc
000000a0: 1b03 a23b 6231 10bd 7814 47bc 1736 6fba
000000b0: 5faa 843c d164 8e3c 005e 38bd dcb5 8ebc
000000c0: 34ea 103d 9315 3f3d a65d 50bc f345 8abc
000000d0: 7313 e4bc 4ea0 89bb ac43 e23c 79cd 6dbc
000000e0: 5e4f abbd c6a6 c2bc 1134 a43c b594 5abc
000000f0: 210a 22bd 41b5 20bc 03eb fe3c 8f27 19bc

conv_pep.4.running_mean f4 [64]
-0.12542969 -0.27158648 -0.1354286 0.17147434 -0.08707748 -0.009944617 -0.2460075 -0.16355504
-0.0990704 0.09713583 -0.089219436 -0.23325524 0.2911551 0.116973616 -0.3267115 -0.25387815
-0.13743563 -0.18015848 0.021955589 0.16660562 0.5107497 0.11131592 -0.17746618 -0.32758152
0.06530415 -0.07441728 -0.14340132 -0.1383269 0.21379974 0.3197728 0.10024051 -0.036079638
0.47784597 -0.1311817 -0.158779 -0.13588256 0.23431452 -0.31576547 -0.14189006 0.19180743
-0.1462481 -0.05226584 0.1420747 0.15262277 0.02819812 0.51039934 -0.05031284 0.41550356
0.11015997 -0.37041062 0.032625772 -0.3678318 0.14893286 -0.10954899 -0.13425617 0.20120141
-0.034454722 0.54709345 -0.16520187 -0.10303253 0.3279285 -0.072321415 -0.044315346 -0.28953356
00000000: a470 00be 620d 8bbe cbad 0abe f896 2f3e
00000010: ae55 b2bd bfee 22bc 64e9 7bbe f97a 27be
00000020: 6ce5 cabd 26ef c63d aeb8 b6bd 76da 6ebe
00000030: 4812 953e dd8f ef3d bb46 a7be 51fc 81be
00000040: edbb 0cbe 777b 38be 35dc b33c aa9a 2a3e
00000050: 7ec0 023f 9af9 e33d b2b9 35be c4b8 a7be
00000060: 2fbe 853d 1668 98bd ccd7 12be 91a5 0dbe
00000070: 52ee 5a3e 43b9 a33e e64a cd3d 3ec8 13bd
00000080: 3aa8 f43e 7f54 06be f696 22be cc24 0bbe
00000090: 25f0 6f3e 03ac a1be a14b 11be 2b69 443e
000000a0: 10c2 15be b514 56bd 087c 113e 2549 1c3e
000000b0: beff e63c 88a9 023f d614 4ebd e2bc d43e
000000c0: 8d9b e13d 76a6 bdbe 9aa2 053d 7354 bcbe
000000d0: db81 183e 395b e0bd 737a 09be be07 4e3e
000000e0: 6520 0dbd 510e 0c3f ae2a 29be b802 d3bd
000000f0: 3fe6 a73e 401d 94bd 0284 35bd be3d 94be

conv_pep.4.running_var f4 [64]
0.35278237 0.20805924 0.23669289 0.5188841 0.35107297 0.10651695 0.09599079 0.14797328
0.15572378 0.24127711 0.12974612 0.12626114 0.150093 0.11726878 0.1693225 0.106446944
0.09203225 0.08863774 0.13751401 0.10505371 0.26675308 0.17888056 0.85327953 0.11195372
0.13883378 0.3073638 0.10744362 0.11396595 0.26152876 0.113115594 0.30660915 0.13866565
0.33777758 0.35948053 0.2557093 0.10420501 0.3154671 0.113039434 0.15586534 0.16000274
0.11832301 0.3912964 0.23574454 0.11892118 0.16819109 0.18713489 0.1046322 0.11280213
0.30235404 0.15114343 0.5263937 0.4154492 0.11907462 0.1851209 0.14349532 0.14465083
0.32722768 0.64928466 0.23197895 0.0973555 0.13466889 0.110939704 0.09724323 0.13750874
00000000: e49f b43e 7b0d 553e 9f5f 723e 97d5 043f
00000010: d6bf b33e 8f25 da3d d296 c43d 4f86 173e
00000020: 0e76 1f3e 5911 773e 2bdc 043e 9a4a 013e
00000030: fbb1 193e 9d2a f03d e162 2d3e db00 da3d
00000040: 677b bc3d b487 b53d 79d0 0c3e 6626 d73d
00000050: dc93 883e 772c 373e 8770 5a3f fe47 e53d
00000060: 712a 0e3e ca5e 9d3e 670b dc3d fb66 e93d
00000070: 19e7 853e 26a9 e73d e0fb 9c3e 5efe 0d3e
00000080: 2ff1 ac3e d50d b83e 54ec 823e 7069 d53d
00000090: e784 a13e 3881 e73d 2a9b 1f3e c2d7 233e
000000a0: 5653 f23d 0058 c83e 0467 713e f38c f33d
000000b0: 493a 2c3e 4aa0 3f3e 6849 d63d ce04 e73d
000000c0: 26ce 9a3e 58c5 1a3e bdc1 063f c2b5 d43e
000000d0: 65dd f33d 5590 3d3e 70f0 123e 591f 143e
000000e0: 638a a73e 8537 263f e48b 6d3e 5262 c73d
000000f0: a4e6 093e 5b34 e33d 7527 c73d 17cf 0c3e

conv_pep.6.weight f4 [64, 64, 3]
0.03366568 0.077326365 0.060329504 0.054072976 -0.009527233 0.009068428 0.06273712 0.0075039524
-0.015469434 -0.04411408 -0.040045876 -0.077253245 0.005956398 0.042115957 0.08560026 -0.060086735
0.03639724 0.032400385 0.036893997 -0.006480541 -0.0481798 -0.030004837 -0.036892988 -0.085050955
0.017188346 0.03303637 0.0931089 -0.07314141 -0.028708408 -0.03429152 -0.0363729 -0.035893273
0.10188524 0.06819255 0.06972476 -0.038192365 -0.08071484 0.0030290722 0.08536904 -0.0013778864
-0.027020248 -0.037360363 0.029774075 0.04973637 0.05659207 0.007601323 0.015107139 -0.026893545
0.021654945 0.03269689 0.015256981 -0.09633312 -0.043716878 0.052231524 -0.05024894 -0.007683738
-0.00412126 -0.011447041 0.03592594 0.010976556 0.06499725 -0.027248187 -0.06230678 0.030982282
-0.065704845 0.055677343 -0.017180359 0.05183476 -0.023685427 0.048666988 -0.0049368157 0.0050665257
-0.044378947 -0.035025783 0.013603517 -0.07320203 -0.07898601 0.02540101 -0.03010536 -0.0040588262
0.007469511 0.031204417 -0.06353459 -0.0027880513 -0.09488432 -0.07376513 -0.0027989636 0.015835913
0.018368147 -0.01535188 -0.008402463 -0.048590396 0.045192037 0.037538283 -0.017636864 0.06281068
0.012747736 -0.025444735 0.04077073 -0.020034611 -0.012996511 0.00089946215 0.0089636715 0.00093679695
-0.012799509 0.006897245 -0.06496459 -0.037928466 0.06060344 -0.029388864 0.01537115 0.042612355
0.01594211 0.014356616 0.043280263 -0.06967857 -0.112939455 -0.016423725 0.047646176 -0.004593548
-0.10301161 0.07051477 0.040593214 -0.010724155 0.03352799 -0.02488069 -0.0013745804 -0.019503757
-0.027952308 -0.021277374 0.05490616 0.06278075 -0.036049247 0.008957072 -0.026129004 0.054552406
-0.09766314 0.0045650625 -0.016744114 0.04142364 -0.003113633 0.07341789 0.013694268 -0.027636386
-0.036530145 0.052082673 -0.04462728 -0.007537964 0.014658342 -0.04412905 -0.026521115 0.021866366
-0.07881776 0.0019342742 -0.04600541 0.05704172 -0.037082843 -0.02561588 -0.05665103 0.045367427
-0.10419794 -0.008701225 0.002261925 -0.04373216 -0.04405621 0.05106145 0.049117234 -0.062494244
0.002713405 0.016532945 0.025759453 -0.0038877502 -0.09748363 -0.033822708 0.013585693 -0.043280154
0.03468455 -0.069281705 -0.078917466 0.0012977851 0.026111292 -0.055894043 -0.005942467 0.01988526
0.0043891277 -0.054056276 0.0031135085 -0.06668111 0.04959082 -0.05684681 0.019758824 0.040109895
0.047904056 0.054005474 0.035610065 0.00037618913 0.017419474 -0.06096098 -0.047651097 -0.098217
0.051936872 0.0058989893 -0.052929036 0.0125932675 -0.048325714 0.04361025 0.048108198 -0.021556653
0.04603089 0.036743797 -0.08900986 0.0144260675 -0.07958303 -0.040591795 -0.014370366 0.006608752
-0.017885633 -0.023059214 -0.005100127 0.073031805 0.03191063 0.06053544 0.006544507 0.07864853
-0.019536024 0.030131843 -0.09616472 -0.03260591 0.031808417 -0.08852928 -0.0034945586 0.016672572
-0.016517356 -0.08600251 0.0044712564 -0.04966041 0.057002746 -0.015862726 -0.03393328 -0.023807004
-0.03828899 0.046008594 0.055381898 0.0428054 0.026305266 0.017075475 -0.014400421 -0.0163193
0.06541657 0.067650035 0.055037092 -0.11440299 -0.06756117 0.048434835 -0.008145491 -0.03329156
00000000: 06e5 093d 495d 9e3d 121c 773d a07b 5d3d
00000010: 1d18 1cbc be93 143c 527c 803d b7e3 f53b
00000020: 8273 7dbc f7b0 34bd 2507 24bd f336 9ebd
00000030: e32d c33b c881 2c3d 304f af3d 821d 76bd
00000040: 4615 153d 44b6 043d 291e 173d b85a d4bb
00000050: 2f58 45bd b4cc f5bc 1a1d 17bd 322f aebd
00000060: 93ce 8c3c 2551 073d e1af be3d 2acb 95bd
00000070: e52d ebbc 4475 0cbd c0fb 14bd d304 13bd
00000080: 35a9 d03d 89a8 8b3d dbcb 8e3d 996f 1cbd
00000090: d24d a5bd 6683 463b f7d5 ae3d 329a b4ba
000000a0: 9159 ddbc 2e07 19bd c3e8 f33c 5db8 4b3d
000000b0: 16cd 673d 8514 f93b ef83 773c da4f dcbc
000000c0: b665 b13c 2ded 053d 6bf8 793c 4c4a c5bd
000000d0: 7810 33bd b9f0 553d d5d1 4dbd dec7 fbbb
000000e0: a20b 87bb 5f8c 3bbc 1427 133d 03d7 333c
000000f0: 471d 853d 9737 dfbc 6535 7fbd 8ece fd3c
00000100: 4390 86bd ed0d 643d d3bd 8cbc af50 543d
00000110: f107 c2bc 0957 473d 03c5 a1bb 1905 a63b
00000120: b3c6 35bd 3277 0fbd 49e1 5e3c f2ea 95bd
00000130: 6bc3 a1bd c715 d03c 849f f6bc e7ff 84bb
00000140: cdc2 f43b 68a0 ff3c 6c1e 82bd bdb7 36bb
00000150: b652 c2bd 2c12 97bd d16e 37bb 51ba 813c
00000160: cc78 963c 7486 7bbc 7caa 09bc b906 47bd
00000170: 491b 393d bec1 193d 2f7b 90bc e3a2 803d
00000180: e1db 503c 7a71 d0bc 35ff 263d a01f a4bc
00000190: 51ef 54bc e2c9 6b3a 5ddc 123c 6193 753a
000001a0: 08b5 51bc 4902 e23b 280c 85bd e15a 1bbd
000001b0: 503b 783d eac0 f0bc 47d7 7b3c 4b8a 2e3d
000001c0: 0799 823c 0338 6b3c a546 313d a3b3 8ebd
000001d0: cd4c e7bd 0c8b 86bc a328 433d 7985 96bb
000001e0: c0f7 d2bd 0c6a 903d 1245 263d 5eb4 2fbc
000001f0: a554 093d 97d2 cbbc 442b b4ba 58c6 9fbc
00000200: 3dfc e4bc e34d aebc 48e5 603d 3293 803d
00000210: 60a8 13bd afc0 123c 7e0c d6bc 5872 5f3d
00000220: 9d03 c8bd 8596 953b f42a 89bc d6ab 293d
00000230: 180e 4cbb 1e5c 963d ec5d 603c b465 e2bc
00000240: a2a0 15bd a454 553d 18cb 36bd 0601 f7bb
00000250: 8b29 703c aac0 34bd cf42 d9bc 1821 b33c
00000260: 356b a1bd 7987 fd3a 2b70 3cbd 94a4 693d
00000270: 2ee4 17bd 65d8 d1bc e90a 68bd 32d3 393d
00000280: bb65 d5bd 958f 0ebc ce3c 143b 7e20 33bd
00000290: 4974 34bd d025 513d 272f 493d f7f9 7fbd
000002a0: 62d3 313b 1970 873c 7d05 d33c a0c9 7ebb
000002b0: 7fa5 c7bd ae89 0abd 8796 5e3c 8846 31bd
000002c0: 6311 0e3d 91e3 8dbd 7b9f a1bd 711a aa3a
000002d0: 59e7 d53c 27f1 64bd 07b9 c2bb 6ae6 a23c
000002e0: acd2 8f3b 1d6a 5dbd 010c 4c3b 1b90 88bd
000002f0: be1f 4b3d 33d8 68bd 42dd a13c 464a 243d
00000300: 0b37 443d d834 5d3d dcdb 113d 403b c539
00000310: 49b3 8e3c 38b2 79bd cc2d 43bd ff25 c9bd
00000320: c2bb 543d 4f4c c13b 1ecc 58bd fe53 4e3c
00000330: 2ff1 45bd a9a0 323d 1a0d 453d 9497 b0bc
00000340: e38a 3c3d aa80 163d cd4a b6bd 505b 6c3c
00000350: 6dfc a2bd 9543 26bd af71 6bbc 3b8e d83b
00000360: e484 92bc ade6 bcbc f71e a7bb b391 953d
00000370: b9b4 023d 02f4 773d 4e73 d63b 7b12 a13d
00000380: 030a a0bc 0ed7 f63c 02f2 c4bd c68d 05bd
00000390: 8b49 023d d74e b5bd f704 65bb eb94 883c
000003a0: 684f 87bc 1522 b0bd 9e83 923b b768 4bbd
000003b0: b67b 693d 8cf2 81bc 9ffd 0abd e806 c3bc
000003c0: ead4 1cbd 8273 3c3d 21d8 623d b754 2f3d
000003d0: 247e d73c dee1 8b3c beef 6bbc 0db0 85bc
000003e0: 1ff9 853d 1a8c 8a3d 936e 613d 1d4c eabd
000003f0: 835d 8abd 9b63 463d aa74 05bc bb5c 08bd

conv_pep.6.bias f4 [64]
-0.03185995 -0.057653535 -0.011111059 -0.0037107102 0.06052866 0.0061613657 0.01373696 -0.035800874
-0.022405284 0.009022723 -0.0043448354 0.0032577117 -0.011535037 -0.032815136 0.06593298 0.06590664
-0.0054674894 0.015573868 -0.0069304854 -0.062200423 -0.021738065 -0.050293323 0.068903826 -0.020729437
0.004787022 0.03663822 0.013221131 -0.02064619 0.006252802 -0.028968194 -0.027360836 0.03054642
0.04040239 0.051998336 0.07168969 -0.054299686 -0.021525197 0.026572434 -0.012618953 -0.040717065
0.044993225 0.0038979533 0.04162537 0.05295875 -0.03320479 0.030624852 -0.0046693627 -0.029784521
-0.012827685 0.0075582713 -0.016687974 0.039146706 0.023457706 -0.030726278 -0.044515226 -0.02480484
-0.02220915 0.06360088 -0.039620228 -0.05763123 0.021715129 0.04961032 -0.0017144589 0.016603058
00000000: 947f 02bd 1d26 6cbd 290b 36bc 632f 73bb
00000010: e6ec 773d 48e5 c93b fc10 613c f0a3 12bd
00000020: 498b b7bc 0bd4 133c 1f5f 8ebb 557f 553b
00000030: 74fd 3cbc 2a69 06bd df07 873d 0ffa 863d
00000040: a028 b3bb 8929 7f3c 2019 e3bb dfc5 7ebd
00000050: 0714 b2bc 5f00 4ebd 731d 8d3d c8d0 a9bc
00000060: 73dc 9c3b f511 163d 719d 583c 3322 a9bc
00000070: 4ee4 cc3b b54e edbc d523 e0bc 7c3c fa3c
00000080: fa7c 253d 35fc 543d 0bd2 923d 5969 5ebd
00000090: 9c55 b0bc 6fae d93c babf 4ebc f0c6 26bd
000000a0: d14a 383d ce74 7f3b 5d7f 2a3d 46eb 583d
000000b0: bf01 08bd f8e0 fa3c 7401 99bb abfe f3bc
000000c0: 362b 52bc 60ab f73b 38b5 88bc 4c58 203d
000000d0: 602a c03c adb5 fbbc 9955 36bd 8533 cbbc
000000e0: f7ef b5bc 2e41 823d d248 22bd ba0e 6cbd
000000f0: ede3 b13c 3134 4b3d b2b7 e0ba 2303 883c

conv_pep.7.weight f4 [64]
0.9979063 0.99201626 0.99365026 0.99491173 0.9881664 0.97327846 1.0043976 0.9753913
1.0054333 1.0188025 0.9806209 0.9612803 1.0045227 0.9955028 0.9895634 0.9984587
0.95966285 0.98027706 0.97591794 0.9894459 0.9783895 1.0511504 0.97271764 0.9804743
0.98856664 1.0093039 0.95671797 0.99849033 0.94765013 0.9802843 0.9736324 0.9855805
1.0098692 0.96074635 0.99943775 0.99004877 0.9867822 1.0155052 0.99368954 1.0060515
0.989672 1.0026828 0.95012355 1.0010312 1.0199589 1.0203943 0.97028273 1.0073514
1.0088809 0.9877315 0.9966435 0.99386394 0.9854821 0.9942429 1.0084556 0.9899819
0.98819596 0.9854681 0.9940954 0.98197895 1.0054963 0.97438735 0.9694254 0.9856066
00000000: ca76 7f3f c7f4 7d3f dd5f 7e3f 89b2 7e3f
00000010: 79f8 7c3f c728 793f 1a90 803f 3fb3 793f
00000020: 0ab2 803f 1f68 823f f909 7b3f 7716 763f
00000030: 3394 803f 46d9 7e3f 0754 7d3f fd9a 7f3f
00000040: 77ac 753f 70f3 7a3f c2d5 793f 544c 7d3f
00000050: bc77 7a3f 198c 863f 0604 793f 5d00 7b3f
00000060: b412 7d3f df30 813f 78eb 743f 109d 7f3f
00000070: 3399 723f e9f3 7a3f f93f 793f 014f 7c3f
00000080: 6543 813f 79f3 753f 27db 7f3f d673 7d3f
00000090: c29d 7c3f 13fc 813f 7062 7e3f 4cc6 803f
000000a0: 255b 7d3f e957 803f 4c3b 733f ca21 803f
000000b0: 038e 823f 489c 823f 7364 783f e4f0 803f
000000c0: 0223 813f f9db 7c3f 0724 7f3f de6d 7e3f
000000d0: 8e48 7c3f b486 7e3f 1315 813f 746f 7d3f
000000e0: 69fa 7c3f a347 7c3f 097d 7e3f f962 7b3f
000000f0: 1ab4 803f 7371 793f 432c 783f b750 7c3f

conv_pep.7.bias f4 [64]
-0.004484227 -0.04834382 -0.029701991 -0.07814132 -0.0017908884 -0.012282027 -0.09017137 -0.06463992
-0.07443694 -0.01600231 -0.02273109 -0.010855992 0.019587887 0.009365684 -0.053618565 -0.046295714
-0.052115444 -0.020859007 -0.032157492 -0.016744033 -0.048176862 -0.06591383 -0.055791564 0.0063733156
0.014452067 0.007922301 -0.019104732 0.020116437 -0.04641606 -0.0074433 -0.0039455583 -0.06523762
-0.046098113 -0.044161804 -0.062466573 -0.06364423 -0.008326681 -0.034377534 0.029938623 0.04205069
-0.031062575 0.022730092 -0.056967165 -0.0468153 -0.050052706 0.017534012 -0.005692326 -0.07565173
0.017756734 -0.00048469706 -0.009851262 -0.03381134 0.016808884 0.021102566 0.020916458 0.0065032183
-0.004853016 -0.03775367 -0.041256096 -0.021958197 0.03853801 -0.0022153715 -0.03696435 -0.056293257
00000000: 6cf0 92bb 2b04 46bd 9751 f3bc 8e08 a0bd
00000010: 3ebc eaba 8e3a 49bc c4ab b8bd ef61 84bd
00000020: 6572 98bd 4717 83bc 8d36 babc 55dd 31bc
00000030: c776 a03c 8772 193c 249f 5bbd 93a0 3dbd
00000040: 0177 55bd 82e0 aabc 93b7 03bd c82a 89bc
00000050: 1a55 45bd d5fd 86bd b285 64bd 3fd7 d03b
00000060: 5dc8 6c3c 8acc 013c 8781 9cbc 3acb a43c
00000070: c41e 3ebd ede6 f3bb be49 81bb 4d9b 85bd
00000080: 60d1 3cbd 02e3 34bd f3dc 7fbd e857 82bd
00000090: a26c 08bc 75cf 0cbd d841 f53c 583d 2c3d
000000a0: f176 febc 7534 ba3c 6756 69bd 66c1 3fbd
000000b0: 1104 4dbd 7da3 8f3c b186 babb 4bef 9abd
000000c0: 9276 913c f01e feb9 3067 21bc c27d 0abd
000000d0: c9b2 893c 4adf ac3c fe58 ab3c f318 d53b
000000e0: 0d06 9fbb 98a3 1abd 27fc 28bd ade1 b3bc
000000f0: 08da 1d3d c42f 11bb ee67 17bd c293 66bd

conv_pep.7.running_mean f4 [64]
-0.29285917 0.048305396 -0.3479601 -0.4801645 0.097868904 -0.13082832 -0.28751823 -0.49721274
-0.19542515 -0.28793943 0.34318316 0.051725455 -0.04329612 -0.11465985 -0.25980854 -0.1660856
0.13921548 -0.11402964 -0.40008494 -0.613049 -0.1327403 -0.22487818 -0.21468595 0.22882564
-0.014885053 -0.16135627 -0.33712012 -0.048372366 -0.044618603 -0.09128437 -0.20513897 -0.37239173
-0.3885565 0.13800484 -0.35920224 -0.23131657 -0.09507529 0.36740413 -0.23276123 -0.05468812
0.45502755 0.12338781 -0.18153298 0.027328242 -0.26122126 -0.31838802 0.2807239 -0.6438751
0.14175452 -0.19444343 -0.09440008 -0.0022860295 -0.2124277 0.053428173 -0.07037917 -0.62313724
-0.23017284 -0.064244784 -0.39290875 -0.029123884 0.08217641 -0.38884005 -0.4425721 -0.31382456
00000000: a3f1 95be e1db 453d d427 b2be 1fd8 f5be
00000010: 7e6f c83d dcf7 05be 9735 93be ab92 febe
00000020: 881d 48be cc6c 93be b4b5 af3e 12de 533d
00000030: 4657 31bd c9d2 eabd a005 85be 5812 2abe
00000040: 818e 0e3e 5f88 e9bd efd7 ccbe c7f0 1cbf
00000050: 13ed 07be 7746 66be a2d6 5bbe 4551 6a3e
00000060: 70e0 73bc 943a 25be 029b acbe 1a22 46bd
00000070: ffc1 36bd 4df3 babd f30f 52be 21aa bebe
00000080: e1f0 c6be 2451 0d3e 5be9 b7be 40de 6cbe
00000090: d5b6 c2bd 651c bc3e f658 6ebe a600 60bd
000000a0: 5ff9 e83e c0b2 fc3d c8e3 39be 7adf df3c
000000b0: cbbe 85be c103 a3be 0bbb 8f3e 00d5 24bf
000000c0: 1928 113e 2e1c 47be d454 c1bd 36d1 15bb
000000d0: a686 59be 80d7 5a3d f422 90bd ec85 1fbf
000000e0: 6eb2 6bbe c592 83bd 562b c9be 3695 eebc
000000f0: 1b4c a83d 0b16 c7be cf98 e2be 9dad a0be

conv_pep.7.running_var f4 [64]
0.3358966 0.41274586 0.20558828 0.29185122 1.0863675 0.8313556 0.22476779 0.45492256
0.1725592 0.18116286 0.7239789 0.3552366 0.31837785 0.52234775 0.30010664 0.34129778
0.6074347 0.48831373 1.6569284 0.59569496 0.65262616 0.2891744 0.44224828 0.8499209
0.63878906 0.5265036 1.1309859 0.37218058 0.78766334 0.8188888 0.6670646 0.3015194
0.31604102 0.6071039 0.3081061 0.20504713 0.39572978 0.61947787 0.47401077 0.26949018
0.35895768 0.32850376 0.12597418 0.17467777 0.42203432 0.44528997 0.4824435 0.24975981
0.3544442 1.4461025 0.42126998 0.15269804 1.3872721 0.49311057 0.31081006 1.0014051
0.9715074 0.15631771 0.23824987 0.59419316 0.3843388 1.4290212 0.77848107 0.19628336
00000000: a4fa ab3e 6d53 d33e bc85 523e 866d 953e
00000010: 170e 8b3f b8d3 543f 8729 663e 9ceb e83e
00000020: 5cb3 303e c282 393e ae56 393f 92e1 b53e
00000030: 6c02 a33e 95b8 053f 94a7 993e 95be ae3e
00000040: d780 1b3f 4204 fa3e 3b16 d43f 777f 183f
00000050: 8212 273f ab0e 943e 5e6e e23e 6b94 593f
00000060: ae87 233f f1c8 063f 25c4 903f 748e be3e
00000070: 4ea4 493f b2a2 513f bfc4 2a3f c060 9a3e
00000080: 21d0 a13e 296b 1b3f 15c0 9d3e e0f7 513e
00000090: 189d ca3e 1a96 1e3f 8ab1 f23e 9efa 893e
000000a0: 4dc9 b73e a531 a83e 60ff 003e bbde 323e
000000b0: e214 d83e 0cfd e33e d602 f73e 09c1 7f3e
000000c0: b679 b53e e319 b93f b3b0 d73e e05c 1c3e
000000d0: 2292 b13f fd78 fc3e 7f22 9f3e 0b2e 803f
000000e0: b5b4 783f c011 203e c6f7 733e 0b1d 183f
000000f0: 0ec8 c43e 2bea b63f 894a 473f 81fe 483e

attention.in_proj_weight f4 [192, 64]
0.08628431 0.051273152 -0.097392246 -0.083099246 -0.079218864 0.057504386 0.09450829 -0.13487086
0.036874995 0.09785609 0.037697285 -0.05631371 0.071434826 -0.050527744 0.04213889 -0.100158945
0.14985551 -0.07439735 -0.04582423 -0.08406225 0.04659331 0.094472095 -0.0020940155 -0.02834341
-0.04567323 -0.05128432 0.05789779 -0.12051116 -0.0073269457 -0.08564523 -0.04273452 -0.08109688
0.0030049235 0.13539983 -0.12953585 0.08076905 0.08451803 0.11736219 -0.10039385 -0.05093036
-0.09788029 0.008927196 0.007976249 -0.10964713 -0.07334824 -0.053935073 0.12838699 0.1330059
-0.14373639 -0.036120623 0.11868115 -0.13011687 0.009108812 -0.10285161 0.033756807 0.06888603
-0.08497924 -0.04776141 -0.10447912 0.08009049 0.05441703 0.02948615 -0.024050504 0.059545234
0.052609384 -0.03773895 0.14987092 -0.115419224 0.1326604 0.11559178 -0.080842085 0.10332979
0.11812325 -0.1366959 -0.02862756 -0.048768245 -0.09869921 0.11605428 0.10171111 0.09195499
-0.09074491 -0.042240493 0.09607604 -0.05226563 0.0044124275 -0.14847448 -0.1479658 0.062483236
-0.1327368 -0.14937466 -0.11730773 0.0021729916 0.069673836 -0.0096526 -0.01811254 0.091271594
0.096404895 0.10363613 0.08021273 0.01650472 -0.08400336 0.012091219 -0.08922711 -0.095541224
0.14070816 0.021516815 -0.117153555 -0.09602002 -0.0824723 0.15089099 0.122664824 -0.13066979
0.109322086 -0.0013758838 -0.09442058 0.026029825 -0.07895694 0.079276994 0.0009351522 -0.022063792
0.054554343 -0.13957544 -0.12684861 -0.15195756 0.016423747 0.15123926 -0.12646607 0.11332251
0.002838567 0.011231884 0.052298516 -0.051372066 -0.07230253 0.1458802 -0.029414088 0.08925052
0.012449726 0.07275967 0.14446117 -0.07273128 0.11607437 0.07229428 0.13674171 0.14636265
0.029037178 0.048248127 0.07721265 -0.043251015 -0.08359001 -0.07321226 -0.038435027 0.07376751
0.012293518 -0.038245462 -0.04301329 -0.038442805 0.09332742 -0.037660092 0.1014746 0.087141156
-0.008040369 0.016799405 -0.073771425 -0.05443719 0.110807136 0.11774312 -0.11797795 -0.05160722
-0.022642538 0.10616101 -0.11559439 0.13993348 0.10686983 0.06574178 0.07139674 0.017299876
0.064579666 0.03823945 -0.038287602 -0.14815693 0.05535522 -0.13768724 0.099492684 0.01887472
-0.1184713 0.03232418 -0.070094846 0.026301235 0.0547148 -0.07490649 0.12896721 0.04222919
0.108116195 0.09742819 0.020817697 0.06745505 0.10583554 -0.14706603 0.008358851 -0.044950247
0.07091367 0.12369059 0.086462975 0.06416939 0.04656622 -0.112201236 0.09532319 -0.14696313
0.005412653 -0.0046201944 -0.1118078 -0.047696732 -0.1439952 -0.094127245 -0.15234837 0.043021172
-0.14681834 -0.03261251 0.14689822 -0.092766404 -0.11378743 0.13752301 0.015842065 0.14110033
-0.08306581 -0.059648097 0.033828244 -0.12428915 -0.05977358 -0.06341226 0.074117705 0.014673054
0.051031336 0.059510082 0.11016108 0.07254805 0.12689482 0.12942682 0.04653217 -0.09264408
0.072753355 0.14687495 -0.03153774 -0.14428869 0.060014427 0.10768308 -0.07593437 0.13764505
0.046985194 -0.11249271 0.022294581 -0.018865302 -0.10461919 0.13349272 -0.032915972 0.003614217
00000000: d4b5 b03d cc03 523d 9675 c7bd f02f aabd
00000010: 803d a2bd b889 6b3d 908d c13d 961b 0abe
00000020: 3c0a 173d c668 c83d 7868 1a3d 34a9 66bd
00000030: 6c4c 923d 2ef6 4ebd d499 2c3d 2220 cdbd
00000040: b973 193e a35d 98bd 30b2 3bbd d428 acbd
00000050: a0d8 3e3d 967a c13d c03b 09bb 7030 e8bc
00000060: da13 3bbd 820f 52bd 3c26 6d3d 8ece f6bd
00000070: e016 f0bb c466 afbd 640a 2fbd 1f16 a6bd
00000080: 40ee 443b 41a6 0a3e 0ca5 04be 3e6a a53d
00000090: ca17 ad3d 965b f03d 4a9b cdbd 5a9c 50bd
000000a0: 7675 c8bd 6043 123c d0ae 023c ad8e e0bd
000000b0: 9a37 96bd 06eb 5cbd e177 033e b332 083e
000000c0: a22f 13be 38f3 13bd 1a0f f33d 5b3d 05be
000000d0: 203d 153c dda3 d2bd 9444 0a3d 1e14 8d3d
000000e0: 9909 aebd 78a1 43bd 26f9 d5bd 7c06 a43d
000000f0: 64e4 5e3d f08c f13c 9005 c5bc b4e5 733d
00000100: f07c 573d 2894 1abd c377 193e ea60 ecbd
00000110: 21d8 073e 62bb ec3d 8990 a5bd 929e d33d
00000120: 9aea f13d 03fa 0bbe 5884 eabc 36c1 47bd
00000130: d022 cabd dead ed3d ea4d d03d e652 bc3d
00000140: 78d8 b9bd 5e04 2dbd 84c3 c43d 7c14 56bd
00000150: 2096 903b b209 18be 5984 17be 6cee 7f3d
00000160: 28ec 07be acf5 18be 093f f0bd c068 0e3b
00000170: 28b1 8e3d f025 1ebc c060 94bc 9aec ba3d
00000180: ee6f c53d 2e3f d43d 9246 a43d e834 873c
00000190: f409 acbd 401a 463c b4bc b6bd 1eab c3bd
000001a0: cd15 103e 0844 b03c 34ee efbd 25a6 c4bd
000001b0: 3de7 a8bd 2b83 1a3e b237 fb3d 4dce 05be
000001c0: 42e4 df3d 0057 b4ba 945f c1bd 803c d53c
000001d0: 2db4 a1bd fa5b a23d 0025 753a 20bf b4bc
000001e0: 6074 5f3d ddec 0ebe 9ae4 01be c39a 1bbe
000001f0: 188b 863c 77de 1a3e 5280 01be a215 e83d
00000200: 4007 3a3b f005 383c f836 563d 846b 52bd
00000210: 5913 94bd 9f61 153e d0f5 f0bc fac8 b63d
00000220: f0f9 4b3c 0603 953d a1ed 133e 23f4 94bd
00000230: 66b8 ed3d 060f 943d 0506 0c3e 17e0 153e
00000240: 60df ed3c d49f 453d aa21 9e3d fa27 31bd
00000250: 3d31 abbd 4ff0 95bd 0c6e 1dbd 6c13 973d
00000260: c06a 493c 46a7 1cbd b42e 30bd 3476 1dbd
00000270: 7222 bf3d 7841 1abd ead1 cf3d 1077 b23d
00000280: c0bb 03bc e89e 893c 7915 97bd 88f9 5ebd
00000290: daee e23d 4e23 f13d 6c9e f1bd 1862 53bd
000002a0: d87c b9bc f26a d93d c0bc ecbd b94a 0f3e
000002b0: 92de da3d a0a3 863d 7438 923d 78b8 8d3c
000002c0: 5842 843d f8a0 1c3d 76d3 1cbd 73b6 17be
000002d0: 28bc 623d e2fd 0cbe d2c2 cb3d 289f 9a3c
000002e0: 15a1 f2bd 5c66 043d e38d 8fbd b075 d73c
000002f0: a01c 603d 9368 99bd fb0f 043e 84f8 2c3d
00000300: 066c dd3d 6e88 c73d e089 aa3c e025 8a3d
00000310: 4ec0 d83d 7a98 16be 90f3 083c c01d 38bd
00000320: 303b 913d 7e51 fd3d 8013 b13d 3e6b 833d
00000330: 38bc 3e3d c3c9 e5bd ce38 c33d 817d 16be
00000340: a05c b13b 0065 97bb 7dfb e4bd a65d 43bd
00000350: 7a73 13be c9c5 c0bd 3601 1cbe f836 303d
00000360: 8c57 16be b294 05bd 7d6c 163e 50fc bdbd
00000370: 6209 e9bd d5d2 0c3e 38c7 813c 9b7c 103e
00000380: 681e aabd 9051 74bd 7c8f 0a3d 4f8b febd
00000390: 24d5 74bd 49de 81bd 06cb 973d 4067 703c
000003a0: 3c06 513d d8c0 733d 229c e13d 1294 943d
000003b0: b7f0 013e 7788 043e 8498 3e3d 2ebc bdbd
000003c0: b6ff 943d 6366 163e b82d 01bd 6ac0 13be
000003d0: b0d1 753d f288 dc3d 7b83 9bbd d3f2 0c3e
000003e0: 8c73 403d 9462 e6bd 20a3 b63c 688b 9abc
000003f0: 9642 d6bd 51b2 083e e6d2 06bd 80dc 6c3b
