trained models/DSSO/DeepIntRa_Params_05.pt (torch, 194310 bytes, 27 tensors)

pep_embed.weight f4 [26, 60]
000000 5f 0d b4 be f2 e9 b5 be f6 41 41 40 79 3e 8a be
       -0.3516645 -0.3553005 3.019651 -0.27000788
000010 90 9f 6e 3f ef e2 8f 3f 3a 13 0d 3f 9c a9 87 be
       0.93212223 1.124113 0.5510746 -0.2649659
000020 c7 b5 ad bf c6 98 ad 3d af 51 d9 bf 0b 8c be bd
       -1.3571099 0.08476405 -1.6978053 -0.09304055
000030 e8 70 27 3c f9 8f 6b bf 9b 78 6b bc 71 26 b4 bf
       0.01021979 -0.9201656 -0.014372016 -1.4074231
000040 e5 3d 04 3f db 7d 94 bf 80 d1 a3 3f bf 90 7f bf
       0.51656944 -1.1600908 1.2798309 -0.9983024
000050 40 a9 bc 3e bb 28 13 bf f0 44 96 be 0a 09 87 bf
       0.36847878 -0.57484025 -0.2934947 -1.0549634
000060 3e ed c2 bd 3d af d8 3f 79 82 54 bf 2b ac 95 be
       -0.095179066 1.6928478 -0.83011585 -0.29232916
000070 96 07 84 3f 76 ab 11 3f 0a b8 6f 3f e2 19 68 bf
       1.0314815 0.56902254 0.93640196 -0.90664494
000080 14 d1 5e 3e 44 ee bf bf ef 9e 4e 3d 3d da 10 c0
       0.21759444 -1.4994588 0.05044454 -2.2633202
000090 47 19 a0 bf 77 9b c9 be 23 cb 99 3f d0 21 9c bf
       -1.2507714 -0.39376423 1.2015117 -1.2197819
0000a0 3a dd 44 bf 97 14 96 3f c2 1b 1e 3d 57 7a a5 bf
       -0.76900065 1.1725034 0.03860069 -1.292796
0000b0 78 47 28 bf bb 2d 81 3c 78 af 52 3f 7b 19 6a 3e
       -0.6573405 0.015768876 0.82298994 0.22861283
0000c0 00 99 bf 3e 21 70 08 bf 5f bd ba be 49 e7 32 3e
       0.37421417 -0.53296095 -0.36472604 0.17471041
0000d0 a3 71 d5 3f b5 88 32 40 3b 4b ba 3f 1e 2d 04 3f
       1.6675304 2.789594 1.4554209 0.51631343
0000e0 2f 3c f6 be 12 4a a8 bc 73 59 5f bf 47 e2 bc bf
       -0.4809279 -0.020543132 -0.87245864 -1.4756554
0000f0 d5 bb 00 40 9f 2f 15 3f fc 6f 83 bf af df a8 3e
       2.0114644 0.5827579 -1.026855 0.32983157
000100 cc 5d 2d 3e 9f ec 6a bf 17 a4 a6 3e 27 2a b3 be
       0.16930312 -0.91767305 0.32547066 -0.34993097
000110 93 4f 17 3f d9 8f 26 40 58 98 e4 3d aa 46 2d be
       0.59105796 2.6025298 0.1116187 -0.16921487
000120 0e 3b 1a bf 31 30 1c 3f 60 b2 20 40 ee d8 db 3f
       -0.6024636 0.61011034 2.5108871 1.7175577
000130 57 49 b2 3e 61 28 60 bf bf 5c f1 3e a1 86 fa be
       0.3482158 -0.87561613 0.47141072 -0.4893084
000140 d5 fa 87 be 93 49 fb be 51 b5 06 c0 ab e9 9e 3f
       -0.26558557 -0.4907957 -2.1048167 1.241506
000150 b8 20 c2 be d5 c7 1b bf 61 47 d4 be 1c d2 23 bf
       -0.37915587 -0.60851794 -0.41460708 -0.63992476
000160 2f 57 cd bf 32 05 e1 3f 60 64 1e 3e a1 4c 46 bf
       -1.6042231 1.757971 0.15467978 -0.77460676
000170 9e d1 e7 3f 26 4a 97 be 30 e6 15 bb 15 f9 4a 3f
       1.8110845 -0.29548758 -0.0022872798 0.7928632
000180 7a 94 df 3f f3 35 e2 bd 90 80 c8 bf b2 04 1b 3f
       1.7467186 -0.11045446 -1.5664234 0.6055404
000190 13 cc ea bd 6b 81 dc bf d2 14 33 bf 43 28 2a be
       -0.11464705 -1.7226995 -0.69953644 -0.16616921
0001a0 1e 62 23 3f d0 c9 de be 48 ca d3 bf 99 29 c5 3b
       0.6382159 -0.43513346 -1.6546106 0.0060169217
0001b0 89 df 2c bf e4 3c dd 3e c8 bf af 3e d2 00 1e 40
       -0.6752859 0.43210518 0.34326005 2.4688
0001c0 56 6f 08 bf d9 6f 50 3e 7d 39 23 3f df e9 a9 3e
       -0.53294885 0.20355166 0.63759595 0.33186242
0001d0 3c e4 11 3d a7 19 19 3e f8 ee ad 3f b7 ec 83 3f
       0.035618052 0.14951192 1.3588552 1.0306615
0001e0 b6 90 10 40 27 e4 b5 3f cf 74 ce 3e f7 4e 13 c0
       2.2588325 1.4210252 0.40323493 -2.3016946
0001f0 e0 ca fc be fb f8 01 40 81 9c c9 3f 6c 2f 11 be
       -0.4937353 2.0308216 1.5750886 -0.14178246
000200 4f 57 a7 3c e2 9a ba 3f 41 8f d3 3f ab b1 cf bf
       0.020427374 1.4578516 1.6528093 -1.6226095
000210 bb 4e 73 be 88 e8 b9 be 98 68 98 bf b5 0b 07 c0
       -0.23760502 -0.3631022 -1.190692 -2.1100895
000220 eb c0 03 bf 86 ce 21 bf 85 ea c3 bf 76 e8 a0 bf
       -0.51466244 -0.63205755 -1.5305945 -1.2570941
000230 29 e9 14 3e c8 e7 2e bf 02 bb 0a bf 84 1e 8e be
       0.14542069 -0.6832242 -0.541916 -0.27757657
000240 6c 0b 18 3f 6b fb b8 3f a3 c1 85 bf 00 c3 c4 3f
       0.5939243 1.4451727 -1.0449718 1.5372009
000250 a3 1c 96 3f 96 e0 52 3e b9 50 a3 be 43 39 4a 3f
       1.1727489 0.20593485 -0.31897524 0.78993624
000260 cc 57 02 40 04 14 3f bf a1 b3 34 bf de b1 46 bf
       2.0366087 -0.74639916 -0.7058659 -0.77615154
000270 2d 1d 5f bf 49 2f f7 be bf 25 a8 3e 78 12 4f bf
       -0.87153894 -0.48278263 0.32841298 -0.80887556
000280 a2 eb 24 bf 8a ac 9d bf 2f ee 4b bf bd c1 c5 bf
       -0.6442205 -1.231828 -0.79660314 -1.5449749
000290 58 0e dd 3e 01 cd 82 bb d1 9e c3 3e 7c 3b 76 bf
       0.43175006 -0.0039917235 0.38207105 -0.96184516
0002a0 be 48 47 3f 49 35 14 3e f6 42 ec bf f3 a1 18 bd
       0.7784537 0.14473452 -1.8457935 -0.03726382
0002b0 87 df 5e bf f8 60 03 c0 81 fa b6 3f c7 5b 3e 3f
       -0.87059826 -2.0527935 1.4295198 0.7435879
0002c0 5e af 70 bf 98 b3 26 be 9f 5a d1 3f 79 6d 25 bf
       -0.9401759 -0.16279447 1.635578 -0.64620167
0002d0 0b 8e 2c c0 d2 34 d8 bf fb 39 c0 3d 23 31 f4 3e
       -2.6961696 -1.689112 0.09386059 0.47693738
0002e0 7e 72 45 bf 4b bb 71 bd 94 b0 9b 3e ca 99 48 bf
       -0.77127826 -0.059016507 0.30408156 -0.78359663
0002f0 96 18 0d 3f cd 1c 9e 3e 10 b4 bd be 94 25 a0 be
       0.5511564 0.30881348 -0.3705144 -0.3127867
000300 1a 5c 05 bf 06 75 7a 3f e6 50 46 bf e8 ed 0f bf
       -0.5209366 0.97834814 -0.7746719 -0.5622239
000310 6a 0c a4 bf 6c bc 51 3f b0 73 4b 3f 2f 75 cf 3e
       -1.2816288 0.81928134 0.794734 0.4051909
000320 b0 1c ea 3f 35 e8 34 3f b3 18 d2 3f 7f 64 07 3e
       1.8290005 0.7066682 1.6413788 0.1322193
000330 0f e2 09 40 3b a5 e7 bd 0e 26 3e bf d8 8a 32 3f
       2.1544225 -0.11310812 -0.74276817 0.6974311
000340 52 9b 83 bf 83 11 a2 bf 20 4b 32 3f ef 4b bc 3f
       -1.0281775 -1.2661594 0.6964588 1.4710673
000350 a4 49 09 3f db 7c 6a be 0f df bc be 39 11 25 bd
       0.5362799 -0.22899191 -0.3688893 -0.040299628
000360 f2 50 5f 3f 2c d5 23 bf c5 ae 21 3f 85 e4 f7 3f
       0.8723289 -0.6399715 0.631573 1.9366614
000370 2c b1 54 3f b8 24 96 bd f9 28 bf 3e f4 fa a2 3e
       0.8308284 -0.07331222 0.37335947 0.31832087
000380 8a e0 55 bf f7 0f 0a be 09 bc 91 3d 6f a8 f9 3e
       -0.83545744 -0.13482653 0.07115943 0.48761317
000390 06 e2 a8 bf 6c 37 99 be 9a 0a df 3d c8 59 e9 bf
       -1.3193977 -0.29925096 0.10890694 -1.8230524
0003a0 3c 26 f8 be 23 74 a3 3f 9f 19 94 bf d5 bf 92 bf
       -0.4846667 1.2769817 -1.1570319 -1.1464792
0003b0 f7 77 80 bf 8f 2c 47 3f a3 8f aa bf a0 11 3d bc
       -1.003661 0.77802366 -1.3325084 -0.011539847
0003c0 81 73 84 bf a7 27 be bd 32 b9 35 3f 0f 3a a9 be
       -1.0347749 -0.09284907 0.7098571 -0.33052108
0003d0 db 0b c1 bf 0c 90 ec be 7a c7 c0 3c 58 eb 8a bf
       -1.5081743 -0.4620365 0.023532618 -1.0853071
0003e0 27 8c 29 3f d5 9b fb be 92 38 a0 bf 18 77 7c bf
       0.6622948 -0.49142328 -1.2517264 -0.9861922
0003f0 b7 7f 1c 3f 72 95 ed bf 7a c3 ff 3f 16 b7 50 bf
       0.6113238 -1.8561232 1.998153 -0.81529367

mod_embed.weight f4 [4, 4]
000000 a5 68 06 c0 ac 8c c8 bf b5 f5 1a bf 21 98 50 3f
       -2.100137 -1.566793 -0.6053117 0.8148213
000010 ff 5f 67 bf 10 9d c6 3f b7 7f 8b 3f 53 3e 17 3e
       -0.90380853 1.5516682 1.089835 0.14769869
000020 0c 4d e5 3f 2f 29 7f 3f bb 21 8f 3f e2 42 8c 3d
       1.7914138 0.99672216 1.1182169 0.068486944
000030 6c 9e 28 c0 35 a2 37 3f 73 30 68 3f 5e 27 38 bf
       -2.6346693 0.71731883 0.9069893 -0.7193507

conv_pep.0.weight f4 [16, 64, 3]
000000 91 09 46 3d 86 db 21 3d 7a 24 bc bc 10 f5 49 3d
       0.048348967 0.039515994 -0.022966612 0.049305975
000010 96 bb 9f bc 90 9c 15 bd 3a d7 59 bc 2c 9c 08 bd
       -0.019498628 -0.036526263 -0.013295943 -0.033352062
000020 cb ca 12 bc e7 4b 87 3b 3c 42 ff bc 12 66 50 bd
       -0.008959482 0.0041289213 -0.031159513 -0.05087859
000030 6e f8 c8 bc 0a 8e 92 bc 67 c3 92 3d fb 4d 23 3d
       -0.024532523 -0.017889995 0.07166176 0.03986929
000040 2e 38 47 3d 6a 7c 31 bd d9 3c a4 ba 80 ef 7a bd
       0.04863756 -0.04333154 -0.0012530341 -0.06126356
000050 5f 5c 49 3d e1 c5 e9 3c 5a 16 12 3d aa 83 6c bd
       0.049160358 0.028536739 0.035665847 -0.057742752
000060 b3 38 19 bd 5b b4 19 3d b7 f4 a8 bb 8e 66 9a 3d
       -0.03740759 0.037525516 -0.0051561254 0.07539092
000070 ed 89 6f 3d b3 b5 c3 3d 83 ea bb ba b1 0c 40 3d
       0.058481146 0.09556141 -0.0014336858 0.046887103
000080 58 5f 84 bc 3a 58 4f 3d 22 0b 33 bd db c6 ac bd
       -0.016158745 0.05062125 -0.04371179 -0.08436366
000090 58 6a 16 3d d7 dd 8a bd 54 94 63 3d c6 be 38 ba
       0.03672251 -0.06780594 0.05556138 -0.00070474704
0000a0 b8 e9 9c 3c 2a b8 8d 3b f0 d5 13 3d 73 52 a7 3d
       0.019154415 0.0043249326 0.0360927 0.08170023
0000b0 57 ce 0c bd 1b dd a2 bc d2 c6 8d 3c 43 43 57 3d
       -0.03437647 -0.019880822 0.017306719 0.05255438
0000c0 5e 94 4e 3d 53 68 cb bb dc 7d 9d 3c ab f5 70 bd
       0.050434463 -0.006207505 0.019225053 -0.058828037
0000d0 9c 71 41 3d df e3 b5 bc b5 97 dd bc f0 db a3 3d
       0.047227487 -0.022203384 -0.027049879 0.08000934
0000e0 e8 11 3c bc 88 9a 84 3d 94 08 19 3c ba aa 87 bc
       -0.011478879 0.06474787 0.009340424 -0.016560901
0000f0 75 5b fc bc fb ee 79 3d fb 4f 7d 3d d6 6d 20 bd
       -0.030805329 0.061018925 0.061843853 -0.039167248
000100 4b 05 81 bd c8 b6 1c bd ad f7 9f 3d 72 fc 40 3d
       -0.06299838 -0.03826025 0.07810912 0.04711575
000110 c7 a7 9b 3d ac 8d 39 3d de 03 d2 3c 64 ed 37 3d
       0.0760036 0.045301124 0.02563661 0.044904128
000120 8b 8f a5 3d 0d ef 11 bd 3a 3f 13 3c 62 85 49 3d
       0.08084019 -0.035628367 0.008987242 0.04919947
000130 76 5b 31 bd b8 0e 16 3d ee 0b 7f bb 08 3c 5e 3c
       -0.043300115 0.03663513 -0.0038917023 0.013564117
000140 2c 90 39 3d d5 57 d7 3c ae 71 a9 bb 43 7e 96 b8
       0.04530351 0.026286999 -0.0051710224 -7.1760755e-05
000150 ce bf 36 bd 4c f4 28 3c 2b 14 66 bd 64 b0 ac 3d
       -0.044616513 0.010312151 -0.056171577 0.08432081
000160 e0 1c f2 bc f4 22 e2 bc 47 d8 46 bd 2d f6 2b 3d
       -0.029554784 -0.027604558 -0.048546102 0.04198282
000170 59 9c 32 3d e8 36 01 bd 11 cc 32 bd 97 f1 5d 3d
       0.043606136 -0.031546503 -0.043651644 0.054185476
000180 35 1a df bc 57 9e 3a 3d 3f 53 fb 3b 83 18 bb 3d
       -0.027234176 0.04556116 0.007669836 0.091355346
000190 f7 b8 4e bd e9 95 86 3c 37 7e 4b bb e8 f8 a2 3d
       -0.050469365 0.016428905 -0.0031050572 0.07957631
0001a0 f6 d5 21 bd a8 06 5c bd ec 13 8e bc ab 62 d1 3d
       -0.03951069 -0.053717285 -0.017343484 0.102238975
0001b0 e8 9d 10 bd 04 8e 91 3c 7e 06 52 bd f7 49 aa bc
       -0.03530684 0.017767914 -0.051275723 -0.020787222
0001c0 3e 50 9e 3a 43 78 49 bd 25 a5 29 3c 23 31 70 bc
       0.0012078357 -0.049186956 0.010354315 -0.014660153
0001d0 61 7c 40 bc 69 0c 95 bd 96 23 d0 3d c0 ae 83 3d
       -0.011748404 -0.07277758 0.101630375 0.06429815
0001e0 7e 07 ff bc 10 88 62 3d b0 ff 83 bd 3a 95 3d bd
       -0.031131502 0.05530554 -0.06445253 -0.04628489
0001f0 1a 54 41 3d 02 a3 28 3d f2 4a 95 bc 93 ac c2 3c
       0.047199346 0.04117108 -0.018224213 0.02376393
000200 de 3e 45 bb 6d 21 0a bc 1a 35 a5 bd 70 b5 25 bc
       -0.0030097286 -0.008430821 -0.08066769 -0.010114059
000210 ad 03 4d 3c 96 d8 73 bd f9 13 8d 3d aa 98 11 bd
       0.012513083 -0.059532724 0.06888575 -0.035545982
000220 13 17 b5 bc a0 ae 85 bc 9c 95 93 3d 41 b3 af bd
       -0.02210573 -0.01631862 0.0720627 -0.08579112
000230 80 17 cb bc 45 ad e4 bc df 12 89 bd 66 cf 15 3d
       -0.02479148 -0.027914653 -0.066930525 0.036574744
000240 15 05 83 bd 8a c2 c6 3d 63 0a 85 3c ff 57 68 3d
       -0.06397454 0.09705074 0.016240304 0.056724545
000250 d0 21 be 3d 37 5b 54 bc 6d ee b1 3a 32 21 d8 3b
       0.09283793 -0.0129612 0.0013575085 0.006595754
000260 8c 42 83 bd b9 82 88 3d 8c 3b 8c bd c7 0f 96 3d
       -0.06409177 0.06665558 -0.06847295 0.07327228
000270 98 1d a7 3b b5 c7 b4 bd a5 b5 e5 3b 22 fd 00 bd
       0.0050999634 -0.088271536 0.007010179 -0.031491406
000280 13 50 41 bd 56 bd b7 bd cf 99 f8 3c af 86 89 bc
       -0.047195505 -0.0897166 0.03034678 -0.016787855
000290 55 f0 9d 3c 94 a5 ee bd 8e a9 37 3c c9 6d 7c bb
       0.019279638 -0.11652675 0.011209859 -0.0038517585
0002a0 8b 02 ca 3d 66 41 a8 3d de 21 72 bd 6c 3a 3f 3d
       0.09863766 0.08215599 -0.05911433 0.046686575
0002b0 8e aa 6b bd 9f 12 61 bc dd 12 dc 3d 71 84 67 3d
       -0.0575357 -0.01373735 0.107457854 0.05652279
0002c0 a8 aa 9f 3d fe 70 14 3c ce 49 5b 3d 1f b1 5a 3d
       0.07796222 0.009060143 0.053537183 0.053391572
0002d0 25 8b 81 bc b4 85 81 bd 26 79 15 bd 0a b7 db bd
       -0.01581342 -0.0632433 -0.03649249 -0.10728271
0002e0 bd 2d 41 3d c9 04 48 bd da a7 f4 bd 06 66 09 bc
       0.04716276 -0.04883269 -0.11946078 -0.008386141
0002f0 da 60 5c bd c2 c5 34 bc 08 9f 84 bd 5a cd c8 3d
       -0.053803302 -0.011033477 -0.06475645 0.09804793
000300 ed b8 38 3d 2b f3 11 3d bd 0c 32 3c c6 8c a5 3c
       0.045098234 0.035632294 0.010867295 0.020208728
000310 89 4a 91 bd 76 02 d9 bb 65 e9 8a 3d e2 1c 9f bd
       -0.070942946 -0.006622608 0.06782798 -0.07769181
000320 64 ed b9 3d ad 9c 0c bd 49 b4 7b bc bb 6d 87 bd
       0.09078482 -0.034329105 -0.015362808 -0.06612726
000330 82 5f 7f 3d 9d 48 57 bd 46 cb a3 3d e7 1c 4d 3d
       0.062346943 -0.052559484 0.07997756 0.05007639
000340 58 43 85 3c 19 fd dc 3d 6f 24 46 3d f6 3c a1 3c
       0.016267464 0.10790462 0.04837459 0.019682389
000350 5b d0 89 3c 78 9f 7b 3d ce c7 f2 bc ff e4 8e 3c
       0.016822984 0.061431378 -0.02963629 0.017443178
000360 b2 1d 0b bd a7 73 b6 bc 84 1e 19 3d d9 03 5f 3d
       -0.033963867 -0.022271944 0.037382618 0.05444703
000370 ac 8b 97 bd 8b d5 7d ba 43 11 81 3c 52 b9 3a 3c
       -0.07399687 -0.00096830045 0.015755301 0.011396723
000380 97 4e 8e bd 0e a8 8c 3d bb 62 3d 3d 57 f5 82 3c
       -0.069485836 0.068679914 0.046236735 0.015986128
000390 3a 83 91 bb 5f d9 a3 3d a4 88 32 3c 19 c2 4b bd
       -0.0044406923 0.080004446 0.0108968355 -0.049745653
0003a0 56 e7 2f 3d 22 c2 89 bc 3a ad 22 bd b4 a8 c9 3d
       0.04294523 -0.016816203 -0.039715983 0.09846631
0003b0 ab 76 56 3d ed 09 75 bc b1 30 b4 bc 92 97 fa 3b
       0.052359264 -0.01495598 -0.021995874 0.007647463
0003c0 44 6e eb bc 16 01 14 3d 38 f0 2c bc ad 8c 74 3d
       -0.028739102 0.036133848 -0.0105553195 0.05970447
0003d0 f1 b5 60 bd d4 01 c1 bd 49 b6 d7 bc 60 44 dd 3b
       -0.054861013 -0.09424177 -0.026332038 0.0067525357
0003e0 ec 49 9e bc 3b a3 97 bd 0f 14 26 bb b4 3a 70 3d
       -0.019322358 -0.074041806 -0.0025341546 0.058649734
0003f0 c2 65 a5 3d 54 ec 0d 3d e8 f4 08 3c 17 28 9b 3b
       0.080760494 0.03464921 0.008359171 0.0047350037

conv_pep.0.bias f4 [16]
000000 a2 c1 84 3c 2b d1 18 bc af 6e 95 3d 3d ea 4e 3d
       0.016205613 -0.009327213 0.07296502 0.050516356
000010 86 2a f1 bc 79 3a 66 bd 9c d8 20 39 e3 6c 2a 3d
       -0.029439222 -0.056208108 0.00015339482 0.04160775
000020 af 9f 07 bd 35 8b 53 bd ba 5b 4e bd 62 54 38 bd
       -0.03311127 -0.05164643 -0.050380446 -0.04500235
000030 6e 2a 68 3d 97 f7 be bb 14 f7 58 3d f5 1d be 3c
       0.05668109 -0.005827855 0.052970007 0.023207644

conv_pep.1.weight f4 [16]
000000 27 7c 81 3f d9 dc 80 3f 4e 10 7d 3f db 8d 80 3f
       1.0116013 1.0067397 0.98853004 1.0043291
000010 5b 9c 7d 3f 65 f7 7f 3f 43 79 82 3f 46 e3 7c 3f
       0.99066705 0.9998687 1.0193256 0.9878429
000020 0d 88 7f 3f 7f df 80 3f 5f 6c 80 3f 44 74 82 3f
       0.9981697 1.0068206 1.0033072 1.0191731
000030 cc 05 81 3f d3 30 7a 3f 1c 58 80 3f 06 72 80 3f
       1.0079894 0.9773075 1.0026889 1.0034797

conv_pep.1.bias f4 [16]
000000 81 a1 53 bc 49 7f af 3b 21 8f 5c 3c 17 5b 1b bd
       -0.0129169235 0.0053557497 0.013461859 -0.037928667
000010 b7 2f de 3c 36 e5 a1 3c 1c b3 3f 3d 47 a9 04 ba
       0.027122362 0.019762617 0.04680167 -0.00050606247
000020 92 1b 44 3d 3e 28 24 3d 5e 22 ee bb 75 60 b6 bb
       0.047877856 0.04007744 -0.0072672805 -0.005565698
000030 2d 65 29 3d 99 36 c4 3b a6 65 f0 3c 96 20 67 bd
       0.041356254 0.005987954 0.029345345 -0.05642756

conv_pep.1.running_mean f4 [16]
000000 ff 16 a2 be aa af 2e bd e9 16 07 bf b9 1f 8d bf
       -0.3165817 -0.042647995 -0.52769333 -1.1025306
000010 9c 4e d8 3b 11 ef d3 bd 0f 57 8a 3d 75 f9 14 be
       0.006601168 -0.10348333 0.06754886 -0.14548285
000020 c6 d5 07 bf 44 0d 2c 3f c4 50 b9 3e 31 d0 ca bf
       -0.5306057 0.6720774 0.36194432 -1.5844785
000030 04 3e 29 3e 99 a5 cb 3f c7 f9 36 3e 90 7d 17 bf
       0.16527563 1.5909911 0.1786872 -0.5917597

conv_pep.1.running_var f4 [16]
000000 18 b2 19 3f ae 40 0e 3f 2d 26 81 3e 51 4b 10 3f
       0.60037374 0.55567443 0.25224438 0.56364924
000010 95 f8 b4 3e f3 3a fc 3e 0d 7f b6 3e 1d c6 7c 3e
       0.35345903 0.49263725 0.35643807 0.24684949
000020 73 41 98 3e d1 2f 54 3f ee d3 8f 3e c4 fc b3 3f
       0.29737434 0.8288546 0.28091377 1.4061513
000030 2f f1 7f 3e dd 0d 7e 3e 71 17 68 3e 33 65 93 3e
       0.24994348 0.24809976 0.22665192 0.28788146

conv_pep.3.weight f4 [64, 16, 3]
000000 48 59 e5 bd dc d6 c7 bd 25 2f c3 bd f3 78 86 3d
       -0.1119867 -0.09757778 -0.095304765 0.06566038
000010 50 a2 cf 3c e4 b7 8c 3d 63 76 9a 3d 2b a6 69 bd
       0.025345951 0.06871012 0.07542112 -0.057043236
000020 48 29 dd bd df 7f 0c be 9b 1c bc bd 6e 8a cf bd
       -0.107988894 -0.13720654 -0.091851436 -0.10133825
000030 07 5e 08 bc 99 6b e9 bd 33 09 ed 3b 90 ee 18 bc
       -0.008323199 -0.11397476 0.0072337626 -0.0093342215
000040 b8 95 b0 3d 3a bd 11 3d bf 10 4f 3d 09 d5 71 3d
       0.086223066 0.03558085 0.05055308 0.059041057
000050 0e 7b 16 3e 86 7b d8 bd f7 f5 71 3d 1a e2 e1 bc
       0.14695379 -0.10570435 0.05907246 -0.027573634
000060 a5 f5 fd bd 1a 86 ff 3c 76 16 09 3e 1f 46 7e bd
       -0.124003686 0.031191874 0.13387474 -0.06207859
000070 09 63 82 bd 7f cd f4 bd 0c 74 d6 3d b6 31 11 3e
       -0.06366546 -0.11953258 0.10471353 0.1417912
000080 a7 e9 2f 3e 94 51 10 bd 45 73 8e bd 78 5e 1d 3e
       0.17178975 -0.03523405 -0.0695558 0.15368068
000090 36 92 da 3d ad a0 8c 3b b7 55 42 bd 57 b1 c8 3c
       0.10672419 0.004291615 -0.047445025 0.024498625
0000a0 db 15 4d 3d 6a ec cb bd f9 7c cf bd f0 77 d2 3d
       0.05006967 -0.09957202 -0.101312585 0.102767825
0000b0 6f 4e 54 3d 5f 09 8d 3d cb 1e c0 3d 10 02 e1 bd
       0.051832613 0.06886553 0.09380873 -0.109867215
0000c0 fb ab ff bd bf ca af bd ff f3 8f 3d a6 c0 cc 3d
       -0.124839745 -0.085835926 0.070289604 0.09997682
0000d0 d2 21 d5 bd 61 07 20 3d 27 76 d0 3d 43 8f 97 3d
       -0.10406841 0.039069537 0.10178786 0.07400372
0000e0 39 81 fa 3d 64 2d 62 3d 4a cf 8b bc d3 37 42 3d
       0.122316785 0.05521907 -0.017066617 0.04741652
0000f0 74 3e a1 bc b8 0c 06 3e 52 5b bb 3d ca 39 1f 3e
       -0.0196831 0.1309079 0.09148277 0.15549389
000100 b3 0f 1b be e4 c8 4d 3d 1b 3d f6 3c d8 24 c8 bb
       -0.15142708 0.050240412 0.030058434 -0.0061079077
000110 3f 29 15 bc 16 0c ac bd 26 e5 d2 bd b9 31 21 bb
       -0.009104072 -0.08400743 -0.10297613 -0.0024596287
000120 dd 7b 38 3c ee 74 01 be 6c 5c 19 bb c7 36 d9 bd
       0.01126 -0.12642261 -0.0023401035 -0.10606151
000130 24 ab 5c 3d ad 98 53 bc 9e bb cc 3d eb dc 85 bd
       0.05387415 -0.012914819 0.09996723 -0.065362774
000140 2e c2 94 bd 7a fb 10 bd 62 5d 7e 3c fd 1f dc bd
       -0.07263599 -0.035396077 0.015525194 -0.10748289
000150 72 96 44 bd 62 fe dc bd f5 1b fb 3b a6 c5 8e bc
       -0.04799504 -0.10790707 0.007663245 -0.01742823
000160 28 61 90 bd 34 9d 33 3e 11 04 b0 3d 51 0f 2c bd
       -0.07049781 0.17540437 0.085945256 -0.042006794
000170 d8 59 e0 3d 34 68 03 be a2 e8 6d 3d dd 09 83 bd
       0.10954636 -0.12832719 0.058083184 -0.06398366
000180 54 12 05 be e1 94 e3 3d af 59 18 be da d0 1e be
       -0.12995273 0.11112381 -0.14877962 -0.15509358
000190 92 b5 2a be d5 c0 12 be 1e 33 1a 3e 0e c2 77 bc
       -0.16670826 -0.14331372 0.15058562 -0.01512195
0001a0 99 38 c9 3d 12 b5 e6 3c 50 1e d4 3d f6 42 f4 3d
       0.09825248 0.028162513 0.10357344 0.11926834
0001b0 57 4b 10 3d cf cb 8a 3d 1f 0f c9 3d a8 9b fd bd
       0.0352281 0.06777155 0.09817337 -0.12383205
0001c0 63 a6 1e be ea 12 ae 3d 91 70 9d bd cf 6a 29 bd
       -0.15493159 0.08499701 -0.07687486 -0.041361626
0001d0 88 92 4b bd 5d d6 90 bd 17 8d 01 3e 8a 2a 8d bd
       -0.04970029 -0.070721366 0.12651478 -0.06892879
0001e0 6d ec 5d bd be df a1 3d cc 3a 07 3e 34 87 9a 3d
       -0.05418055 0.079040036 0.13206023 0.07545319
0001f0 7a 9a 9a bd 2d e5 ec bd d4 58 a2 bb a3 99 ad bd
       -0.07548995 -0.11567149 -0.004954437 -0.084765695
000200 c5 4c f7 3d 54 88 97 3c 65 d7 8a bc b0 f1 d4 bc
       0.120751895 0.018497624 -0.016948411 -0.025994152
000210 ea 57 6a 3c 5b ef 77 3b b7 a5 fd 3d 59 fb bc bd
       0.014303187 0.0037831876 0.12385123 -0.09227628
000220 82 b6 10 bd 3f 19 02 be 15 61 21 3d 35 01 8a bd
       -0.035330303 -0.12704943 0.039399225 -0.067385115
000230 65 2c 42 3d 8f 5f a2 bb 45 58 25 3d f4 05 25 3d
       0.04740562 -0.004955239 0.040367384 0.04028888
000240 f9 78 05 3e 9b 29 ce 3c a0 24 8e bd 70 43 be 3c
       0.13034429 0.025166323 -0.069405794 0.023225516
000250 4a ca 50 3d df 8e e7 bd 82 9c 04 bc 0a 53 8f bd
       0.050974168 -0.113065474 -0.008093955 -0.0699826
000260 70 d8 d8 bd 54 24 63 3c 35 65 bd bd 09 04 db 3d
       -0.10588157 0.013863642 -0.09247819 0.10694129
000270 75 59 4c bc f6 07 07 be 50 ce b8 bc 39 4d 94 3d
       -0.0124725 -0.1318663 -0.022559315 0.072412916
000280 77 b5 2d 3d 23 ff f6 bd 59 ac 87 3d 73 80 1e bc
       0.042409386 -0.12060382 0.066246696 -0.009674179
000290 9e c0 16 3e 82 47 0d be 04 52 b4 bc e2 8c d3 bd
       0.14721915 -0.1379681 -0.022011764 -0.10329606
0002a0 36 33 63 3d 4f d5 95 bd 60 cb c9 3d 61 79 38 3d
       0.05546876 -0.07316076 0.09853244 0.04503763
0002b0 e0 63 0b 3e 41 7a a4 bc 12 27 82 3d 24 c6 8a 3d
       0.13612318 -0.020077826 0.06355108 0.067760736
0002c0 b5 ad c4 bc 8a 82 ab 3c 2d 4b 95 bd 50 ba a7 bd
       -0.024008611 0.02093627 -0.07289729 -0.08189833
0002d0 59 3a a7 bc a3 a1 11 be 20 c0 2f 3e 41 b5 c4 3d
       -0.020413565 -0.14221816 0.17163134 0.09604884
0002e0 1f ba be 3c 22 6e da 3d ae ac a8 3d 31 57 1b 3d
       0.023282109 0.106655374 0.08236061 0.03792495
0002f0 e9 ef d2 bd af 61 9c 3d c0 2a 8c bd bf c9 19 be
       -0.102996655 0.07635819 -0.068440914 -0.15018366
000300 cd b9 06 3e ed 8b 1a 3b 36 29 a4 3d 4c 26 90 bd
       0.13156815 0.0023581937 0.08015673 -0.070385545
000310 03 cb 50 3d da da ab 3c d4 07 1c be b5 3a dd 3c
       0.050974857 0.02097838 -0.15237361 0.027005533
000320 29 53 01 be ba 76 e0 3d 7c 62 24 3c df a7 0d 3e
       -0.1262938 0.10960145 0.010033246 0.13833569
000330 32 73 f5 bd f2 cb fa 3b ce cb cb bd 54 71 d1 3d
       -0.119848624 0.0076537067 -0.09950982 0.10226694
000340 d2 c6 fd bd 5a 3b 9a 3c 22 da dd 3d eb f5 45 3c
       -0.123914376 0.01882713 0.10832621 0.012082557
000350 35 44 b5 3d db 17 e6 bd e2 c6 cc bd 39 3d 12 bd
       0.088509 -0.11235019 -0.099988714 -0.035702918
000360 04 3c b3 3b 73 43 bb 3d c4 b9 de bc 65 58 74 bd
       0.005469801 0.09143724 -0.02718819 -0.059654612
000370 06 75 ee bc 9d 5c 88 3c 1a 87 80 3d 58 1a 0b be
       -0.029108535 0.016645724 0.062757686 -0.13584268
000380 d6 33 31 3b c4 0b 82 bc 5b b6 e2 3d a9 c8 cf bd
       0.0027038953 -0.01587475 0.11069938 -0.10145695
000390 b4 11 8f 3d 3c 3a c8 bd 15 c1 0b be ab 2f 02 3e
       0.069857985 -0.09776732 -0.13647874 0.12713496
0003a0 87 f9 00 bd bd 1c ff bd db 1c 88 bd 6d 9d 84 bd
       -0.031487968 -0.12456653 -0.06646129 -0.06475339
0003b0 55 f5 ea bd 06 a8 b4 bd f2 37 62 3d 52 52 07 3e
       -0.114725746 -0.088211104 0.055229135 0.13214996
0003c0 05 c3 9b 3d a6 e1 4a 3d 54 db 87 bd 4b f5 0b 3e
       0.076055564 0.0495316 -0.066336304 0.1366779
0003d0 ef fa c9 bc 0d 31 40 3d b9 43 09 3e 42 2e c0 3d
       -0.024655787 0.04692178 0.1340474 0.09383823
0003e0 02 67 c7 bd 3e bb a0 bd 88 ea 7e bc dc 8a 5b 3d
       -0.09736444 -0.078482136 -0.015558846 0.053599223
0003f0 d3 ff c9 bd 85 00 8b 3d 52 41 36 3d a2 50 ce 3d
       -0.09863248 0.067872085 0.044495888 0.10073973

conv_pep.3.bias f4 [64]
000000 a2 12 ab 3d 32 e5 c3 bd d5 cb a2 3d 62 1e 06 3e
       0.08353163 -0.095652 0.07949034 0.13097528
000010 d6 61 ee bd 30 ae da 3d f1 00 b6 3d fd 8c 04 be
       -0.116397545 0.10677755 0.08886898 -0.12944408
000020 9c 25 bc 3b a8 b6 08 3d 9b cb f5 3d 88 e6 bb bc
       0.005741788 0.03337732 0.12001725 -0.022937074
000030 8d a4 fc bd ba cb 14 3e b8 56 04 3e bf d6 0e be
       -0.12336073 0.1453084 0.12923706 -0.13949107
000040 f5 e4 5b 3d a0 33 ed bd 5f 9c 06 3e 97 59 f8 bd
       0.053685147 -0.11582112 0.13145588 -0.12126463
000050 62 58 04 3e 9c 17 78 bd 4f 10 bd bb ab 89 e6 bd
       0.1292434 -0.06056939 -0.0057697664 -0.11256727
000060 77 28 b0 bd d9 08 05 3e 33 87 4c bd 48 ef 08 be
       -0.08601468 0.12991656 -0.049933624 -0.13372529
000070 79 65 8d 3d 13 1f 73 bd 1e e2 bd bc a4 62 40 3d
       0.0690412 -0.059355807 -0.02317911 0.04696907
000080 7c fd d8 3d 6b e1 9b bd aa a8 1a bd 4d 9a 31 bd
       0.10595223 -0.076113544 -0.037758507 -0.043360043
000090 a4 02 11 bd dd 79 0e 3e f1 0b d0 bd b6 99 79 3d
       -0.03540291 0.13913675 -0.10158528 0.060937606
0000a0 f0 92 9f bc 64 b0 0b be ab 5b 09 be 10 28 fd bd
       -0.019479245 -0.13641506 -0.13413875 -0.12361157
0000b0 60 2e d2 bd f3 03 54 3c b3 55 1f 3c 12 a1 36 3d
       -0.102627516 0.012940395 0.009725022 0.044587202
0000c0 94 8e e0 3d 50 00 14 be ee c1 b7 3c ef 77 c9 bd
       0.109646946 -0.14453244 0.02243134 -0.09837329
0000d0 95 08 e5 3d 2b 6e 0d 3e e0 e9 51 3d 4e 5b de bc
       0.111832775 0.13811557 0.05124843 -0.027143147
0000e0 fd 96 c1 bd 0a 72 28 bc a0 fb 04 be b2 74 cf 3d
       -0.09452627 -0.010281095 -0.12986612 0.1012968
0000f0 d2 b8 e2 bd 07 14 39 bd eb 05 31 bd ad 29 06 bc
       -0.11070408 -0.045185115 -0.043218534 -0.008188647

conv_pep.4.weight f4 [64]
000000 53 02 7c 3f d8 88 80 3f 5b ae 78 3f 0d d6 7f 3f
       0.98441046 1.0041761 0.97141045 0.9993599
000010 96 e8 81 3f 28 4e 83 3f 31 77 81 3f 8a db 74 3f
       1.0149105 1.0258226 1.0114499 0.9564749
000020 24 0b 7b 3f 41 52 79 3f 8a 12 84 3f 5b c2 76 3f
       0.98063874 0.97391135 1.0318158 0.9639031
000030 14 ee 80 3f 31 27 81 3f bd 47 82 3f ec 4b 7b 3f
       1.0072656 1.0090085 1.0178143 0.9816272
000040 f6 33 7f 3f 70 78 84 3f 94 7d 85 3f 45 0e 80 3f
       0.9968866 1.0349255 1.0428948 1.0004355
000050 b6 90 79 3f d6 ba 77 3f 28 4e 7b 3f 0a 92 83 3f
       0.97486436 0.96769464 0.9816613 1.0278943
000060 5d 23 7a 3f dd f4 7f 3f 6d 70 7d 3f 54 35 82 3f
       0.9771021 0.99983007 0.98999673 1.0172524
000070 6a bf 6d 3f 29 f8 79 3f f3 eb 80 3f 90 c9 7f 3f
       0.928702 0.9764429 1.0072006 0.99916935
000080 d1 88 81 3f 6d 70 85 3f f8 dd 85 3f ef 9c 83 3f
       1.0119878 1.0424935 1.0458364 1.0282267
000090 82 8a 81 3f c3 30 82 3f da 5c 7a 3f 1c 84 77 3f
       1.0120394 1.0171131 0.9779793 0.9668596
0000a0 03 f1 81 3f c6 50 86 3f 07 07 85 3f 41 20 81 3f
       1.0151676 1.04934 1.039277 1.0087968
0000b0 c0 11 7e 3f e9 57 83 3f 0b b8 7c 3f 7a 3a 80 3f
       0.99245834 1.0261203 0.9871833 1.0017846
0000c0 2c 6e 72 3f ab 06 7e 3f 54 1e 80 3f 6b d6 85 3f
       0.9469936 0.99228925 1.0009255 1.045606
0000d0 09 0c 7f 3f db db 82 3f 0b f0 7d 3f c4 36 7e 3f
       0.9962774 1.0223345 0.991944 0.99302316
0000e0 29 bf 80 3f ac 53 81 3f 4b 61 79 3f d4 88 77 3f
       1.0058337 1.010366 0.9741408 0.9669316
0000f0 60 e1 7c 3f 39 1c 83 3f 93 f5 80 3f d3 d2 80 3f
       0.98781395 1.0242988 1.0074943 1.0064338

conv_pep.4.bias f4 [64]
000000 da 0f 8a bd 92 ee b4 bc ef 35 52 bd 7a 95 3f 3c
       -0.06741305 -0.022086415 -0.051320966 0.011693353
000010 43 8d 24 bc db fb 21 3c 99 88 33 bc 87 9f 03 bd
       -0.010043445 0.009886707 -0.01095786 -0.03213456
000020 f3 74 aa 3c c0 f8 28 3d 4e 97 9b bc c6 d8 7c bc
       0.020807719 0.04125285 -0.018993046 -0.015432542
000030 7b 1a 2b bd d8 b6 82 3b ca 89 22 bc 0a a4 18 bc
       -0.0417733 0.003989082 -0.009920547 -0.009316454
000040 53 39 3f bc ec 3c b8 3c 3f 88 ac 3c 56 cd 4a 3b
       -0.011671382 0.022489987 0.021061061 0.0030945144
000050 42 ab bf bb ec e2 cf 3c d6 54 f3 bc 1f 62 50 bc
       -0.005849273 0.02537676 -0.029703539 -0.012718706
000060 a0 ea b5 3c 59 5a 71 3c 58 c2 59 bd bc 30 7b bc
       0.022206604 0.014731013 -0.053163856 -0.015331443
000070 4d df a7 bd 56 a0 a2 bd 9a 2c 61 bd d6 c2 36 bb
       -0.08196888 -0.07940738 -0.054974176 -0.0027887127
000080 d7 50 a0 bc b9 d4 e2 3c 03 b2 0e 3d a2 5f 51 bd
       -0.019569797 0.027689325 0.034837734 -0.051116593
000090 f7 8d da 3b d3 b2 0f bd 2f a2 a3 3b 14 ca d8 3c
       0.0066697556 -0.03508265 0.004993699 0.026463546
0000a0 de 69 8c bc 50 63 fc 3c ee 71 cb 35 64 c6 76 3d
       -0.017140325 0.030809075 1.5157837e-06 0.060247794
0000b0 6f fa 53 bc 0c 66 ae 3b 72 94 a4 3c ff 89 d2 bb
       -0.012938126 0.0053222235 0.020090315 -0.006425142
0000c0 24 84 3a bd 57 50 cd 3c 92 91 aa bb 1a 26 22 3c
       -0.045536175 0.025062723 -0.0052053416 0.009896779
0000d0 16 5f d3 bc a3 64 d6 bb bd d5 72 bd cf 8a ba bc
       -0.025802176 -0.0065427586 -0.059285868 -0.022771267
0000e0 32 5b 33 3c 69 8c bf 3c 70 84 83 bd f2 d7 4c bc
       0.010947036 0.023382382 -0.06421745 -0.012502657
0000f0 35 80 8d bd 3b 72 45 3a ee 30 e1 ba 07 16 20 bc
       -0.06909219 0.0007531975 -0.001718072 -0.009770877

conv_pep.4.running_mean f4 [64]
000000 77 d0 87 3d 9e c5 ea bd 90 34 da bc ab 1d 14 3e
       0.066315584 -0.11463474 -0.026636392 0.14464442
000010 33 7f 4a be a0 ec cb 3e b3 b9 9c 3e f2 86 52 be
       -0.19775085 0.39828968 0.30610427 -0.2055929
000020 e8 11 bd 3d 7c 3f 4f 3e 41 f9 e2 3d c2 b7 95 3e
       0.09231931 0.20239061 0.11082698 0.2924176
000030 73 8f a1 be cc 04 21 3e 68 a7 32 3d 80 09 1b be
       -0.31554756 0.15724486 0.043616682 -0.15140343
000040 da ae 5b 3e 9c c7 ab be 14 4e 3e 3e 4a 41 06 bf
       0.2145342 -0.33550727 0.18584472 -0.52443373
000050 fa 8b ca bd 5d 80 12 bd 3c d4 88 bc 88 b8 3a be
       -0.0988998 -0.035766948 -0.016702764 -0.18234456
000060 cd 10 3d be 47 50 98 3e 04 93 5e bc b1 6a c2 be
       -0.1846344 0.29748747 -0.013584856 -0.37972024
000070 ad f6 84 3e d8 e0 91 be eb 26 91 be ae dc 06 be
       0.2596945 -0.28491855 -0.28350005 -0.1317012
000080 a5 b1 54 3e dd c7 c9 be 7d 52 79 be a7 96 85 be
       0.20770891 -0.39410296 -0.24347873 -0.260915
000090 5f fe fd bd 0f d0 27 3e e8 92 8b be 0b b3 43 be
       -0.12402033 0.16387962 -0.27260518 -0.19111268
0000a0 21 2d ba be a1 52 c3 be 24 3d bb be 11 af ab be
       -0.36362556 -0.38148978 -0.36570084 -0.33532003
0000b0 4b b4 1d be 5c 32 e6 bd fc 79 20 be ee 7e 9e 3e
       -0.15400808 -0.11240074 -0.15671533 0.30956215
0000c0 16 57 fe 3e 43 52 22 bd 17 c4 fc bb f8 c6 ac 3e
       0.49675816 -0.039629232 -0.0077138054 0.3374555
0000d0 02 e0 b1 3c 5e 42 88 3e fe fa 30 3c 16 40 2d 3e
       0.02171326 0.26613134 0.010802029 0.16918978
0000e0 53 f6 c8 bd e5 55 d5 bd 33 fd 5c be cb e5 1f bd
       -0.098126076 -0.10416774 -0.21580963 -0.039037507
0000f0 a3 81 8a bd 35 20 a8 bd 52 b6 f9 be 80 45 a5 3c
       -0.067630075 -0.08209268 -0.48771912 0.020174742

conv_pep.4.running_var f4 [64]
000000 eb 2b c4 3e 22 a8 e8 3d ae 70 9e 3e 1f 85 57 3e
       0.38314757 0.11360194 0.30945343 0.21046875
000010 9e 9b 13 3e cd c1 15 3e af f6 8b 3d 70 93 0c 3f
       0.14414832 0.1462471 0.068341605 0.5491247
000020 30 88 c9 3d c1 01 95 3d bf 1e 87 3d 8a cc 54 3e
       0.09840429 0.07275725 0.06597661 0.2078115
000030 25 6d 1e 3e 7d c7 1c 3e 75 06 ec 3d ca 1b cc 3d
       0.15471323 0.15310474 0.11524669 0.09966238
000040 3d 90 62 3e 3a d9 d1 3d c8 fb 4e 3e c4 65 9d 3e
       0.22125335 0.10246511 0.20213234 0.30741704
000050 ac b7 db 3d 37 f7 01 3e 39 8d 3f 3e cf d2 15 3e
       0.10728392 0.12691961 0.18706216 0.14631198
000060 e5 9f 8c 3d c6 54 1d 3e 8f 4a 8d 3e 99 db bf 3d
       0.06866435 0.1536437 0.27595946 0.09368057
000070 db 71 1c 3e b8 07 90 3e 2b 25 e2 3e 56 b1 ee 3d
       0.15277807 0.2813089 0.44168982 0.11654918
000080 9a fe b0 3d c9 2f 0f 3e ef 3f c3 3d ee a6 d5 3d
       0.086423114 0.13983072 0.09533679 0.1043223
000090 11 1b 03 3e 85 bc 87 3d 00 70 df 3e 84 c3 b9 3d
       0.12803294 0.06627754 0.43640137 0.09070495
0000a0 de f5 f7 3d 18 fc ff 3d 5c 8a 5b 3e c8 82 01 3e
       0.12107442 0.12499255 0.21439499 0.12647545
0000b0 3d 56 99 3e 29 9f 21 3e 4f 86 c5 3e f9 bd a1 3d
       0.29948607 0.15783371 0.38579032 0.078975625
0000c0 2d 49 b2 3d 0e d4 8f 3e 67 fb 15 3e 8b 12 62 3e
       0.087053634 0.28091472 0.14646684 0.22077386
0000d0 ed d6 be 3d 45 42 40 3e 0c 12 d0 3d c6 56 b8 3d
       0.093183376 0.1877528 0.10159692 0.09000926
0000e0 e6 83 0d 3e 8d 04 01 3e d9 ce 4b 3e 00 3b f7 3d
       0.13819847 0.12599392 0.19903125 0.120718
0000f0 1c b5 2e 3e 20 fe 95 3d 50 b5 f0 3d 4d 32 d4 3d
       0.17061275 0.07323861 0.117533326 0.103611566

conv_pep.6.weight f4 [64, 64, 3]
000000 a7 71 d7 3c 4f 13 16 bd 9b 95 81 bd b8 62 93 bd
       0.02629931 -0.036639508 -0.06327363 -0.071965635
000010 dc 72 80 3c 7e a1 65 3d 52 86 88 bb 8a 45 a7 bc
       0.01567977 0.056062214 -0.004166403 -0.020418901
000020 3a 62 09 3d 3e 81 83 3d ac 81 a3 3d 0e 78 03 bc
       0.03354094 0.06421135 0.07983717 -0.008024229
000030 79 62 20 bd 2e 4a 3d bb 77 80 b8 bd c0 f2 e1 3c
       -0.03915641 -0.0028883326 -0.09008878 0.027581573
000040 32 55 f4 bc 23 94 40 bd cf 12 20 bd b6 34 2d bd
       -0.02982578 -0.047016274 -0.039080437 -0.042286597
000050 6f d5 fa 3c c3 ea 63 bd 36 53 a1 3d 71 3e 14 3d
       0.030619351 -0.055643808 0.07877199 0.03619236
000060 f2 b5 90 bc 93 2a dc bd fb 61 fb bc 8f 6f f0 3b
       -0.017664883 -0.10750308 -0.03068637 0.0073375176
000070 ce 84 97 bd 81 eb a2 bc 28 92 8d bd 31 52 f2 3c
       -0.07398377 -0.019887688 -0.06912643 0.029580208
000080 09 fe cb bc 5d 95 6e bd 16 88 0b 3d 0d 10 eb bc
       -0.024901407 -0.058247913 0.03406533 -0.028694177
000090 7e a5 9f 3d f2 0e 16 bd 88 0a 0c bc ae 46 94 3b
       0.07795237 -0.036635347 -0.008547433 0.0045250272
0000a0 31 5e 38 3c 65 f6 19 bc 17 b0 85 bc 7f b5 76 bd
       0.011252926 -0.009397124 -0.016319318 -0.060231682
0000b0 32 a3 e0 3b 82 f2 38 3d d6 33 ce bd 2b ce b5 bc
       0.006855392 0.04515315 -0.10068481 -0.022193035
0000c0 5b eb 8e bc 5c 7c a3 bd 2e 90 a2 3c 9f 9f 90 bc
       -0.01744621 -0.07982704 0.01984414 -0.017654238
0000d0 5d 4a 13 bd 39 8c 65 3c ea 56 e6 bd 4c dc e8 3b
       -0.03595959 0.0140104825 -0.11247046 0.0071063396
0000e0 28 59 28 3d f6 ea 82 3c cf 12 a3 3d 7a b2 52 3d
       0.04110065 0.015981179 0.07962572 0.05143974
0000f0 79 27 77 bd 0f 43 38 3d 4a fb b6 bd b5 25 e5 3b
       -0.06034038 0.044985827 -0.08934648 0.0069930204
000100 9a 04 e5 3b 53 b9 a5 3a ee c8 6a bd a8 ce 42 bd
       0.006989074 0.0012643732 -0.057320528 -0.047560364
000110 23 4a c7 bd 08 ed 80 3d c9 ba 13 3c 38 64 53 bb
       -0.09730937 0.0629521 0.009016701 -0.003225578
000120 6b 45 50 bc a5 90 64 3c af 1e 0c bd 22 91 93 bd
       -0.012711863 0.013950502 -0.03420895 -0.07205416
000130 d9 85 ca bd bc 43 8d bd 28 9f c2 bc a2 b7 83 bd
       -0.09888811 -0.06897685 -0.023757532 -0.064315096
000140 d2 ba e9 3c 05 8b bd 3c b2 1a 41 3d dd a4 5b 3d
       0.028531466 0.023137579 0.0471446 0.053624023
000150 b3 eb 31 bd f2 0c 9e bc 1f 90 77 3d c2 26 ba 3d
       -0.04343767 -0.019293282 0.06044018 0.09089424
000160 8e 91 6d 3c 0c 4b de bc 75 8c 84 3d 21 8e 3b 3d
       0.014500035 -0.027135395 0.064721026 0.04578984
000170 25 e7 d4 3d 6b 58 aa 3c 89 33 1a bb 68 a6 33 bc
       0.1039565 0.020794114 -0.0023529253 -0.010964967
000180 df bf 55 bd 98 95 e0 3c 5a c6 2f 3d c5 20 31 3d
       -0.052184936 0.027415082 0.042913772 0.043244142
000190 f8 9c b6 bd dd fd 6c 3a 08 31 24 be 17 1b 98 bc
       -0.08916658 0.0009040514 -0.16034329 -0.018567605
0001a0 63 1f c9 bd 65 cb 93 3d 1a 1d a6 bd 13 5e 1a bd
       -0.0982044 0.07216529 -0.081110194 -0.037687372
0001b0 76 4a 51 bd 2e df 32 3d a4 e0 f4 3b c0 98 60 3d
       -0.051096402 0.043669872 0.0074730683 0.054833174
0001c0 9f 36 85 3d 2f b4 b5 3c 7c 5f 5f bc 74 6b 78 3d
       0.06504559 0.022180645 -0.013633605 0.06064935
0001d0 2d b2 9f 3d f1 5d 54 bd 34 39 9e bc 29 96 2c 3d
       0.07797656 -0.051847402 -0.019314386 0.04213539
0001e0 2e f8 29 bd b7 42 20 bd 8f 66 96 3d d3 73 1f bd
       -0.04149645 -0.039126124 0.0734378 -0.038928818
0001f0 cb 98 61 3d 8d 28 92 3c fd 29 b2 bd de 2c 10 bd
       0.055077355 0.017841602 -0.08699415 -0.03519904
000200 c9 4a 1f bd 07 ae 44 bd ee 77 56 bd dd 71 32 bd
       -0.03888968 -0.048017528 -0.052360468 -0.04356562
000210 b1 1b 17 3d df ce e4 3c 0f b5 a4 3d 9b 37 a5 bd
       0.036891643 0.027930675 0.08042347 -0.080672465
000220 bf 3f e4 3c 79 cd fe 3c 40 b7 91 3d b8 15 a1 bc
       0.027862428 0.031103836 0.0711503 -0.019663677
000230 7b c8 04 3d 56 fe f7 3c 3e a2 09 bd 14 a3 2b 3d
       0.032417756 0.030272644 -0.03360199 0.04190357
000240 ff c3 d5 bb 29 87 8b 3c f6 72 aa 3c 65 2a ed bc
       -0.0065236087 0.017032223 0.02080677 -0.02895088
000250 c2 27 92 bc ad 39 dd bc f0 c0 22 3d dd 01 6f bd
       -0.017841224 -0.027005041 0.03973478 -0.058351386
000260 96 03 6a bc fb 0b a9 3c c0 a6 03 bd af b4 82 3d
       -0.0142830815 0.020635596 -0.032141447 0.06382119
000270 94 c0 91 bd 1b 21 0d bd 60 a4 0a 3b ef 4c 2f 3d
       -0.071168095 -0.0344554 0.0021155104 0.04279798
000280 d9 97 aa 3d 77 c2 e2 bc eb b8 a4 bc f8 6b 88 bd
       0.08329744 -0.027680619 -0.020107707 -0.066612184
000290 14 09 39 bc 5e 10 95 3d 88 98 f5 bc 12 87 42 bd
       -0.011293668 0.072785124 -0.02997996 -0.047492094
0002a0 b8 88 9a bd dc 59 5a bd 71 40 d4 3c 1b c2 b1 3c
       -0.07545608 -0.053308353 0.025909634 0.021699002
0002b0 4e b4 9b 3d 4d a5 d1 3b 73 10 09 bd ad 20 29 3d
       0.0760275 0.006397879 -0.033462953 0.041290928
0002c0 8a 56 40 3d 13 2c c7 bb d6 90 8d 3d 6a df df 3c
       0.04695753 -0.006078252 0.06912391 0.027328212
0002d0 a3 70 c1 bd a9 9f 5b 3c db 68 b1 3d d5 a0 08 3d
       -0.09445312 0.013404765 0.08662578 0.033356506
0002e0 8a 5b 4e bd 2f 43 94 bd 4b 29 11 3c 3e 14 be bc
       -0.050380267 -0.07239377 0.008859943 -0.023203012
0002f0 b4 21 9d bc 72 e1 83 3d 1f 86 99 bb b2 59 8e bb
       -0.01918111 0.06439485 -0.004685178 -0.0043441886
000300 0d c3 c2 bd c1 27 b6 bc 45 26 ba bd 4b 4d 8c 3d
       -0.09509859 -0.022235753 -0.090893306 0.0685068
000310 a0 4f b0 bd 41 da 0f 3d 65 0b b6 bd 63 55 6c 3c
       -0.08608937 0.035120253 -0.08888892 0.014424655
000320 10 24 13 3b 93 94 4d bd 68 71 10 3d d9 4b cb 3d
       0.0022451915 -0.05019052 0.035264403 0.09926576
000330 e6 55 bc 3d f1 de f4 bc 0e d6 b9 bc 19 2a a0 3c
       0.09196071 -0.029891463 -0.022685077 0.019551324
000340 b5 4e b4 bd 73 0c 2f bc 3f 04 37 3d d9 1d 18 bd
       -0.08804075 -0.0106841205 0.044681784 -0.03713784
000350 f4 5e 07 3d 6c 3a ef 3c 55 4c 94 3d 6c a5 67 bd
       0.03304954 0.029202662 0.07241122 -0.056554243
000360 e8 7b b5 3b 75 e2 01 bb 29 f2 7d bd 3e 2b 82 bc
       0.0055384524 -0.0019818817 -0.06199852 -0.01588976
000370 0c 68 4f 3d bf b3 00 bd 57 ac 34 bd bc cf 2c 3c
       0.050636336 -0.03142142 -0.04410967 0.010547575
000380 54 fb 38 bd 09 13 49 3d 27 93 1e 3d 7d bf 2e bc
       -0.04516156 0.04909042 0.038714554 -0.010665772
000390 7d 0b 36 3d f8 31 bd 3d e9 90 2d bd 3b b2 8c 3d
       0.04444455 0.092380464 -0.042374525 0.06869932
0003a0 8f 88 ef bc 57 23 46 3d 05 c0 a3 3d 3b af 84 bd
       -0.02923992 0.048373546 0.07995609 -0.06478735
0003b0 67 f8 36 3d 56 c9 35 bd cb fa 81 bd a6 5f fc 3c
       0.04467049 -0.044381462 -0.06346663 0.030807327
0003c0 11 c6 ef 3c 29 66 a8 bd ff c7 0f bd 94 2a c4 3d
       0.02926925 -0.082226105 -0.03510284 0.09578434
0003d0 c1 bb 77 3c 56 34 88 bc dc 57 62 b9 f4 9c 93 3d
       0.015120448 -0.016626518 -0.0002158577 0.07207671
0003e0 9e 8f 1a bd cc 18 9e bd 16 b8 13 3d ba ae 32 bd
       -0.03773462 -0.077195734 0.03606423 -0.043623663
0003f0 b3 01 df bc 36 1c 3b 3d fd ce f9 3c 2e 8f cb bc
       -0.02722249 0.0456812 0.030494208 -0.024848547

conv_pep.6.bias f4 [64]
000000 d1 68 85 3d 04 60 57 bd 95 dd 81 bd 65 bd 27 bd
       0.06514133 -0.052581802 -0.063410915 -0.040952105
000010 ee 92 91 bd ac db 72 bd 3d 36 c9 bc 5a 19 32 bd
       -0.07108103 -0.059291527 -0.024561996 -0.04348121
000020 25 87 72 bc fb 45 87 bd 7b 36 80 bd e5 e8 3e bc
       -0.014802729 -0.066051446 -0.06260391 -0.011652206
000030 f1 a1 68 bd e2 ce f9 3c 86 a6 4b bb 80 5d 69 3d
       -0.056795064 0.030494157 -0.0031074598 0.056973934
000040 90 71 02 3d 35 88 39 3d c6 e7 0e bd af 3e 95 bd
       0.031846583 0.045295913 -0.034889005 -0.072873466
000050 bb b9 6b bd dc e3 ec 3c 30 cc fb bc 82 21 92 ba
       -0.057550173 0.028917246 -0.030737013 -0.0011148902
000060 fd 69 e7 bc af 79 86 bc 15 ea 8b 3d 0c 69 a0 bb
       -0.028248781 -0.016415445 0.06831757 -0.004895335
000070 43 7f 0e bd 81 13 ea bc bb 5c 45 bc 33 d9 8c bd
       -0.034789335 -0.028573753 -0.012046034 -0.06877365
000080 3f 45 5d bd 03 f2 0d bc 34 3d 1f 3d b9 74 e2 3c
       -0.054021116 -0.008663657 0.038876727 0.027643548
000090 29 ec 71 3d ac fb fd bc 2b f5 5c bc 09 41 26 bd
       0.05906311 -0.031003796 -0.013486187 -0.040589366
0000a0 88 3d 24 3d 66 8e f8 bc e8 cb 7e 3d d8 ae e8 3c
       0.040097743 -0.030341338 0.06220618 0.028403684
0000b0 a1 5b 47 3d 1e df 33 3d 12 d4 8e bc 98 d5 8d 3d
       0.04867137 0.043913953 -0.017435107 0.069255054
0000c0 09 ac cd bc c4 87 75 bb e9 6b 91 3b 45 b9 63 3d
       -0.025106447 -0.0037464956 0.0044379127 0.05559661
0000d0 6d f5 70 bd e1 5b 16 bd e7 a7 00 bd 65 ae 23 3b
       -0.058827806 -0.036708716 -0.031410124 0.0024975773
0000e0 47 ab b0 bc 51 0a f0 bc 0d f2 04 bd 1e 88 90 3d
       -0.021566046 -0.029301794 -0.0324574 0.07057212
0000f0 3f bf 72 3d 21 17 96 3d 84 58 ff 3c 45 24 93 bd
       0.059264418 0.0732863 0.031170137 -0.07184652

conv_pep.7.weight f4 [64]
000000 7a ae 82 3f d6 95 7e 3f 58 b3 79 3f 8a 3c 7b 3f
       1.0209496 0.9944738 0.9753928 0.9813925
000010 cb 9c 7c 3f 13 7a 80 3f fd ee 7d 3f 64 84 81 3f
       0.9867675 1.0037254 0.9919279 1.0118527
000020 b6 ad 7d 3f d5 93 81 3f d2 9d 84 3f bc 20 7c 3f
       0.99093187 1.012324 1.0360663 0.9848745
000030 8e 98 7e 3f 3b 00 80 3f 37 5b 81 3f d5 5d 80 3f
       0.9945153 1.000007 1.0105962 1.0028635
000040 b4 c1 74 3f a9 8c 7a 3f 50 14 7d 3f e8 9d 7f 3f
       0.9560807 0.9787088 0.9885912 0.9985032
000050 00 72 79 3f 60 da 79 3f da 32 80 3f 27 77 7c 3f
       0.97439575 0.9759884 1.0015519 0.9861931
000060 e4 e3 81 3f 79 91 81 3f 73 62 80 3f c6 77 79 3f
       1.0147672 1.012252 1.0030044 0.97448385
000070 ed 89 7a 3f ff 59 75 3f 38 8a 7e 3f 72 1d 79 3f
       0.9786671 0.9584045 0.99429655 0.97310555
000080 9c fa 7b 3f ca 2d 83 3f 15 e6 7e 3f 5b ff 7f 3f
       0.98429275 1.0248349 0.9956983 0.99999017
000090 0a 36 76 3f a4 14 7c 3f e7 05 7e 3f eb 43 7a 3f
       0.9617621 0.98468995 0.99227756 0.97759885
0000a0 5c 5e 7d 3f 58 60 80 3f 9b 70 7e 3f a5 55 81 3f
       0.98972106 1.0029402 0.9939057 1.0104262
0000b0 3f 1c 81 3f db 91 7a 3f 20 34 76 3f 63 70 74 3f
       1.0086745 0.9787881 0.96173286 0.9548399
0000c0 56 ef 83 3f 9c 37 75 3f dd 6d 80 3f 24 25 84 3f
       1.0307415 0.9578798 1.0033528 1.0323834
0000d0 04 c7 7c 3f 7b 95 75 3f c3 11 82 3f 38 45 7f 3f
       0.98741174 0.95931214 1.016167 0.99714994
0000e0 a4 13 80 3f 3a 10 7e 3f bc 53 7f 3f a9 ea 7c 3f
       1.0005994 0.9924351 0.99737144 0.98795563
0000f0 10 5f 79 3f fd e8 7f 3f bd 2c 80 3f e9 c0 7e 3f
       0.9741068 0.99964887 1.0013653 0.9951311

conv_pep.7.bias f4 [64]
000000 e2 93 56 bd df 36 c9 bb b9 6e 95 3b d9 4c 40 ba
       -0.052387126 -0.0061405743 0.0045603183 -0.000733567
000010 80 b5 d1 3c a2 26 0f 3d d9 cc be 3c 27 9a de 3c
       0.025599241 0.034948952 0.023291038 0.027173115
000020 bc c7 8b bd c5 08 69 3c fd 88 93 3c f9 fc 2e bc
       -0.06825206 0.014223282 0.018009657 -0.010680431
000030 19 41 9f 3b 0e b5 39 bd 02 f5 99 3c 97 b7 e8 3c
       0.004860055 -0.045338683 0.018793587 0.028407855
000040 dc f5 60 bd da e1 36 3c d3 04 3f bc df 8b 44 bd
       -0.05492197 0.011162246 -0.011658865 -0.047984954
000050 f7 f7 65 bd f3 9e 56 bd fd 14 23 bd 64 e8 69 3b
       -0.05614468 -0.05239768 -0.039814938 0.0035691494
000060 b9 90 6e bd ee 2d 3b bd 8b bd a0 bd 83 87 c8 bc
       -0.058243487 -0.0456981 -0.078486525 -0.02447868
000070 ec f6 99 bd eb 9e 26 bc ab da 93 3c 36 86 07 bd
       -0.075178 -0.010169725 0.018048605 -0.033086978
000080 92 f6 44 3c 3b ea 41 3d c0 f8 d1 3c e4 9c e3 3c
       0.012021678 0.04734252 0.025631309 0.027784772
000090 67 85 bc bc b2 57 59 bd 07 2a 2c bc 36 6e 6e 3c
       -0.02301283 -0.05306215 -0.010508067 0.0145526435
0000a0 82 0c 32 3c ac 30 7a bd bd d5 94 bd 16 12 72 bc
       0.01086724 -0.061081573 -0.0726733 -0.01477482
0000b0 87 2e 42 bd 60 f7 56 bd c8 18 32 bd 77 f8 26 bd
       -0.047407653 -0.05248201 -0.043480664 -0.0407643
0000c0 59 d8 7c bd 02 60 25 bc cc b5 02 3d e0 8b 6a bd
       -0.061729763 -0.010093691 0.031911656 -0.0572623
0000d0 3b 86 70 bd ee d4 01 bd 76 9c d5 3c 05 4a 7a bd
       -0.058721762 -0.031697206 0.026075583 -0.061105747
0000e0 70 10 46 bd f2 70 4b bd f3 10 61 3c f6 47 a7 3c
       -0.04835552 -0.04966826 0.013736951 0.020420056
0000f0 3f b0 02 bc d7 14 43 bd 9e c7 98 bd 8d 6b 16 3c
       -0.007976591 -0.047627296 -0.07459949 0.009180916

conv_pep.7.running_mean f4 [64]
000000 00 3a 33 be 8b 35 43 be 14 46 41 be 4d 7d 04 bf
       -0.17502594 -0.19063394 -0.18874389 -0.51753694
000010 13 19 0a bf 42 39 99 bd 6f 77 2b be 2e 8d 80 3e
       -0.5394451 -0.07481624 -0.16744779 0.25107712
000020 e0 56 d0 3d 78 7e 2a be 84 70 0d be a6 62 aa bd
       0.1017282 -0.16649806 -0.13812453 -0.08319597
000030 29 df c3 be c7 a2 13 be 01 66 4c 3e 38 e9 0b be
       -0.38256195 -0.14417563 0.19960786 -0.13663185
000040 d1 34 de 3e 47 77 84 bd 3c ae 87 be 9b 74 e2 bd
       0.4339967 -0.06468063 -0.26500118 -0.11057397
000050 5d bb b8 bd b2 f2 5a be 3e c7 a1 be 30 aa 1c 3f
       -0.09020112 -0.21381643 -0.31597322 0.61197186
000060 7c 45 d8 be f3 3e ca bd 90 8c 5a be ac ff 6b be
       -0.42240512 -0.09875288 -0.21342683 -0.2304675
000070 0b 76 a9 be e9 f3 88 be b5 9f 8b 3d 53 a5 0b bf
       -0.33097872 -0.2674859 0.06817571 -0.5454914
000080 e3 36 20 3e 5f a7 d6 3e a3 f5 a7 bd fb 8d 28 3e
       0.15645938 0.4192457 -0.08201148 0.16460411
000090 d5 68 48 be 77 fd 88 39 08 51 86 bd cb 53 9e be
       -0.1957124 0.00026128787 -0.06558424 -0.30923304
0000a0 43 f2 46 be 58 ef e1 be f6 e1 19 be a2 eb 4b 3e
       -0.19428353 -0.44127917 -0.15027604 0.19914106
0000b0 a7 d0 d0 be 06 4b a6 bd 14 44 27 be b5 80 45 bd
       -0.4078419 -0.08119778 -0.16334563 -0.048218448
0000c0 96 cc 73 be 8a 25 86 bd 1f 6f d0 3d d6 83 88 be
       -0.23808512 -0.06550129 0.10177445 -0.26663083
0000d0 6e 39 2a 3e e0 29 88 3e 83 d5 4f 3e 06 5f 6a be
       0.1662347 0.26594448 0.20296292 -0.22887811
0000e0 3c b5 af be 22 f7 9e be 22 02 9b be 2a d8 15 be
       -0.34317958 -0.31047922 -0.30275065 -0.14633241
0000f0 e7 1d e0 bd 93 75 33 bf 1b 54 c4 be 45 62 5b bd
       -0.109432034 -0.7010128 -0.38345417 -0.053560514

conv_pep.7.running_var f4 [64]
000000 84 3b 48 3e 8e 34 08 3f a4 4f e3 3e fc be 8a 3f
       0.19553953 0.5320519 0.44396698 1.0839534
000010 88 f8 b1 3e 2a bd a6 3e b1 27 07 3f 9a e1 b8 3e
       0.34759927 0.32566196 0.5279494 0.3610962
000020 58 64 77 3e a5 48 88 3e 3a f3 ee 3e 68 5f 80 3e
       0.24159372 0.26617923 0.46669942 0.2507279
000030 8a ea 29 3f 41 d9 b3 3e c6 97 91 3e 72 08 06 3f
       0.66373503 0.3512669 0.28436106 0.52356637
000040 14 50 1a 3f c3 60 3e 3e 9c 7c d5 3e 93 19 87 3e
       0.6027844 0.18591599 0.41696632 0.263867
000050 15 ee 54 3e 38 a5 fd 3e 07 c0 4f 3e 26 b6 05 3f
       0.20793946 0.49540114 0.20288096 0.5223106
000060 cf 50 9d 3e d6 6a 1e 3e 78 32 58 3e 78 cd 5f 3e
       0.30725715 0.15470442 0.21113002 0.21855724
000070 f9 7c 9d 3e 2b 77 38 3f 82 54 07 3f 1b 52 86 3f
       0.3075941 0.72056836 0.52863324 1.0493807
000080 41 c8 c1 3e 19 ce 28 3f 24 90 b3 3e 63 ff 89 3e
       0.37848094 0.6593948 0.35070908 0.26952657
000090 d9 a7 17 3f 28 ea 40 3e aa eb 16 3f 73 92 2c 3f
       0.5924049 0.18839324 0.58953345 0.67410964
0000a0 1b 89 f0 3e 59 32 ca 3e 69 4a 6d 3e eb d3 19 3e
       0.46979603 0.39491537 0.23172916 0.15022247
0000b0 59 e7 b4 3e 41 5c 89 3e 26 fe cc 3e 20 05 2b 3f
       0.35332754 0.26828197 0.4003765 0.66804695
0000c0 53 90 5e 3e b5 03 a0 3e c7 ad 67 3e d0 88 7d 3e
       0.21734743 0.31252828 0.22624885 0.24759221
0000d0 32 8a 82 3e 86 2b ab 3f 1b 15 82 3e e9 76 94 3e
       0.2549606 1.3372657 0.25406727 0.2899697
0000e0 c2 a8 f2 3e e1 0c 08 3e 32 74 48 3f fa f4 e2 3e
       0.47394377 0.13286163 0.783023 0.44327527
0000f0 1c 8d 8c 3f f5 ee 60 3e d8 d2 89 3e 34 a0 ab 3e
       1.0980563 0.21966155 0.26918674 0.33520663
