trained models/DSSO/DeepIntRa_Params_04.pt (torch, 194310 bytes, 27 tensors)

pep_embed.weight f4 [26, 60]
0	0xbf3dc640	-0.7413063
1	0xbe7e534b	-0.24836461
2	0xbfa42694	-1.2824273
3	0x3f3c89af	0.7364759
4	0xbe0a8659	-0.13527812
5	0xbf95178b	-1.164781
6	0xbf331281	-0.6995011
7	0xbbd49210	-0.0064871386
8	0xbfe452c5	-1.7837759
9	0xbeaaf218	-0.33387828
10	0x3eeed42b	0.46646246
11	0xbf3e3a8f	-0.74308103
12	0x3f3bf7e1	0.7342511
13	0xbfeefaf6	-1.8670337
14	0x3f81ed1c	1.0150485
15	0x3ec41f2f	0.3830504
16	0x3f0fe54c	0.56209254
17	0x3ff91d0d	1.946199
18	0xbf1fb1bf	-0.62380594
19	0x3f8b93bd	1.0904461
20	0x3e224f42	0.15850547
21	0x3e08b42a	0.13349977
22	0xbf843e44	-1.0331502
23	0x3f93bcbd	1.1541973
24	0xbb9525a0	-0.0045516044
25	0xbe8f576b	-0.27996382
26	0x3f78155e	0.96907604
27	0xc0167d07	-2.351381
28	0x3f2aaa00	0.6666565
29	0x3f803fe2	1.0019495
30	0xbfc501c9	-1.539117
31	0xbfb39914	-1.4031091
32	0x3e7b42b8	0.2453717
33	0x3f64d6b1	0.89390093
34	0x3de11c07	0.10991674
35	0x3f52f592	0.8240596
36	0x402560a8	2.5840244
37	0x3f833811	1.0251485
38	0xbf057638	-0.5213351
39	0x3e444e86	0.1917058
40	0x3f2ed21c	0.6828935
41	0x3ec248d4	0.37946188
42	0x3f6a4e37	0.91525596
43	0xbfda9de3	-1.7079433
44	0x3f97b5ec	1.1852393
45	0xbf9ab7c0	-1.2087326
46	0xbfb68119	-1.4258147
47	0x3e88f8b1	0.26752236
48	0x3e3ef431	0.18647839
49	0xbf76afa9	-0.96361786
50	0xc016af51	-2.3544505
51	0xbcb5edfb	-0.022208204
52	0xbfaa6b41	-1.3313981
53	0x3f84a94f	1.0364169
54	0x3f3304a3	0.6992895
55	0x3f7ca660	0.9869137
56	0xbc79237e	-0.015206216
57	0xbe1672cb	-0.14692228
58	0xbf4061a2	-0.75148976
59	0x3ecb4145	0.39698234
60	0x3f1f32cd	0.6218689
61	0xbf1b9ae6	-0.6078323
62	0x3f5e65d4	0.8687413
63	0xbfa3e9c4	-1.2805715
64	0x3f38ec86	0.72235906
65	0x3f9a23e4	1.2042203
66	0xbfc204fe	-1.5157773
67	0xbe687afb	-0.22703163
68	0x3c628ba0	0.0138272345
69	0x3f2d36fd	0.6766203
70	0xbed8b34c	-0.42324293
71	0xbe55224e	-0.20813867
72	0x3f0e17ce	0.55505073
73	0xbea911e6	-0.33021468
74	0xbf6311c1	-0.88698965
75	0xbf0deccf	-0.55439466
76	0xbd950ccf	-0.07277834
77	0x3ffe8518	1.9884367
78	0xbf61222e	-0.8794278
79	0xbea9faeb	-0.33199248
80	0x3c248b56	0.010042986
81	0x3e3ff799	0.18746795
82	0xbe78f739	-0.24313058
83	0x3d198e99	0.037489507
84	0x3ec613a7	0.3868687
85	0xbeb0297e	-0.34406656
86	0xc0262504	-2.5960093
87	0x3f130fc2	0.5744592
88	0x3e8da1b7	0.2766244
89	0x3ed7e8e6	0.42169875
90	0x3c98ac05	0.018636713
91	0xbefafdfa	-0.49021894
92	0xbfd652ad	-1.6743981
93	0x3fcac243	1.5840534
94	0x3e9a3b15	0.301232
95	0xc04dccb3	-3.2156188
96	0xbf3e06f4	-0.7422936
97	0xbe350022	-0.17675832
98	0x3e6ab9ea	0.22922483
99	0x3e7c1b9d	0.24619909
100	0x3f0f72ee	0.56034744
101	0x3eed5c3b	0.4635943
102	0xbd76b8fb	-0.060235005
103	0x3d038b0e	0.032115035
104	0x3faf7de4	1.3710294
105	0xbea343f2	-0.31887776
106	0x3fb0fc64	1.3827024
107	0xbfdae499	-1.7101012
108	0xbfd24e98	-1.6430235
109	0xbf908d62	-1.1293147
110	0x3e421cca	0.18956295
111	0xbf102621	-0.5630818
112	0x3e9ed586	0.3102228
113	0x3e9ffdd5	0.31248346
114	0x3f6baaf3	0.9205772
115	0xbfbd5463	-1.4791378
116	0x3f8b06ce	1.0861452
117	0xbf14bb3f	-0.58098215
118	0xbe7ea840	-0.2486887
119	0x3e032f2e	0.12810966
120	0x3efe69f0	0.496902
121	0x3ea57def	0.32322642
122	0xbee99f5f	-0.45629403
123	0xbe234902	-0.15945819
124	0x3f39636f	0.7241735
125	0xbf67ec5c	-0.9059503
126	0xbef2905a	-0.47375757
127	0x3f32db64	0.69866014
128	0xbe2a59e7	-0.16635858
129	0x4027223a	2.611464
130	0x3bdcb153	0.006735006
131	0x3e504dbd	0.20342155
132	0xbf1ebb44	-0.62004495
133	0xbf529ce4	-0.82270646
134	0xbe8802ac	-0.26564538
135	0x3e8df1f0	0.27723646
136	0x3da6f0fc	0.08151433
137	0xbf14adf9	-0.5807796
138	0xbe900e20	-0.28135777
139	0xbf887fb6	-1.0663974
140	0xbf7733bb	-0.9656331
141	0xbf583c47	-0.84466976
142	0xbfedf7f5	-1.8591295
143	0x3fe5880a	1.7932141
144	0x3f730834	0.9493439
145	0x3e1f39e0	0.15549421
146	0x3f842aad	1.0325524
147	0xbe80a064	-0.25122368
148	0x3e7f9b9e	0.24961707
149	0x3e52155f	0.20515965
150	0x3da49e33	0.080379866
151	0x3e106cce	0.14104006
152	0xbfa31c54	-1.274302
153	0x4002b71e	2.0424266
154	0xbfe81ec8	-1.8134394
155	0xbf63b84f	-0.8895311
156	0xbf378dc0	-0.7170067
157	0x3e14ce6b	0.14531867
158	0xbf1adbc1	-0.6049157
159	0xbe809b20	-0.2511835
160	0x3ff024a5	1.8761183
161	0x3ee48a62	0.44636828
162	0x3ffc260c	1.9699111
163	0xbfaa7bfe	-1.331909
164	0xbf2478bc	-0.64246726
165	0x3f40690a	0.75160277
166	0xbfe76688	-1.8078165
167	0xbd33986a	-0.043846525
168	0xbf52f9f2	-0.82412636
169	0xbefc4e61	-0.49278548
170	0x3ff7ce9c	1.9359927
171	0xbf9a641e	-1.2061803
172	0xbe948c39	-0.2901323
173	0x3f494321	0.78618056
174	0xbf514be4	-0.81756425
175	0xbef1f881	-0.47259906
176	0x3e610df8	0.21977985
177	0xbeca5049	-0.39514378
178	0x3e9eac94	0.30991042
179	0x3eec2504	0.4612199
180	0xbe4ba188	-0.19885838
181	0x3f645d9f	0.89205354
182	0xbef7bf73	-0.48388252
183	0xbf0b8fb2	-0.54516137
184	0x3fba1e04	1.454041
185	0xbf13a3d8	-0.5767188
186	0xbf9cd9d3	-1.2253975
187	0x3f9eda2e	1.2410333
188	0xbe42bf64	-0.19018322
189	0xbe687340	-0.22700214
190	0x400ffde1	2.2498705
191	0xbfefce9a	-1.8734925
192	0xbf7b01d8	-0.9804969
193	0xbf2becfd	-0.6715849
194	0x3fb83a1c	1.4392734
195	0x3e31d1bb	0.17365162
196	0x3f4437b2	0.76647484
197	0x3f12e05f	0.57373613
198	0x3fd2a029	1.6455127
199	0xbf64296b	-0.891257
200	0x3eda90b6	0.4268853
201	0x3f8163c2	1.0108569
202	0xbf228575	-0.6348489
203	0xbe81eae5	-0.25374523
204	0xbe0738fc	-0.13205332
205	0xbf90e4c2	-1.1319811
206	0x3d90e238	0.07074398
207	0x3ea9f2a1	0.33192924
208	0x3f0f1cf3	0.5590355
209	0xbf9889a4	-1.1917005
210	0xbe838f28	-0.25695157
211	0x3fd17be9	1.6365939
212	0x3ed7b23b	0.42128167
213	0xbf1f3bfe	-0.62200916
214	0xbfb193a3	-1.387318
215	0x3d7860d8	0.060639232
216	0x3deb9632	0.11503257
217	0xbfba6172	-1.4560988
218	0xbf4d00c9	-0.80079323
219	0xbe0fe803	-0.14053349
220	0x3f285dc9	0.65768105
221	0x3ed943c8	0.42434525
222	0x401841f8	2.3790264
223	0xbf2e463c	-0.6807592
224	0x3f3312f0	0.6995077
225	0xbf640591	-0.89070994
226	0x3f14dbdd	0.58147985
227	0xbff9e55d	-1.9523121
228	0x3ef8b9f9	0.48579386
229	0xbf58eccd	-0.8473633
230	0x3c759336	0.014988711
231	0x3f0e778a	0.5565115
232	0x3f880317	1.0625943
233	0xbf89281d	-1.0715367
234	0xbf7c51cd	-0.9856232
235	0x3fa14cf5	1.260161
236	0x3f29e3fe	0.66363513
237	0xbe4f6aa5	-0.20255525
238	0xbe693200	-0.2277298
239	0x3fab09da	1.3362381
240	0xbfa51640	-1.2897415
241	0xbf48fe73	-0.7851326
242	0x3e5cde82	0.21569255
243	0x3fc21acf	1.5164431
244	0xbe90747f	-0.2821388
245	0x3e7c15db	0.24617712
246	0x3f027513	0.5095989
247	0x3f9b69c7	1.2141656
248	0x3f36f46f	0.71466726
249	0x3d3230e4	0.043503657
250	0x3fb9cbb4	1.451529
251	0xbeed6eda	-0.46373636
252	0xbf6810f4	-0.9065087
253	0x3d1a6b90	0.037700236
254	0xbf6e7aa3	-0.9315588
255	0xbec170e6	-0.37781447

mod_embed.weight f4 [4, 4]
0	0xbf500c1c	-0.8126848
1	0xbe7612b2	-0.24030569
2	0x3f444dc1	0.76681143
3	0x3f1d23f9	0.61383015
4	0x40077c75	2.1169713
5	0xbee5464e	-0.447802
6	0xbfae5a20	-1.3621254
7	0x3faddcca	1.3583004
8	0xbf1a7da1	-0.60347944
9	0x3f9e6346	1.2374046
10	0x4003c7c3	2.0590675
11	0xbfc08e57	-1.5043439
12	0x3fe73a37	1.8064641
13	0x3e7a3f43	0.24438195
14	0x3fe0c1f7	1.7559193
15	0xbe99d7b4	-0.3004738

conv_pep.0.weight f4 [16, 64, 3]
0	0xbd28fb95	-0.041255552
1	0xbbc4cc4e	-0.0060058003
2	0x3d683d6a	0.056699194
3	0xbd8d3e53	-0.06896653
4	0x3cd5003b	0.026001086
5	0xbd313f6a	-0.043273367
6	0xbd358259	-0.044313762
7	0x3d6a6351	0.05722362
8	0x3bd356e3	0.0064495667
9	0x3c8ebbb9	0.017423498
10	0xbd1b8893	-0.037972044
11	0xbd4b9688	-0.049704105
12	0x3d943fcb	0.0723873
13	0x3d845b1c	0.0646269
14	0xbd64c39b	-0.055850606
15	0xbc0d0d7d	-0.008609173
16	0xbb88776d	-0.0041646273
17	0x3d8a8ca4	0.06765106
18	0xbdb044ff	-0.0860691
19	0xbd5a2efe	-0.05326747
20	0x3d9cf6c5	0.07664255
21	0x3d8bd331	0.06827391
22	0xbcd48643	-0.025942927
23	0xbc9d2417	-0.019182248
24	0x3cf66b92	0.03008059
25	0x3da10f1a	0.078642085
26	0x3cef8120	0.029236376
27	0xbc486b84	-0.012232665
28	0xbd84dec9	-0.064878054
29	0xba951afe	-0.0011375842
30	0xbd16fe3c	-0.03686355
31	0xbd93c2f4	-0.07214919
32	0x3d353ac2	0.04424549
33	0xbc51b0dc	-0.012798514
34	0x3da9b9d3	0.08287396
35	0x3d1bf31c	0.038073644
36	0x3cf977b2	0.030452583
37	0xbce15c41	-0.02750981
38	0xbcb7318d	-0.022362495
39	0x3c56035d	0.013062325
40	0xbd3a94b6	-0.045551978
41	0xbd5f291d	-0.054482568
42	0xbc0e0046	-0.008667057
43	0x3d5a47c5	0.0532911
44	0x3d2ba791	0.04190785
45	0x3d89721b	0.06711217
46	0x3c774905	0.015093093
47	0x3d0b1470	0.033955038
48	0xbcf9f68d	-0.030513072
49	0x3c16d20a	0.009205351
50	0x3c8e06a0	0.017337143
51	0xbca8af7a	-0.020591486
52	0x3d5f460d	0.054510165
53	0x3d8d014b	0.06885012
54	0x3db5bde4	0.088741094
55	0x3ce18b85	0.027532348
56	0xbd2412be	-0.040056936
57	0xbc7478d5	-0.014921387
58	0x3bfe27e8	0.007756222
59	0x3d73186e	0.05934947
60	0xbd43f8fb	-0.04784487
61	0x3d590118	0.05297956
62	0x3d397c3b	0.04528449
63	0xbd5ee9de	-0.054422252
64	0xbc4155b8	-0.011800222
65	0xbd76840c	-0.060184523
66	0xbc63c3a7	-0.013901628
67	0xbd472545	-0.048619527
68	0x3d9f5471	0.07779778
69	0x3c138438	0.009003691
70	0x3d18e1d4	0.03732474
71	0x3d833388	0.06406313
72	0x3d19ab11	0.037516657
73	0x3d551d5f	0.052029964
74	0xbd777151	-0.0604108
75	0x3bff2717	0.0077866423
76	0x3da97058	0.08273381
77	0xbc8d7a1a	-0.017270137
78	0xbd3da1c5	-0.046296854
79	0xbd972588	-0.073802054
80	0x3d26f4da	0.040760852
81	0x3dc4c895	0.096085705
82	0x3c4c0f7d	0.012454865
83	0xbdcd6ae8	-0.100301564
84	0xbc6444fd	-0.013932464
85	0xbd6203bc	-0.055179343
86	0x3dbbac60	0.09163737
87	0xbd7375b4	-0.059438422
88	0xbcd7b257	-0.026330156
89	0x3c211f3b	0.009834106
90	0x3bb83ba2	0.005622343
91	0x3d0ea878	0.034828633
92	0x3da4f1ce	0.08053933
93	0xba0df82e	-0.0005415705
94	0x3d9528c5	0.07283167
95	0xbcd94342	-0.026521329
96	0xbd5150b8	-0.05110237
97	0xbd747537	-0.059682097
98	0xbd61121d	-0.054948915
99	0xbde52cd7	-0.11190193
100	0x3d48340f	0.048877772
101	0xbd8d99b9	-0.06914086
102	0x3b762afc	0.0037562242
103	0xbda107d1	-0.07862819
104	0x3d8122c0	0.06305456
105	0xbc261b85	-0.010138397
106	0xbdaee4bd	-0.08539722
107	0x3db6a138	0.08917469
108	0xbc79fd78	-0.015258186
109	0x3d0341dd	0.032045234
110	0x3d717ff5	0.05895992
111	0xbb9b1960	-0.0047332495
112	0x3d48a583	0.04898597
113	0x3d336b33	0.043803405
114	0x3c9930bf	0.018700002
115	0x3d2a9251	0.041643444
116	0xbc104d1b	-0.008807446
117	0x3d4747d0	0.04865247
118	0xbd88a15e	-0.06671403
119	0xbd0182f1	-0.031619016
120	0x3d39be8e	0.045347743
121	0xbd52c45f	-0.051456805
122	0xbd22a95c	-0.039712295
123	0x3d84b91e	0.06480621
124	0xbce7fd49	-0.028319018
125	0xbba5740d	-0.0050492347
126	0xbc258140	-0.010101616
127	0xbc3c7f28	-0.011504926
128	0xbd92aaf8	-0.07161516
129	0x3d2b8c7f	0.041882034
130	0xbcd0b333	-0.025476074
131	0xbc53b731	-0.012922094
132	0xbd571441	-0.05250955
133	0xbd23d8b5	-0.04000159
134	0x3d920b75	0.071310915
135	0x3d9b2016	0.07574479
136	0xbcc4d912	-0.024029288
137	0xbd15470a	-0.0364447
138	0x3cbd5393	0.02311114
139	0x3cd37561	0.025812807
140	0x3c88f26b	0.016717156
141	0x3d7ded20	0.06199372
142	0x3d30630a	0.0430632
143	0x3dbb632a	0.091497734
144	0xbc84be66	-0.01620407
145	0xb923ec7e	-0.00015632992
146	0xbc87423b	-0.016511073
147	0xbd092743	-0.03348471
148	0x3d05bb99	0.03264961
149	0x3d305713	0.04305179
150	0x3db8c108	0.09021193
151	0xbbb3e868	-0.0054903515
152	0x3c62ba2a	0.01383833
153	0x3c9e01ba	0.019287933
154	0x3d435592	0.047689028
155	0x3c81ad3d	0.015829677
156	0x3a2000e6	0.00061036495
157	0xbd2970b6	-0.041367255
158	0xbd9618b7	-0.07328933
159	0xbd61ea67	-0.055155184
160	0x3d3f3fa0	0.046691537
161	0xbcb3da02	-0.02195454
162	0xbd07b6e2	-0.033133395
163	0x3d455561	0.048177127
164	0xbd858aa5	-0.06520585
165	0x3cac12ef	0.021005122
166	0xba9cb2a3	-0.0011955093
167	0xbcd9edee	-0.026602712
168	0x3d8997bd	0.06718395
169	0x3ce41bf9	0.02784537
170	0xbde08f22	-0.109648004
171	0x3d328213	0.04358108
172	0xbd68b1ca	-0.056810178
173	0x3c6bf5fc	0.014401909
174	0x3c743a89	0.014906534
175	0x3cc2ce38	0.023779973
176	0xbd2a2ddb	-0.041547637
177	0x3b27d9eb	0.0025612067
178	0x3cb4be01	0.022063257
179	0xbc13b4f1	-0.009015308
180	0xbc548f99	-0.0129736895
181	0x3e1f69d3	0.15567712
182	0xbd692a89	-0.05692533
183	0xbd072b7f	-0.033000465
184	0x3c21c4c0	0.009873569
185	0x3c315efd	0.01082587
186	0xbbdb3479	-0.006689605
187	0xbcf1375d	-0.029445345
188	0x3cb4a458	0.022051021
189	0x3d0ff770	0.035148084
190	0x3cab998d	0.020947242
191	0x3b641c8a	0.003480705
192	0x3d789ebc	0.060698256
193	0x3be8c8e8	0.007104028
194	0x3d459b5d	0.04824387
195	0x3d75d6d0	0.060019314
196	0x3d31b7de	0.04338824
197	0x3d72e333	0.059298705
198	0x3da0e2a1	0.07855726
199	0xbd18e574	-0.0373282
200	0x3d410586	0.04712441
201	0xbcabb4f1	-0.020960303
202	0x3d405a8a	0.046961345
203	0x3dbaad08	0.09115034
204	0x3daa63bf	0.08319806
205	0x3d753340	0.05986333
206	0xbce7de86	-0.02830435
207	0xbd7cc80a	-0.06171421
208	0xbcc4453c	-0.023958795
209	0xbdab4484	-0.08362678
210	0x3d0b3796	0.033988558
211	0xbd7e035b	-0.06201492
212	0xbd63bd44	-0.05560042
213	0xbd8c6b98	-0.068564594
214	0xbd8f5293	-0.06998172
215	0xbd63c181	-0.05560446
216	0x3d26ebac	0.040752098
217	0xbddc53bf	-0.10758161
218	0x3cb09a13	0.021557843
219	0xbd894778	-0.06703085
220	0x3c08d24a	0.008350918
221	0xbd8522bc	-0.06500766
222	0xbcd498f2	-0.025951836
223	0x3d799842	0.06093622
224	0xbc9aa387	-0.018876804
225	0xbd816bdd	-0.063194014
226	0x3d3c682a	0.045997776
227	0xbd60a2a1	-0.054842595
228	0x3ccf2d87	0.025290264
229	0x3c2fab20	0.010721952
230	0xbd0e9b3f	-0.034816023
231	0x3c35d8c5	0.011099045
232	0xbdbeb39d	-0.09311602
233	0xbc42189d	-0.011846689
234	0xbb93bc3a	-0.0045085223
235	0xbd1ca341	-0.03824163
236	0xbc67d74e	-0.014150454
237	0xbd8ba6ea	-0.06818946
238	0x3d9e19b1	0.07719744
239	0xbd8343ae	-0.06409393
240	0xbd7026bc	-0.05863069
241	0x3d9240cf	0.071412675
242	0x3dcc5760	0.09977603
243	0xbda2bae8	-0.07945806
244	0x3dd6f289	0.10495479
245	0x3c9fd651	0.019511374
246	0x3d5d223d	0.05398773
247	0x3d9e043a	0.0771565
248	0xbc8d2343	-0.017228728
249	0xbd3ceaa5	-0.046122212
250	0xbb845067	-0.004037905
251	0xbd0feb2c	-0.035136387
252	0x3d0a4115	0.033753473
253	0xbd3db277	-0.046312775
254	0x3c09839f	0.008393197
255	0xbd4a0f83	-0.0493312

conv_pep.0.bias f4 [16]
0	0x3c31ccbc	0.010852035
1	0x3d6c9f3c	0.057769045
2	0x3d5c622a	0.053804554
3	0x3cc0f75c	0.02355545
4	0x3d5b75cf	0.053579148
5	0xbcefcb27	-0.029271675
6	0x3c992c5d	0.018697912
7	0x3ccc9af7	0.024976237
8	0xbc3da44d	-0.011574817
9	0xbd0769ab	-0.033059757
10	0x3ce667c3	0.02812565
11	0xbd0db39e	-0.034595124
12	0x3d16ba52	0.036798783
13	0xbd077620	-0.033071637
14	0xbd9d6f02	-0.07687189
15	0xbd5a11af	-0.05323952

conv_pep.1.weight f4 [16]
0	0x3f7a50b5	0.977794
1	0x3f829fbf	1.0205001
2	0x3f81c76f	1.0138987
3	0x3f836f55	1.0268351
4	0x3f82da68	1.0222902
5	0x3f80f530	1.0074825
6	0x3f742cab	0.9538066
7	0x3f7c32a3	0.98514766
8	0x3f7c6108	0.9858556
9	0x3f76c63f	0.9639625
10	0x3f7e9891	0.9945155
11	0x3f82781b	1.0192903
12	0x3f8185d3	1.0118965
13	0x3f7f88bb	0.9981801
14	0x3f81bd51	1.01359
15	0x3f82e737	1.0226811

conv_pep.1.bias f4 [16]
0	0x3c19960d	0.009374154
1	0x3d2b5bd2	0.041835614
2	0xbb9d28f5	-0.004796142
3	0x3d996c13	0.07491317
4	0xbc6f6661	-0.014611811
5	0x3ac20bfe	0.0014804599
6	0xbd31e4f1	-0.043431226
7	0x3c177489	0.009244093
8	0xbcc01eb8	-0.023452148
9	0xbd4df9fc	-0.05028723
10	0x3c09b244	0.008404318
11	0xbd21e9a4	-0.039529458
12	0xbd878a10	-0.0661813
13	0x3a4e6274	0.0007872947
14	0xbd2b2355	-0.041781742
15	0x3c60cd09	0.013720759

conv_pep.1.running_mean f4 [16]
0	0xbef125ed	-0.47099248
1	0x3edb9a3c	0.4289111
2	0xbe73f5bb	-0.23824207
3	0xbf1138d3	-0.5672733
4	0xbfb94be5	-1.4476286
5	0x3fa42314	1.2823205
6	0xbfd8f38b	-1.6949323
7	0xbeeb520d	-0.45961037
8	0xbf454d20	-0.7707081
9	0xbf048dab	-0.5177867
10	0xbec882b5	-0.39162222
11	0xbf739bd0	-0.95159626
12	0xbe8b4c59	-0.27206686
13	0xbe240993	-0.16019277
14	0xbee8cc59	-0.45468405
15	0xbf753395	-0.9578183

conv_pep.1.running_var f4 [16]
0	0x3e6bd2a2	0.23029569
1	0x3ebd4edb	0.36974224
2	0x3e6da585	0.23207672
3	0x3ee46d38	0.44614577
4	0x3f73ed3b	0.9528386
5	0x3ef93e09	0.48680142
6	0x3f909882	1.1296542
7	0x3e8c4fe5	0.27404705
8	0x3eaf626d	0.3425478
9	0x3e839b82	0.2570458
10	0x3eb2b066	0.34900206
11	0x3eab2397	0.3342559
12	0x3e703bd4	0.23460323
13	0x3e8b0a1b	0.27156147
14	0x3e808305	0.2509996
15	0x3f0dea90	0.5543604

conv_pep.3.weight f4 [64, 16, 3]
0	0xbd106bf1	-0.03525919
1	0x3b803936	0.00391307
2	0xbd39d83b	-0.04537223
3	0x3e1379a5	0.14401872
4	0x3e0c4da7	0.13701497
5	0xbe3de4a2	-0.18544248
6	0xbe12a79a	-0.14321747
7	0xbd7fa7f3	-0.06241603
8	0x3de82062	0.113343015
9	0x3d98e0e8	0.074647725
10	0xbdb7bce3	-0.08971574
11	0xbd6098d5	-0.054833252
12	0x3e22f2d0	0.15912938
13	0xbd5d7866	-0.0540699
14	0xbdb7b13a	-0.0896935
15	0x3d065440	0.03279519
16	0x3c944f0a	0.018104095
17	0x3d4cdaf1	0.050013486
18	0xbda108ab	-0.078629814
19	0x3d126ee0	0.03575027
20	0xbdc0d609	-0.09415824
21	0xbdf2f701	-0.118635185
22	0x3d9cfc8e	0.076653585
23	0xbd58ea04	-0.05295755
24	0x3d092cac	0.033489868
25	0xbdfe5be1	-0.12419868
26	0x3c5f9282	0.01364577
27	0x3de03e6e	0.109494075
28	0x3de99a16	0.11406343
29	0xbceae1c1	-0.028672101
30	0x3da1af23	0.07894733
31	0x3de304b5	0.11084882
32	0xbcee5f65	-0.029098222
33	0xbdff8e07	-0.124782614
34	0xbcfde97a	-0.03099512
35	0x3de6887b	0.112565
36	0xbcfea5be	-0.031084891
37	0x3de38a48	0.111103594
38	0x3e129f13	0.14318494
39	0x3de1220e	0.109928235
40	0x3dde4036	0.10852091
41	0x3d6bec58	0.05759844
42	0xbd6c0b32	-0.057627864
43	0xbda48efc	-0.080350846
44	0x3d54f07e	0.051987164
45	0x3c1420bc	0.009041008
46	0xbe0d1a4a	-0.1377956
47	0xbd2dc8c9	-0.04242781
48	0x3c4a8f5c	0.012363281
49	0xbdf7f497	-0.12107199
50	0x3dd79d2f	0.10528027
51	0x3dc704ca	0.0971771
52	0xbd7e9044	-0.0621493
53	0xbdea9818	-0.11454791
54	0xbe08b73d	-0.1335115
55	0x3dee4cc2	0.11635734
56	0xbdb08e78	-0.08620924
57	0x3dbb10e8	0.09134084
58	0x3be3ba2f	0.006949685
59	0x3d1b26b5	0.03787871
60	0x3de4dd2d	0.111749984
61	0x3d302f96	0.04301413
62	0xbdbfc629	-0.09363968
63	0x3e24a527	0.16078626
64	0x3c81bce1	0.015837135
65	0x3be1302d	0.006872198
66	0xbddd4cfc	-0.10805699
67	0x3d92629c	0.071477145
68	0x3dab4efe	0.08364676
69	0xbd7bfe64	-0.061521903
70	0xbd8a0b61	-0.067404516
71	0x3df845ae	0.12122665
72	0x3d9e9e76	0.07745068
73	0xbd732893	-0.059364866
74	0xbe06e598	-0.1317352
75	0x3dffc026	0.12487821
76	0xbb6f3909	-0.0036502501
77	0x3c044220	0.008072406
78	0xbdf88697	-0.12135046
79	0xbe0d3a54	-0.13791782
80	0x3daeacd1	0.08529056
81	0x3d8239c5	0.06358675
82	0x3db06a3f	0.08614015
83	0xbe0be063	-0.13659815
84	0x3db00d38	0.08596271
85	0x3dfbb3d3	0.12290158
86	0xbe106ef7	-0.1410483
87	0xbd83d87d	-0.06437776
88	0x3c413e0c	0.011794578
89	0x3df0bdd9	0.117549606
90	0x3d4e2d6b	0.050336283
91	0x3dee813c	0.11645743
92	0x3dd31728	0.10307151
93	0xbe051d0d	-0.12999363
94	0xbde6e7d0	-0.112746835
95	0x3e00befd	0.12572856
96	0xbdf0504d	-0.11734066
97	0xbddb4df1	-0.107082255
98	0x3da8cb52	0.08241905
99	0xbcae5a18	-0.021283194
100	0x3d2975e5	0.0413722
101	0x3e1fa950	0.15591931
102	0xbcad075d	-0.021121675
103	0xbd3955d1	-0.045247857
104	0x3db613cb	0.08890494
105	0x3d3bb6de	0.045828693
106	0xbd63fa55	-0.055658657
107	0x3d0fb76e	0.03508704
108	0x3b81210e	0.003940708
109	0xbdaedcf1	-0.08538235
110	0xbd970c76	-0.073754236
111	0x3dbb5831	0.091476806
112	0x3d27c57e	0.040959828
113	0xbe22e248	-0.15906632
114	0xbce2eed2	-0.027701769
115	0xbe2330e0	-0.15936613
116	0x3ddf3098	0.108979404
117	0x3def5e93	0.116879605
118	0x3e04cfa1	0.12969829
119	0xbcda37bf	-0.02663791
120	0xbe0c7028	-0.13714659
121	0x3e007afd	0.12546916
122	0xbe038280	-0.1284275
123	0x3df520dc	0.11969158
124	0xbd601c29	-0.054714356
125	0x3e1ca866	0.15298614
126	0xbd37cdf1	-0.044874135
127	0x3d9b08e3	0.075700544
128	0x3da45132	0.08023299
129	0x3da782b8	0.081792295
130	0xbe2059a0	-0.15659189
131	0xbdc65668	-0.096844494
132	0xbccfd41f	-0.025369702
133	0xbd327a15	-0.043573458
134	0xbe0a188b	-0.13485925
135	0x3d602bf6	0.054729424
136	0x3d8591de	0.065219626
137	0xbbbf9c36	-0.005847479
138	0xbcab8c38	-0.020940885
139	0xbd88b198	-0.06674498
140	0x3df49035	0.11941568
141	0xbcbd6a82	-0.023122076
142	0xbcb991fd	-0.02265262
143	0x3da52744	0.0806413
144	0xbd5ef9ab	-0.05443732
145	0xbd870dc2	-0.06594421
146	0xbdb7c7c8	-0.08973652
147	0x3d85fc4f	0.06542265
148	0xbaec9444	-0.0018049558
149	0xbc975f4a	-0.018478055
150	0x3d1dada2	0.038495667
151	0x3d86b46e	0.06577383
152	0xbbea052d	-0.0071417303
153	0x3d9e3320	0.07724595
154	0x3ca9a423	0.02070815
155	0xbd798a6c	-0.060923025
156	0xbbe55d46	-0.0069996445
157	0x3d21b0f6	0.039475404
158	0xbe00c122	-0.12573674
159	0xbdd5401c	-0.104126185
160	0xbdf6a757	-0.12043636
161	0xbe251720	-0.16122103
162	0xbdee1976	-0.1162595
163	0xbd9bbda4	-0.076045305
164	0x3d8eeccb	0.069787584
165	0x3d407c75	0.04699369
166	0x3deaf50e	0.11472522
167	0x3c17c3ae	0.009262962
168	0xbd80dd57	-0.06292217
169	0xbdb7c2e6	-0.08972721
170	0xbcf01ed1	-0.02931157
171	0x3e0a439c	0.13502353
172	0xbd924943	-0.0714288
173	0x3d8271b7	0.06369346
174	0xbd9c5eaf	-0.07635247
175	0x3dcc27fa	0.099685624
176	0xbdd347fd	-0.10316465
177	0xbc91b30b	-0.01778557
178	0x3d9f5724	0.07780293
179	0x3e1495ee	0.14510319
180	0xbe002e2c	-0.12517613
181	0xbda9b816	-0.08287065
182	0xbe237e7e	-0.15966222
183	0x3d7bfbc3	0.061519396
184	0x3ddb562a	0.10709794
185	0xbe3a5ff0	-0.1820066
186	0x3dc66168	0.096865475
187	0x3d3976e1	0.045279387
188	0xbe37f88c	-0.17965907
189	0x3e0521ba	0.13001147
190	0xbc130cc1	-0.008975209
191	0x3d9ec1bf	0.07751798
192	0x3daca5df	0.08430075
193	0x3c9e80c4	0.01934851
194	0xbdf83cf1	-0.12120999
195	0xbcb269b7	-0.021778924
196	0x3e0fba1d	0.1403584
197	0x3c3b2371	0.011422024
198	0x3d2a80bb	0.041626673
199	0x3d408914	0.047005728
200	0xbdda6ee2	-0.106656805
201	0xbd11fc43	-0.035640966
202	0xbc5f5a97	-0.013632438
203	0xbe1e1db8	-0.15441024
204	0x3d36126a	0.044451155
205	0x3d766271	0.060152475
206	0x3d5ff4cb	0.054676812
207	0xbdd2f7a8	-0.10301143
208	0x3d064a2f	0.03278559
209	0xbd352043	-0.04422022
210	0xbd454a13	-0.048166346
211	0xb9e7b661	-0.00044195636
212	0x3d45ba0e	0.04827314
213	0x3e1290a6	0.14312991
214	0xbd0eab97	-0.03483161
215	0xbda389c6	-0.079852626
216	0xbd897c57	-0.06713169
217	0x3dd5bfcd	0.10436974
218	0x3d46355c	0.04839073
219	0x3b9435e0	0.004523024
220	0x3d205d3f	0.039151426
221	0x3d302a00	0.043008804
222	0xbc7d72c1	-0.015469254
223	0xbd9d0cbd	-0.07668445
224	0x3d4d76d6	0.05016216
225	0x3d268850	0.04065734
226	0x3dd8613f	0.10565423
227	0xbd9da816	-0.076980755
228	0x3d572a89	0.0525308
229	0xbdea6e49	-0.114468165
230	0x3da94bc9	0.08266408
231	0xbd10613b	-0.035248976
232	0x3c9612e3	0.018319553
233	0xbdd30898	-0.103043735
234	0xbe05b52d	-0.13057394
235	0x3d6e8a28	0.058237225
236	0x3d98f66b	0.074688755
237	0x3da1ec17	0.07906359
238	0x3d73e09c	0.059540376
239	0x3c3faa23	0.011698279
240	0xbdd23357	-0.102636985
241	0x3e0e229f	0.13880394
242	0x3b1e5d58	0.0024164524
243	0xbdd967ab	-0.10615476
244	0xbdb0fb6c	-0.08641705
245	0xbdcda1c9	-0.10040624
246	0x3da13cdd	0.07872937
247	0xbd76b13c	-0.060227618
248	0x3d288690	0.041143954
249	0x3de2be54	0.110714585
250	0xbd491b24	-0.04909815
251	0xbda9a6d3	-0.08283772
252	0xbe10e572	-0.14150026
253	0x3d418376	0.04724451
254	0xbd0813c0	-0.03322196
255	0x3dcc6770	0.09980667

conv_pep.3.bias f4 [64]
0	0xbd817fe9	-0.06323225
1	0x3c96efce	0.018424895
2	0xbcce4a2e	-0.025181856
3	0x3d8f8121	0.07007051
4	0xbb832189	-0.0040018004
5	0x3d6f634c	0.058444306
6	0xbde6f8fb	-0.11277958
7	0xbca128e5	-0.01967282
8	0x3e0c53d1	0.13703848
9	0xbc17590e	-0.009237541
10	0x3d9cbb83	0.076529525
11	0xbdbd134b	-0.092321955
12	0x3c04ec2b	0.008112947
13	0x3d1e4f4c	0.038649842
14	0xbc94be4f	-0.018157152
15	0x3b9f11fc	0.004854439
16	0xbd8a774c	-0.06761035
17	0x3dad089c	0.08448908
18	0x3d40ba9a	0.047052957
19	0xbe00f514	-0.1259349
20	0xbe0058c0	-0.12533855
21	0x3e0145df	0.1262431
22	0xbdfc5153	-0.12320199
23	0x3e16b85e	0.14718768
24	0xbc00bc82	-0.007857444
25	0xbd3fe5f6	-0.046850167
26	0xbbd47cf9	-0.0064846245
27	0xbdcebf73	-0.1009511
28	0x3e0aee21	0.13567401
29	0xbc4f3ba4	-0.012648497
30	0x3e119629	0.14217438
31	0x3d3c8807	0.046028163
32	0x3c19e86f	0.009393795
33	0xbdec1545	-0.11527494
34	0x3c4c3400	0.01246357
35	0x3d3aa2f9	0.04556558
36	0x3d88e32d	0.06683955
37	0x3d67e1d9	0.05661187
38	0x3d376786	0.044776462
39	0xbdf251ad	-0.11831985
40	0xbc20aad3	-0.009806353
41	0xbdad13b3	-0.08451023
42	0x3d063f86	0.032775424
43	0xbd14163a	-0.03615401
44	0xbdbf9ed1	-0.09356464
45	0xbdbab504	-0.09116557
46	0x3d992b82	0.074790016
47	0xbd59c137	-0.05316278
48	0xbde89e5e	-0.11358331
49	0xbd945216	-0.07242219
50	0x3d9c7343	0.07639172
51	0x3d80e850	0.0629431
52	0xbdc65855	-0.09684817
53	0xbc1bb17d	-0.009502766
54	0x3d6ae4cf	0.057347115
55	0x3adc748e	0.0016819404
56	0xbd0ba4e2	-0.03409279
57	0x3b2c9b28	0.0026337598
58	0x3d15ba7a	0.03655479
59	0xbe06e79b	-0.13174288
60	0xbb734922	-0.0037122448
61	0xbb241eb4	-0.0025042715
62	0xbdd3294f	-0.10310613
63	0xbd5221f9	-0.05130193

conv_pep.4.weight f4 [64]
0	0x3f803e05	1.0018927
1	0x3f7edd24	0.99556184
2	0x3f794446	0.973698
3	0x3f80ae62	1.0053217
4	0x3f7c72df	0.9861278
5	0x3f7af30c	0.9802711
6	0x3f8040fa	1.0019829
7	0x3f78e8c4	0.9723017
8	0x3f7d67ba	0.989864
9	0x3f80ac1b	1.0052522
10	0x3f8006da	1.0002091
11	0x3f824131	1.0176145
12	0x3f805da5	1.0028578
13	0x3f7e667f	0.99375147
14	0x3f81a4cf	1.012842
15	0x3f7d31cc	0.9890411
16	0x3f7debfd	0.99188215
17	0x3f7f5e52	0.99753296
18	0x3f84d5ed	1.0377785
19	0x3f82fb1f	1.0232886
20	0x3f87f65a	1.0622056
21	0x3f78b091	0.9714442
22	0x3f81163e	1.0084913
23	0x3f8059ff	1.0027465
24	0x3f81fa05	1.0154425
25	0x3f80aefa	1.0053399
26	0x3f7a1af1	0.9769736
27	0x3f7b08f8	0.9806056
28	0x3f838ee1	1.0277978
29	0x3f780055	0.96875507
30	0x3f8626af	1.0480555
31	0x3f7ab74b	0.9793593
32	0x3f7e94e1	0.9944592
33	0x3f7550ba	0.95826304
34	0x3f7ccec1	0.9875298
35	0x3f8931dd	1.0718342
36	0x3f7f8ae2	0.99821293
37	0x3f84da2a	1.0379078
38	0x3f79d1d6	0.9758581
39	0x3f7cb5e3	0.9871504
40	0x3f809ad1	1.0047246
41	0x3f80883b	1.0041574
42	0x3f81760b	1.0114149
43	0x3f7fdf18	0.9994979
44	0x3f86c7d8	1.0529737
45	0x3f797d8b	0.9745719
46	0x3f795dea	0.97408926
47	0x3f7d099d	0.98842794
48	0x3f828197	1.0195798
49	0x3f80bf76	1.0058429
50	0x3f85222d	1.0401055
51	0x3f83bf47	1.0292748
52	0x3f811a24	1.0086102
53	0x3f849341	1.0357438
54	0x3f803da8	1.0018816
55	0x3f7c62ee	0.98588455
56	0x3f7f0b5e	0.9962672
57	0x3f804874	1.0022111
58	0x3f6e5328	0.93095636
59	0x3f7fe1fe	0.9995421
60	0x3f8309eb	1.0237402
61	0x3f826c5e	1.0189321
62	0x3f810e65	1.0082518
63	0x3f7f8968	0.9981904

conv_pep.4.bias f4 [64]
0	0x3a9db9c2	0.001203351
1	0x3a5c0697	0.0008393316
2	0xbbe60feb	-0.0070209405
3	0xbcb9ba00	-0.0226717
4	0xbd5f6b70	-0.05454582
5	0xbc8da286	-0.017289411
6	0xbd336099	-0.043793295
7	0x3c1013ae	0.0087937545
8	0xbd85a10d	-0.065248586
9	0xbcbe85da	-0.023257185
10	0xbb97852c	-0.0046240296
11	0xbc558700	-0.013032675
12	0xbd1f41f7	-0.03888127
13	0xbd6fd251	-0.058550183
14	0x3d2f5b09	0.042811427
15	0xbbf99e3b	-0.0076177395
16	0xb91af012	-0.00014776018
17	0x39ecc5bf	0.0004516076
18	0x3cc77812	0.024349246
19	0xbd59dfbc	-0.053191885
20	0xbb783dbc	-0.0037878593
21	0xbd58273d	-0.052771796
22	0x3b0d82f9	0.0021592958
23	0xbb21f5fd	-0.002471327
24	0x3d622862	0.055214293
25	0xbd016c31	-0.03159732
26	0xbc734a41	-0.0148492465
27	0xbcafbc28	-0.021452025
28	0xbcf9874b	-0.03046002
29	0xbcf2a88c	-0.029621385
30	0xbc244a0f	-0.010027423
31	0xbd4f6fb0	-0.050643623
32	0xbc4f26bb	-0.012643511
33	0xbd4b66d3	-0.049658608
34	0xbbe0d87d	-0.006861745
35	0xbbec686e	-0.0072145974
36	0xbd11dbf3	-0.03561015
37	0x3c84654b	0.016161582
38	0xbd6d4e78	-0.05793616
39	0xbb0f7c81	-0.0021894278
40	0xbd91f702	-0.07127191
41	0xbc28fe77	-0.010314575
42	0x3d59e42d	0.05319612
43	0xbcb791a2	-0.02240831
44	0x3cb84f07	0.02249862
45	0xbcd26800	-0.025684357
46	0x3c0ae688	0.0084778145
47	0xbccb409c	-0.024811082
48	0x3ce667d0	0.028125674
49	0xbb68c364	-0.0035516853
50	0x3c951bdb	0.01820176
51	0x3cd9341d	0.026514107
52	0x3d3b0e30	0.045667827
53	0x3be9e855	0.007138292
54	0xbba8fde5	-0.0051572197
55	0x3cea6245	0.028611312
56	0xbd16f5e2	-0.036855586
57	0x3cdbb228	0.02681835
58	0xbdbca8a0	-0.0921185
59	0xbce05fc3	-0.027389413
60	0xba95b52a	-0.0011421789
61	0x3d3fdfcd	0.046844292
62	0x3a7c0d7d	0.0009615047
63	0x3c9a62f5	0.018846015

conv_pep.4.running_mean f4 [64]
0	0xbd150fa2	-0.03639186
1	0x3de184a7	0.110116296
2	0x3b63096f	0.0034643074
3	0xbd318477	-0.04333922
4	0x3d889fa9	0.06671078
5	0x3b2c7794	0.0026316391
6	0xbe236d75	-0.15959723
7	0xbe97af38	-0.2962587
8	0x3e5eae88	0.21746266
9	0xbde9bc8c	-0.114129156
10	0x3e18404a	0.14868274
11	0xbe6274d2	-0.22114876
12	0xbee96d52	-0.45591217
13	0x3e2eea03	0.17081456
14	0xbe2c5ad3	-0.16831522
15	0x3d906c93	0.07051959
16	0xbe6330cf	-0.22186588
17	0xbdc3ee93	-0.09566989
18	0x3d5c7083	0.053818237
19	0xbe0ee9e3	-0.13956408
20	0xbd2af042	-0.041733034
21	0x3e6016c9	0.21883692
22	0xbba72c85	-0.0051017427
23	0x3eb14a7b	0.34627137
24	0xbd5d742e	-0.054065876
25	0xbe610bf1	-0.21977212
26	0xbca0ca4f	-0.019627718
27	0xbdec0e96	-0.115262195
28	0x3e896f65	0.268428
29	0x3ebae3d9	0.3650196
30	0x3e089fe0	0.13342237
31	0x3e079bc6	0.13243017
32	0x3c464065	0.012100314
33	0x3e49eed8	0.19720018
34	0x3e45c1ea	0.19312254
35	0xbbcfcffb	-0.006341932
36	0x3d513864	0.05107917
37	0x3c5012d9	0.012699806
38	0x3e104584	0.14089018
39	0xbe545f6c	-0.20739526
40	0xbd086f5b	-0.03330932
41	0xbdce606c	-0.10076985
42	0x3e761955	0.24033101
43	0xbe72e5d9	-0.23720492
44	0x3df21586	0.118205115
45	0x3cf784e5	0.030214736
46	0xbe0aff01	-0.13573839
47	0x3d6b95b7	0.057515826
48	0xbe209e9f	-0.15685509
49	0xbe8e8803	-0.27838144
50	0xbd448b48	-0.04798439
51	0xbda0ecff	-0.078577034
52	0xbebd0d55	-0.36924234
53	0xbe82c3fb	-0.25540146
54	0x3d51e50b	0.051243823
55	0xbe7fe2dd	-0.24988885
56	0xbd61d57a	-0.055135228
57	0xbe2e1806	-0.17001352
58	0x3e66e11e	0.22546813
59	0x3de38071	0.11108483
60	0xbc0da89e	-0.0086461585
61	0xbdc11da4	-0.094294816
62	0xbe599dd6	-0.21251616
63	0xbd2e9018	-0.042617887

conv_pep.4.running_var f4 [64]
0	0x3e5ab27e	0.21357152
1	0x3e5a164c	0.21297568
2	0x3e2f447e	0.17115971
3	0x3e1fe11c	0.15613216
4	0x3e0b3772	0.1359537
5	0x3de4fd16	0.11181085
6	0x3e130dd7	0.14360748
7	0x3e710dc0	0.23540401
8	0x3e133f63	0.14379649
9	0x3e79fc5a	0.2441267
10	0x3e164a8e	0.14676878
11	0x3e5f5942	0.21811393
12	0x3ee7d4f3	0.45279655
13	0x3e543ede	0.20727107
14	0x3ded8cb3	0.11599102
15	0x3e240e21	0.16021015
16	0x3dbd508c	0.09243879
17	0x3e675210	0.22589898
18	0x3e5f9b7d	0.21836658
19	0x3e0400c4	0.12890917
20	0x3dd67a35	0.10472528
21	0x3e39af56	0.18133292
22	0x3e12b2cb	0.14326017
23	0x3e4874a5	0.19575746
24	0x3e6fcc09	0.23417677
25	0x3e5d95c0	0.21639156
26	0x3e0d9123	0.13824897
27	0x3e354a6a	0.17704168
28	0x3dd0d740	0.10197306
29	0x3f9d90b0	1.230978
30	0x3e2bde41	0.16784002
31	0x3d8f3d73	0.069941424
32	0x3e007b2d	0.12546988
33	0x3f1bd4cf	0.60871595
34	0x3e85743d	0.26065245
35	0x3e658313	0.22413282
36	0x3e4176d8	0.18892992
37	0x3e4c9143	0.19977288
38	0x3dea3fde	0.11437963
39	0x3e8ec2bc	0.27882946
40	0x3dece2d5	0.11566702
41	0x3e890c98	0.2676742
42	0x3e007f19	0.12548484
43	0x3e6fd79c	0.23422092
44	0x3e190531	0.14943387
45	0x3ea6538b	0.32485613
46	0x3e9ea761	0.30987075
47	0x3e09b46b	0.1344773
48	0x3e81a63a	0.25322133
49	0x3edeec4e	0.4353966
50	0x3e81b2bf	0.25331685
51	0x3ea2fd9f	0.31834123
52	0x3e7f9624	0.24959618
53	0x3f48c263	0.7842161
54	0x3e0fd009	0.14044203
55	0x3dee60cd	0.11639557
56	0x3e200dfc	0.15630335
57	0x3e35b140	0.17743397
58	0x3eaa15d3	0.33219776
59	0x3ec25e9f	0.37962815
60	0x3e1c19c1	0.152442
61	0x3e4eda4e	0.20200464
62	0x3e0add81	0.1356106
63	0x3e196eef	0.14983724

conv_pep.6.weight f4 [64, 64, 3]
0	0xb89d8da5	-7.512727e-05
1	0xbbed161b	-0.007235301
2	0x3cbc9410	0.02301982
3	0xbd834647	-0.06409889
4	0xbc35ef22	-0.011104377
5	0xbdf23ec3	-0.11828377
6	0x3d025ad4	0.0318249
7	0xbdbd0596	-0.09229581
8	0xbb894ab9	-0.004189816
9	0xbcfac8db	-0.030613353
10	0xbcd8e13d	-0.02647459
11	0x3d0220a0	0.031769395
12	0xbd361c37	-0.0444605
13	0xbd7b1740	-0.06130147
14	0xbd5e6d4e	-0.05430346
15	0xba4d2dce	-0.0007826955
16	0xbce48ab8	-0.027898178
17	0x3af18e86	0.0018429316
18	0x3d725753	0.05916531
19	0xbda9f32f	-0.08298337
20	0xbd6254dd	-0.055256713
21	0x3cb0ff49	0.021606104
22	0xbce4118b	-0.027840396
23	0x3da1fee9	0.079099484
24	0x3cfd6a0d	0.030934358
25	0x3cf83ddb	0.030302932
26	0x3dc9ca7d	0.09853075
27	0x3d3da2c6	0.04629781
28	0x3c3ae614	0.011407394
29	0x3cc0c0c7	0.023529423
30	0x3cd9bc00	0.026578903
31	0x3c89d23a	0.016823877
32	0x3c44463c	0.011979636
33	0x3e109cbe	0.14122292
34	0xbbe47f8b	-0.006973212
35	0x3dab13ee	0.08353411
36	0x3d42f46e	0.047596388
37	0x3d6fcfac	0.05854766
38	0x3d21805f	0.039429065
39	0xbc64afc6	-0.013957923
40	0x3bad8a9e	0.0052960655
41	0xbad0cf03	-0.0015930835
42	0x3ce0f85c	0.027462177
43	0x3dae83cd	0.08521233
44	0xbccc256c	-0.024920188
45	0x3ca98967	0.020695401
46	0x3d420d8b	0.047376197
47	0xbd90d495	-0.07071797
48	0x3d3c69cc	0.045999333
49	0x3d89acbf	0.06722402
50	0xbd166d67	-0.036725428
51	0x3cf6a04b	0.03010573
52	0x3d76a086	0.06021168
53	0x3d0217fd	0.03176116
54	0x3c6bc15e	0.014389364
55	0xbd21fe1f	-0.03954899
56	0x3d8f9f56	0.07012813
57	0xbd252667	-0.040319826
58	0xbc94360a	-0.018092174
59	0x3d7006fb	0.058600407
60	0xbd37c07f	-0.044861313
61	0x3bc51d8f	0.0060154865
62	0xbd57331e	-0.052538984
63	0xbcb611ce	-0.022225287
64	0xbd443fe1	-0.047912482
65	0x3d0ec248	0.03485325
66	0x3dc6140f	0.096717946
67	0xbd391fe8	-0.045196444
68	0x3d5cdde1	0.053922538
69	0x3d507d41	0.0509007
70	0x3c856984	0.016285665
71	0xbd32c007	-0.043640163
72	0x3cea8951	0.02862993
73	0x3cc4f0a8	0.024040535
74	0xbb70efed	-0.00367641
75	0xbcb0a2a5	-0.02156193
76	0xbc61f670	-0.013791665
77	0x3ca33bf2	0.019926045
78	0xbd2e3377	-0.04252955
79	0x3cc7a653	0.024371302
80	0x3b9d43a1	0.0047993218
81	0x3d7d6d3d	0.061871756
82	0xbc7b874e	-0.015352083
83	0x3da6f0e9	0.08151419
84	0xbcd4a806	-0.025959026
85	0xbd923e47	-0.07140785
86	0x3d5362a3	0.05160774
87	0xbd1f034f	-0.038821515
88	0xbd81a428	-0.063301384
89	0xbd2d7f0b	-0.042357486
90	0x3d5e2030	0.054229915
91	0xbd8ac8fd	-0.06776617
92	0xbd277709	-0.040885005
93	0xbbec5c31	-0.0072131385
94	0x3d924e64	0.07143858
95	0xbdb4ebc6	-0.08834033
96	0xbd07a52d	-0.03311651
97	0x3ca9bab0	0.020718902
98	0xbd9ace7f	-0.07558917
99	0x3d424b50	0.047435105
100	0xbc9a9c39	-0.01887332
101	0x3aa82990	0.0012829769
102	0x3c1e66fb	0.009668107
103	0x3d3b4fb9	0.045730326
104	0x3c2d9b57	0.010596118
105	0xbd071728	-0.032981068
106	0x3cbf190c	0.023327373
107	0x3dcd632e	0.10028683
108	0xbcd8b8b3	-0.026455259
109	0xbd9b619e	-0.075869784
110	0xbcaf3fe7	-0.021392776
111	0xbd9204b1	-0.07129801
112	0x3c7720b4	0.015083481
113	0xbd9abd6f	-0.07555663
114	0x3d167bc3	0.036739122
115	0x3cdee38c	0.027208112
116	0xbc178b55	-0.009249528
117	0xbd8ec833	-0.06971779
118	0xbc86e420	-0.0164662
119	0x3d009f5c	0.031401977
120	0x3d2e3eef	0.042540487
121	0x3c272ec9	0.010204026
122	0xbb41377c	-0.0029482534
123	0x3cd76962	0.026295368
124	0x3b3a89a9	0.00284634
125	0x3d705a71	0.05868
126	0x3dc69632	0.09696616
127	0xbca37a7c	-0.019955866
128	0x3bccd6a8	0.006251175
129	0xbb32538a	-0.0027210438
130	0x3d193f8a	0.03741411
131	0xbd7b4a32	-0.061350055
132	0xbaeff66b	-0.0018307691
133	0x3d7f7c53	0.062374424
134	0xbdaee99e	-0.08540653
135	0x3c7d84ef	0.015473588
136	0x3d99a50a	0.07502182
137	0xbc9b49be	-0.018956061
138	0xbc95cfef	-0.018287627
139	0xbd04821c	-0.032350644
140	0x3d6645f3	0.056219053
141	0x3ccfafaa	0.025352318
142	0xbd9c7151	-0.07638801
143	0xbcd74a36	-0.026280504
144	0x3d53625b	0.05160747
145	0xbc0a5c58	-0.008444868
146	0xbd005400	-0.03133011
147	0x3d970698	0.073743045
148	0x3b11cd5b	0.0022247646
149	0x3c2bebe9	0.010493257
150	0x3ce2220f	0.027604131
151	0x3c8d0b41	0.01721728
152	0xbbb4a9e8	-0.0055134185
153	0x3db47941	0.0881219
154	0x3da55cd3	0.080743454
155	0xbd1d8612	-0.038457938
156	0x3d0d9f7d	0.034575928
157	0x3d19732b	0.03746335
158	0xbbfc407f	-0.007698118
159	0x3c8acb29	0.016942577
160	0x3d899a0f	0.067188375
161	0x3ddf6d8e	0.10909568
162	0xbd645b88	-0.055751354
163	0xbdae5195	-0.08511654
164	0x3d36325e	0.044481628
165	0xbd0b8d71	-0.034070436
166	0xbd112fe4	-0.035446063
167	0x3d84e83c	0.06489608
168	0xbdd386f2	-0.10328473
169	0x3c939f11	0.018020185
170	0xbd94abbb	-0.072593175
171	0xbd6f6071	-0.058441583
172	0xbca25e7d	-0.019820446
173	0xbc0d16dc	-0.008611407
174	0x3d2f4802	0.04279328
175	0xbd2ecb89	-0.042674575
176	0x3d149297	0.03627261
177	0xbc6ea763	-0.014566275
178	0xbd39884d	-0.045296002
179	0xbd874654	-0.06605211
180	0xbc4abe5d	-0.012374488
181	0x3d4922da	0.049105503
182	0x3cec0d04	0.0288148
183	0xbd5ccda2	-0.053907044
184	0xbd4b919f	-0.049699422
185	0xbbba6a00	-0.0056889057
186	0xbd75602c	-0.05990617
187	0xbd396881	-0.04526568
188	0x3d74d42f	0.059772667
189	0xbcb749bc	-0.022374026
190	0xbdb4e328	-0.08832389
191	0x3d20a836	0.03922292
192	0xbd2d39cd	-0.04229145
193	0x3c8b5f54	0.01701323
194	0xbd5c161d	-0.053732026
195	0xbd30b390	-0.043139994
196	0x3c5d8c23	0.013522181
197	0xbd492a51	-0.04911262
198	0xbca6eb4a	-0.020375866
199	0xbde5ca07	-0.11220174
200	0x3d4aae51	0.049482647
201	0xbd41ab46	-0.04728248
202	0x3dbfaab9	0.09358735
203	0xbc1be75e	-0.009515611
204	0x3c7829ce	0.015146686
205	0x3a0e9ad1	0.00054399396
206	0xbc3ff954	-0.011717159
207	0x3cfd9c23	0.03095824
208	0xbd6529e8	-0.055948168
209	0xbd53a296	-0.051668726
210	0xbc3b4c97	-0.011431835
211	0x3c21c32a	0.009873191
212	0x3d2b8f28	0.04188457
213	0x3d62dba5	0.05538525
214	0x3d5e3f22	0.054259427
215	0xbd8ec695	-0.0697147
216	0x3c134f9d	0.008991149
217	0xbd4588ce	-0.04822617
218	0xbc2e0095	-0.010620256
219	0x3d4b4e73	0.049635362
220	0xbd09bfec	-0.033630297
221	0xbc2e02f9	-0.010620826
222	0x3ce2b50d	0.027674222
223	0xbda7eeb0	-0.08199823
224	0x3c404a13	0.011736411
225	0x3d5cf7aa	0.05394713
226	0x3d1e6514	0.038670614
227	0xbc9e0a74	-0.019292094
228	0x3dd32d64	0.10311392
229	0x3c389ee3	0.01126835
230	0x3dbc5b83	0.09197142
231	0x3d805e07	0.06267934
232	0xbb8d802d	-0.0043182583
233	0xbc80d3ed	-0.015726054
234	0xbd7742bd	-0.06036638
235	0xbd5b2e22	-0.053510793
236	0x3da0a2b2	0.07843532
237	0xbcd14058	-0.025543377
238	0xbd817e9c	-0.06322977
239	0xbd22a906	-0.039711975
240	0xbc0d5c1d	-0.008627919
241	0xbddfead1	-0.109334596
242	0x3c15a9f3	0.009134757
243	0x3d4db532	0.05022163
244	0x3d7fc501	0.062443737
245	0xbdbc1a43	-0.091846965
246	0x3d269681	0.040670875
247	0xbda45db1	-0.08025683
248	0xbd180820	-0.037117124
249	0x3d4f9a03	0.050683986
250	0xbd93450c	-0.07190904
251	0x3adb818c	0.0016746982
252	0xbca5df97	-0.020248218
253	0x3cb1e1c8	0.021714106
254	0xbd01001f	-0.031494256
255	0xbd261510	-0.04054743

conv_pep.6.bias f4 [64]
0	0xbd839923	-0.06425693
1	0xbcb3cdf7	-0.021948798
2	0xbd7ac6c8	-0.06122473
3	0x3d0bc269	0.03412095
4	0xbc09365c	-0.008374777
5	0x3be9a706	0.0071305064
6	0xbd865c9d	-0.06560633
7	0xbd6ad66b	-0.05733339
8	0x3d8a1b0b	0.06743439
9	0x3d151a10	0.03640181
10	0xbc3cce7c	-0.011523839
11	0x3c9279d0	0.01788035
12	0x3c88e8d9	0.016712593
13	0x3ca55aad	0.02018484
14	0xbd03b2ce	-0.032152943
15	0x3d8a5ce9	0.067560025
16	0x3cdd1784	0.026988752
17	0xbd1db7c4	-0.03850533
18	0x3ce7fd8c	0.028319143
19	0xbd89a3db	-0.06720706
20	0x3d368ff7	0.04457089
21	0xbd3a79f3	-0.045526456
22	0x3cf3b747	0.02975048
23	0x3cfb78fc	0.030697338
24	0x3ca3d383	0.019998318
25	0xbd85124b	-0.0649763
26	0x3d0cb049	0.034347806
27	0xbb90abb8	-0.0044150017
28	0xbd420ebe	-0.04737734
29	0xbd70855f	-0.058720943
30	0x3c3a01e7	0.011352993
31	0x3d8c4ba4	0.06850365
32	0xbd70d054	-0.058792427
33	0xbc72ab19	-0.014811301
34	0xbd1b42ea	-0.03790561
35	0x3c43dd53	0.011954623
36	0x3c2048b7	0.009782962
37	0x3ba4ab13	0.0050252764
38	0xbb8dd13d	-0.0043279217
39	0x3d10a4e1	0.03531349
40	0x39a2d0f3	0.00031054727
41	0x3b6dddfc	0.0036295643
42	0xbd67ea1d	-0.056619752
43	0xbb8eaf86	-0.00435442
44	0x3ca0dd39	0.019636737
45	0x3b8afbbf	0.0042414363
46	0x3cfb65ec	0.030688249
47	0x3c94d810	0.018169433
48	0xbd40eb56	-0.047099434
49	0x3d299375	0.04140039
50	0x3d0c2e98	0.034224123
51	0xbd712f10	-0.058882773
52	0xbd73b6cf	-0.05950051
53	0x3d0596ad	0.0326144
54	0x3c82c766	0.015964221
55	0xbce18ad6	-0.027532022
56	0x3d5e91dd	0.054338325
57	0x3d8f3d19	0.06994075
58	0xbd5ef0c8	-0.054428846
59	0xbd78dbd3	-0.060756516
60	0x3d8b9b33	0.06816711
61	0xbd25918a	-0.040422
62	0x3c24b55a	0.010053003
63	0xbd3cbdef	-0.046079572

conv_pep.7.weight f4 [64]
0	0x3f827d45	1.0194479
1	0x3f7d9b19	0.99064785
2	0x3f81feb8	1.0155859
3	0x3f7d73de	0.99004924
4	0x3f75da21	0.96035963
5	0x3f758554	0.9590657
6	0x3f7c63c9	0.9858976
7	0x3f816b72	1.0110915
8	0x3f731edd	0.9496897
9	0x3f82d9f2	1.0222762
10	0x3f750e76	0.9572519
11	0x3f7b2f3e	0.9811896
12	0x3f766130	0.96242046
13	0x3f7b47f8	0.9815669
14	0x3f80c757	1.0060834
15	0x3f7b8316	0.98246896
16	0x3f78b1ec	0.9714649
17	0x3f8067e2	1.0031703
18	0x3f7ebb04	0.99504113
19	0x3f7e3a25	0.9930747
20	0x3f8199e2	1.0125086
21	0x3f8116aa	1.0085042
22	0x3f80c452	1.0059912
23	0x3f803178	1.0015097
24	0x3f7a4b21	0.9777089
25	0x3f7fa041	0.99853903
26	0x3f84214f	1.0322665
27	0x3f7b8468	0.9824891
28	0x3f78296f	0.9693822
29	0x3f80c859	1.0061141
30	0x3f80a239	1.0049506
31	0x3f7ce581	0.98787695
32	0x3f7f7b9f	0.99798006
33	0x3f77908f	0.96704954
34	0x3f805060	1.0024529
35	0x3f8005db	1.0001787
36	0x3f76c7ee	0.9639882
37	0x3f83b439	1.0289375
38	0x3f786399	0.97026974
39	0x3f832847	1.0246667
40	0x3f7fe30f	0.9995584
41	0x3f7fccd9	0.9992195
42	0x3f7da10a	0.9907385
43	0x3f7f1c21	0.99652296
44	0x3f813807	1.0095223
45	0x3f790f6d	0.9728916
46	0x3f7f7654	0.9978993
47	0x3f737033	0.9509308
48	0x3f84c196	1.0371578
49	0x3f803af4	1.0017991
50	0x3f7a7309	0.9783178
51	0x3f763732	0.9617797
52	0x3f812a6d	1.0091072
53	0x3f7bb918	0.98329306
54	0x3f84a283	1.0362095
55	0x3f812bd9	1.0091506
56	0x3f81f568	1.0153017
57	0x3f7c03fe	0.9844359
58	0x3f7fa1a9	0.9985605
59	0x3f79264b	0.97324055
60	0x3f798da2	0.9748174
61	0x3f8036d6	1.0016735
62	0x3f7e06ab	0.99228925
63	0x3f7e6dc7	0.99386257

conv_pep.7.bias f4 [64]
0	0x3c8408d1	0.016117485
1	0xbd8dbc65	-0.06920699
2	0xbd80f92b	-0.06297525
3	0xbd5d1712	-0.05397708
4	0xbd53c744	-0.051703706
5	0x3bd519ce	0.0065033203
6	0xbb873dfe	-0.004127263
7	0xbd7d47a1	-0.06183589
8	0xbcd4716e	-0.025932994
9	0xbd8ec7fe	-0.06971739
10	0xbd10e16b	-0.035371225
11	0x3c82a6c6	0.015948664
12	0xbcc8c9d9	-0.024510311
13	0x3c2957be	0.010335861
14	0xbd9f608e	-0.07782088
15	0x3c374d59	0.011187875
16	0xbc48cf32	-0.01225643
17	0x3c149964	0.009069774
18	0xbd86322c	-0.06552538
19	0xbcf70a2f	-0.030156223
20	0xbd9023a6	-0.070380494
21	0x3cb6fa5e	0.022336181
22	0x3ca1bf1d	0.01974445
23	0x3cda2eaa	0.02663358
24	0xbd2d7574	-0.04234834
25	0x3c664ae2	0.014055939
26	0xbd6ad0b2	-0.057327934
27	0x3b9f454d	0.004860556
28	0x3c94f7d0	0.018184572
29	0x3cb12119	0.021622228
30	0xbd95cbdd	-0.073142745
31	0x3baa21f0	0.005192034
32	0x3c7ead73	0.015544283
33	0xbd004c9e	-0.031323068
34	0x3c7403ec	0.014893513
35	0xbd73688c	-0.059425876
36	0xbd130427	-0.03589263
37	0x3d3e46d1	0.046454255
38	0xbd38672b	-0.045020264
39	0xbd6790b4	-0.056534484
40	0x3b65787f	0.0035014448
41	0xbd554922	-0.052071698
42	0x3cde1a7a	0.027112234
43	0xbcf26e37	-0.02959357
44	0xbd20f6de	-0.03929793
45	0xbcffea97	-0.03123979
46	0xbd4e426d	-0.050356317
47	0xbc9ffb15	-0.019528905
48	0x3d2b97f7	0.04189297
49	0x3cce96f8	0.025218472
50	0xbc5a4eb2	-0.0133244265
51	0xbc6a54f7	-0.014302484
52	0x3cbe3ef8	0.023223385
53	0xbc091d94	-0.008368868
54	0xbd8b212d	-0.06793437
55	0x3c9d53a6	0.019204926
56	0xbd7f87e6	-0.062385462
57	0xbd3779cf	-0.0447939
58	0x3b3fb0f0	0.002924975
59	0x3c8ce1fd	0.017197603
60	0xbbe0c823	-0.0068597957
61	0xbd83ec60	-0.06441569
62	0xbd60937d	-0.054828156
63	0x3cfeb518	0.031092212

conv_pep.7.running_mean f4 [64]
0	0x3dd87706	0.10569577
1	0x3b5fb108	0.0034132618
2	0xbef8a508	-0.4856341
3	0xbef38595	-0.47562853
4	0xbf24cc9b	-0.64374703
5	0xbf0a6664	-0.54062486
6	0xbdf09746	-0.11747603
7	0xbf1db796	-0.61608255
8	0x3e1fd26f	0.15607618
9	0xbe8f8da4	-0.2803775
10	0xbebdcfac	-0.37072504
11	0xbe8deb9a	-0.27718812
12	0xbccbc91e	-0.024876174
13	0xbec7f6f9	-0.39055613
14	0xbe973c73	-0.29538307
15	0x3db9254e	0.090403184
16	0xbe8553b9	-0.26040438
17	0xbe687596	-0.22701105
18	0xbeccf3fe	-0.400299
19	0xbea87679	-0.32902887
20	0xbf1c27cc	-0.60998225
21	0xbe61716a	-0.2201592
22	0x3e533557	0.20625816
23	0x3e614d68	0.22002184
24	0x3e9f9db6	0.3117501
25	0x3ddcfaba	0.1079001
26	0xbe1b5db6	-0.15172467
27	0x3daddcca	0.08489378
28	0x3e2d757e	0.16939351
29	0xbe136899	-0.1439537
30	0xbefe1462	-0.49624926
31	0xbe036158	-0.12830102
32	0xbe975cfd	-0.29563132
33	0xbe7611af	-0.24030183
34	0xbe654259	-0.22388591
35	0xbeb79180	-0.35853195
36	0xbef4ddd6	-0.47825497
37	0xbeaa557f	-0.33268353
38	0xbee55eac	-0.4479879
39	0xbd357c39	-0.04430792
40	0xbf2b1a78	-0.66837263
41	0xbd106091	-0.035248343
42	0x3de63c7d	0.11242006
43	0xbe9ee659	-0.31035116
44	0x3d9da6d1	0.07697833
45	0xbe807732	-0.2509094
46	0xbd4538c1	-0.048149828
47	0x3dacef04	0.08444026
48	0xbed3a9f5	-0.41340604
49	0xbd9ed7a9	-0.07755978
50	0x3e33d7a0	0.17562723
51	0x3e406af8	0.18790805
52	0x3dd22a41	0.102619655
53	0x3eb9b545	0.3627111
54	0xbe92fdcc	-0.28709257
55	0x3de39cd8	0.111139
56	0xbe5fb31e	-0.21845672
57	0xbe0c76cf	-0.13717197
58	0xbef974c0	-0.48721886
59	0x3d622692	0.055212565
60	0xbda65382	-0.081213966
61	0xbf1c5ed9	-0.61082226
62	0xbea0e8c8	-0.31427598
63	0xbd0724af	-0.03299397

conv_pep.7.running_var f4 [64]
0	0x3edfb169	0.4369004
1	0x3e9f1f83	0.3107873
2	0x3ea026fa	0.31279737
3	0x3e80a799	0.25127867
4	0x3ec9fa98	0.39449
5	0x3e966721	0.29375556
6	0x3ef47cfc	0.47751606
7	0x3edf88dd	0.43659106
8	0x3f3a7c38	0.7284579
9	0x3e9b4f64	0.30334008
10	0x3f476a61	0.77896696
11	0x3f1d3e1b	0.6142289
12	0x3f330a8d	0.69937974
13	0x3f1ad762	0.604849
14	0x3e7f938b	0.24958627
15	0x3f4fab5c	0.8112085
16	0x3fa98595	1.3243891
17	0x3f034ae4	0.5128615
18	0x3e5bc5c2	0.21462157
19	0x3e388d85	0.18022735
20	0x3e67cb05	0.2263604
21	0x3e9a85a1	0.30180076
22	0x3ea85977	0.32880756
23	0x3f248c99	0.64277035
24	0x3ed268a6	0.41095465
25	0x3e6ab900	0.22922134
26	0x3e425a71	0.18979813
27	0x3f1f9a28	0.623446
28	0x3ec9363d	0.39299193
29	0x3ebffaed	0.3749613
30	0x3ea70cef	0.32627055
31	0x3efe95b2	0.49723583
32	0x3f0badd0	0.5456209
33	0x3f862ebc	1.0483012
34	0x3efa03d7	0.48831055
35	0x3e98d421	0.29849342
36	0x3e8af64f	0.27141044
37	0x3f0afc84	0.5429156
38	0x3ea8edf3	0.3299404
39	0x3e7c187f	0.2461872
40	0x3f2e9439	0.6819492
41	0x3e34b425	0.17646845
42	0x3e92e284	0.28688443
43	0x3e25f8ba	0.16208163
44	0x3e8890e3	0.2667304
45	0x3ebd1eb9	0.36937502
46	0x3e5c73b7	0.21528517
47	0x3ee02455	0.4377772
48	0x3e54c52f	0.20778345
49	0x3ed1d268	0.4098084
50	0x3f607bea	0.8768908
51	0x3f6f6b3e	0.93523014
52	0x3e94894f	0.29011008
53	0x3ea38aac	0.31941736
54	0x3e17dc36	0.14830098
55	0x3eb1c0e4	0.34717476
56	0x3e893e89	0.26805523
57	0x3e87c9a4	0.26521027
58	0x3f26408a	0.6494223
59	0x3ea2a44b	0.3176597
60	0x3f422707	0.758408
61	0x3e864a7e	0.26228708
62	0x3ea511d7	0.32240173
63	0x3e9cd036	0.30627602
