trained models/DSSO/DeepIntRa_Params_01.pt (torch, 194310 bytes, 27 tensors)

pep_embed.weight f4 [26, 60]
00000000: 1c1f d6bf 4cde dfbe bdb9 d53f c94f 943f
00000010: 8315 5c3e b58c b2be af68 d53f 02c4 97bf
00000020: 3e53 cfbe 4f8e 7c3f 59c4 f2bf 2a6f 343f
00000030: 66c9 7b3e eaf0 b13f 2de4 5c3e 0f01 863f
00000040: 5ce2 d33d 72ef 2740 5c4c a5bf ac56 523f
00000050: afbf 883f 830b 103f 0948 1a3e 18f4 aebf
00000060: c30b 8bbe c348 ba3f ec1d d93f e3bc 8dbe
00000070: b4f6 a1bf 3504 893f e827 85bf 36d2 d5be
00000080: 0790 30bf 55d3 5b3f bc14 a9bf caaa 58bf
00000090: dc23 0dc0 e784 02c0 bdf0 763f 01a2 f63e
000000a0: 26f4 0840 90e8 5c3f dcb6 a9bc a955 e13d
000000b0: 53e1 4ebe d735 10c0 b66a cf3e bb39 543e
000000c0: 4017 e0be 9874 4bbe ffe0 963f d086 863f
000000d0: 3722 81bf 20fc 1340 b0e2 833f dc03 913f
000000e0: 2790 18bf 9c0d 3b3e 8458 d03e 6ab1 94be
000000f0: 19e0 f83f f548 86bf d0c7 903f 555d c93f
00000100: 1a6a 0840 a74d 0fc0 203b 7dbf 6df3 9bbe
00000110: 4572 643e d613 eebe d750 e83d 3733 b53f
00000120: 9b62 1dbf f4fa 86bf 57cb d0be f7e3 fa3e
00000130: 2a75 b5bf acad 1140 454f 3b3f 2807 86be
00000140: 551a 8fbf ba09 e9bf dcd1 2cbe fe0f 0cbe
00000150: f283 3fbf 88d7 05c0 02aa 833f a92f b3be
00000160: baf9 efbf 8771 c43e f7a9 8d3f 09a1 a4be
00000170: 204e 9bbc dbac 10bd 44ab e8bf a8e8 a23f
00000180: f43b 8cbf 1846 98be 19c3 833f 6660 263f
00000190: 2622 a63e 6d29 0f3f b7d3 a2bd 2481 983f
000001a0: 14ac 54bf dad3 c6be a220 413f 5b4e 15bf
000001b0: 8967 a2bf 3c33 473f dc2b abbf 8764 dfbf
000001c0: 0a22 bc3e 03e9 863f f42d 04c0 3cec f6be
000001d0: ff3f 4740 6abe 7dbe d7c5 07bf ba29 ccbf
000001e0: 22e4 063f 6ca4 f8be 7c08 793e aeb8 01bf
000001f0: d31d 09c0 5cba dcbf c577 803e ef5b 813f
00000200: 4788 b0be c75e c13f 0270 a63f bada a0bd
00000210: bd96 20be 8759 b23e d04f c13e 5086 44bf
00000220: 173c 0bbe 2fe9 05bf a602 28bf 9e3d 87bf
00000230: f5e5 c73d 9493 53bf 8cde 083c 37f2 ad3f
00000240: 2cf0 1fbf 50f6 953f af42 c3bd b477 dfbf
00000250: 7c2a cebd 47a1 6f3f 8c86 03bf 9c37 79be
00000260: b3c7 1f3f 4e99 b83e 1354 2f3f 2233 92bf
00000270: 327e cebf be20 ecbf 9681 1ebe 8066 45bf
00000280: 9dc0 7d3f 925f 8d3f 6f8f 44bf 0a59 083e
00000290: 4938 813f 5831 1fbe e103 893e 16ab cd3e
000002a0: 84f3 643e b83a 753e e2bd 493f 11be a33e
000002b0: 7df4 bc3f d70f 4cc0 7d67 a53f 9abb 9e3f
000002c0: 2099 7c3e ec0a 0fbf 5d6d cf3e 039d f6bd
000002d0: 7b54 88bf 3640 99bd 061f 303e 8c0e 2340
000002e0: fb89 10bf c86e 3ebe b2a8 ddbd 2032 413f
000002f0: b9a4 113e 9ca4 d83f 60dd b2be 16eb 993e
00000300: 1c6a 2abe a309 0ebf 6359 923e 224f dc3d
00000310: 178f 2abc fa24 dcbf 5bf4 9f3f 33f6 09c0
00000320: b97d 273f 7b95 5a3e 9f3b 4abf dace 2abe
00000330: 7256 053e 40f6 9dbe 71e6 f13e d4f8 bb3f
00000340: 7d6a d7be f2f2 fa3e aecc 053e 9ce5 e3be
00000350: 801a fc3e baa4 4d3f dd5c 18c0 5d8f 2e3d
00000360: 922d d2be 6fef 77bf ec96 00c0 6f8e 013e
00000370: e539 cf3f e90c 1040 cd90 643f 8e9d 6a3d
00000380: dd0c 45bf ae8c 5c3f 4785 893f 03b5 c33f
00000390: ec29 a43f fbdb c1be 8a49 cabe 38c7 f63e
000003a0: a27f 3fbd 1238 90bf 2b1e aa3d f94d 46bf
000003b0: ae54 20bf 88a8 533f 37a4 733e c2a2 623f
000003c0: ad58 c13f db34 73be 7f64 c6be a125 a23e
000003d0: ac00 fb3e f8b7 553e 40cb 653e d393 9abe
000003e0: 5552 c7bf 2c85 8a3f b415 b4bf 134a 3ebf
000003f0: fd56 dc3d 187c e23f 4c1f f43d 1ea7 9b3e
-1.6728244 -0.43724287 1.6697308 1.1586848 0.21492581 -0.34872976 1.6672572 -1.1856692
-0.40493196 0.98654646 -1.896617 0.7048212 0.24588546 1.3901646 0.21571417 1.0469073
0.10345909 2.6239896 -1.2913928 0.821635 1.0683497 0.56267565 0.15066542 -1.3668242
-0.2715741 1.4553455 1.6962256 -0.27683172 -1.2653413 1.0704409 -1.0402803 -0.4176194
-0.6896977 0.8586934 -1.3209453 -0.84635603 -2.2053137 -2.0393617 0.9646109 0.48170474
2.1399016 0.8629236 -0.020717077 0.110026665 -0.20203142 -2.2532861 0.405111 0.20725147
-0.43767738 -0.19868696 1.1787413 1.0509892 -1.0088567 2.3122635 1.0303555 1.1329303
-0.5959496 0.1826691 0.40692532 -0.29041606 1.9443389 -1.0491015 1.1310978 1.5731608
2.131476 -2.2391145 -0.9891834 -0.30459157 0.22309215 -0.4649951 0.11343544 1.4156255
-0.61478585 -1.0545335 -0.40780136 0.49002048 -1.4176381 2.276225 0.7316783 -0.26177335
-1.1179911 -1.8206093 -0.1687693 -0.13677976 -0.7481071 -2.09128 1.0286257 -0.349973
-1.8748085 0.38367864 1.1067494 -0.3215411 -0.018958151 -0.035321098 -1.8177266 1.2727251
-1.0955796 -0.29740977 1.0293914 0.6499084 0.32447928 0.55922586 -0.07950538 1.191441
-0.8307507 -0.38833505 0.7544042 -0.58322686 -1.2687846 0.7781255 -1.337276 -1.7452554
0.3674472 1.053986 -2.0653048 -0.48227108 3.113281 -0.24779668 -0.53036255 -1.5950234
0.52691853 -0.48562944 0.24319643 -0.50672424 -2.1424453 -1.7244372 0.25091377 1.0106181
-0.3447897 1.5107049 1.3002932 -0.07854219 -0.15682502 0.3483393 0.37756205 -0.76767445
-0.13597141 -0.52308935 -0.6562904 -1.0565679 0.09760658 -0.8264706 0.008353841 1.3589543
-0.6247585 1.1715794 -0.09534203 -1.7458405 -0.10066697 0.93605465 -0.5137718 -0.2433762
0.6241409 0.36054462 0.6848766 -1.1421854 -1.6132262 -1.8447492 -0.1547912 -0.7710953
0.9912203 1.1044791 -0.7678136 0.13315216 1.0095302 -0.15546167 0.26760772 0.4016959
0.22358519 0.2394818 0.78805363 0.31980947 1.4762112 -3.1884668 1.2922207 1.2401001
0.24667788 -0.5587604 0.40513125 -0.12041666 -1.0650781 -0.074829504 0.17199335 2.5477629
-0.5646054 -0.18596947 -0.10823192 0.7546711 0.14222993 1.6925235 -0.3493452 0.3006217
-0.1664204 -0.55483454 0.28583822 0.10757281 -0.010410092 -1.7198784 1.2496446 -2.1556518
0.6542621 0.21346085 -0.78997225 -0.1668047 0.13021258 -0.30851936 0.47246125 1.4685311
-0.42073432 0.49013478 0.1306636 -0.44511116 0.49238968 0.8032948 -2.380668 0.04261719
-0.41050392 -0.9684972 -2.0092115 0.1265199 1.6189543 2.250788 0.8928345 0.057279162
-0.7697275 0.8615216 1.0743798 1.5289615 1.2825294 -0.37863144 -0.3950923 0.48198867
-0.04675258 -1.1267111 0.08306535 -0.77462727 -0.6262921 0.82679033 0.23793112 0.885296
1.5105187 -0.23750632 -0.38748547 0.31669334 0.4902395 0.2087096 0.22440815 -0.30190906
-1.5572001 1.0821891 -1.4069123 -0.7433178 0.10758779 1.769412 0.11920032 0.30400938

mod_embed.weight f4 [4, 4]
00000000: ff98 dcbe bd61 363f 300b d13f 8d4e 823f
00000010: 1d57 bfbf d094 473f 86fd e3bf 99bd c03f
00000020: e8e2 1ebf 8681 d8be f1e8 543f 24a2 20bf
00000030: a1d6 ac3f 16ba 0ac0 3676 963f 497e 54bf
-0.43085477 0.71242887 1.6331539 1.0180222 -1.494846 0.77961445 -1.7811744 1.5057861
-0.6206498 -0.4228632 0.8316794 -0.62747407 1.3503 -2.1676078 1.1754825 -0.83005196

conv_pep.0.weight f4 [16, 64, 3]
00000000: 7ea6 b3bc 7795 193d e524 ec3c 79ba 663a
00000010: 873b f63c 28cd b9bd b78b 23bc bb9b 203b
00000020: 1433 623d 2d14 0d3d b275 693d 59eb 8fbd
00000030: 2434 99bd 1ec2 593c 95b7 09bc 8559 4c3d
00000040: 92da 4cbd 8237 faba 36ce edbc 944e d1bd
00000050: 51de fbbb af8c bfbd 33aa f4bb e392 38bc
00000060: 6b33 e23a 758e 7d3d 66a7 0ebd 72e0 463c
00000070: 3fd7 33bd 07cd 53bd 8192 9fbc 7909 1ebd
00000080: 50eb 37bd 1ba5 a8bd 49c4 3b3c 79e2 dcbd
00000090: db23 323d ee84 cfba 7465 f83c 294e 38bd
000000a0: aaef e03c d340 343d 74d3 68bd 77cf 0b3d
000000b0: fa76 91bd 958b 39bd 32c9 e23c beca 1e3d
000000c0: 5eb9 903d 6bc5 963d d577 40bd 6140 95bd
000000d0: 4854 233d d960 62bc c5a2 d8bc b5b4 073d
000000e0: d281 6abd 987e 65bd 85a0 f2bc 6909 6c3d
000000f0: f023 b43d 931a 9dbb 023e bcbc a534 d43d
00000100: b1c2 81bd 1b7b 99bc 6f60 b0bb d371 0a3c
00000110: dadb be3d c9a6 cabd d8f7 33bc 7418 89bd
00000120: 8bae 7c3d 6c40 e1bb 7d98 0abd 1552 e8bb
00000130: ab6c 403d 3d7f b53b b4b7 213b 79f4 983b
00000140: fb50 15bd c1e4 9e3d 4247 e3bb f6cf 253d
00000150: 7594 403d 18f3 e03c 8a94 e53c e320 ed3c
00000160: a220 253d 4823 993d 2714 3ebc b10d 223c
00000170: 0e3f 67bc b463 4dbd 908d 5c3c 56de 62bd
00000180: c941 40bd 7d63 ecbc 5484 5e3c 4309 473d
00000190: 0ca0 fc3d 2384 6fbd 67a0 c5bd 6fef 3abd
000001a0: f775 803d 629a ea3b 5afa 3a3b 4031 9bbd
000001b0: 7504 03bd 1a26 17bd 35de 063c 0819 463d
000001c0: 998c 6bbd 9f1a 033c 67ae e83c ae4e bcbd
000001d0: 5d82 f63c 29c8 9a3d 5e83 34bd 7878 683c
000001e0: e9a8 27bd 4038 e13c 8857 cbbc 34e8 9dbd
000001f0: 6a15 103d d94f 06bd 8985 503d 78a8 98bc
00000200: a8d7 b33b 832b f2bd e747 9a3d 6c5d 26bd
00000210: eb87 4bbd 43c1 78bc 4ea8 51bd fd6a 0cbb
00000220: 52b2 4abd fe27 a8bc 21db 3abd 7153 14bd
00000230: ee0a be3c 421c 073d 25c5 80bd bd24 2c3d
00000240: 2fed f93c 5dfb 133d b199 56bd 7de3 713d
00000250: c47e 533d 2b37 94bd a1fb 4fbc 5451 033d
00000260: 3c24 1dbd f1d4 dc3d 97c1 953d 8b70 223d
00000270: 11ba 60bd 5a68 39bc a3e9 70bd fb90 1bbd
00000280: 4dba 4abd ad10 423d 4ed1 493d 8ff2 6dbc
00000290: 2800 4fbd 8ff2 373d d43f edba 4c94 bebd
000002a0: 44b0 7bbd 5899 ac3d 0adf e1bb 9b2e 803c
000002b0: 97cd 963a 9c2d a13d 5111 20bd 1a2c 843d
000002c0: dac4 9dbd 7b07 83bc 2790 04bd d28f 013d
000002d0: 2eee 623d 5399 64bd 1c56 943c 2b5d c73d
000002e0: fbad a53c 8f15 ccbd cc4b fd3b f847 bcbd
000002f0: 21f4 8cbc 88fe cd3c 84f7 e0bc 01c7 e5bc
00000300: 75a1 37bd d8e9 b23b aa92 30bd 4904 7fbd
00000310: 7a5a 833c 3aec 623d 2f9b 003d 0a57 1e3d
00000320: b2e9 123d 673d a03a f70f ae3d face 043e
00000330: 15d8 28bb 1144 6b3d 338f 74bd 4654 9dbc
00000340: 94b2 09bc f4fe 6fba 72ed a53d c0ae 513c
00000350: 7da0 74bc f048 3ebd 019b 083d c8fd c63b
00000360: d7c7 1e3c cdf1 853c c126 7bbd f792 1b3d
00000370: 955b 0fbd 9814 f8bc ef85 a5bd 89a4 6fbd
00000380: 0dec 973d abc4 42bd dafb 89bc f73d 08bc
00000390: c400 9e3c 62c5 2ebd 200f a43d 505e 54bc
000003a0: 7d3e 903d f379 de3c db7a 543d c8a8 f3bc
000003b0: 7429 b03c b85a 8a3d aea0 09bd 063e c03c
000003c0: 42c0 20bb 3591 ad3c bb3b 233d 0d7a a6bb
000003d0: 0ab6 a1bc 6e0f 91bc fe50 08bd f083 0c3d
000003e0: 28bd 453d dcf7 233b 109d 583d 7444 c5bc
000003f0: e4ff a3bc d99a aabc 88b7 91bd 5801 06bc
-0.021929976 0.037496056 0.028826186 0.00088015903 0.030057682 -0.090723336 -0.009982041 0.0024506885
0.055224493 0.03444307 0.05699701 -0.07027311 -0.07480648 0.01329091 -0.008405586 0.04989006
-0.050013132 -0.0019090029 -0.029028993 -0.10220066 -0.0076864143 -0.09353005 -0.0074665784 -0.011265489
0.0017257755 0.061903436 -0.034827612 0.012138473 -0.043906447 -0.0517092 -0.019479038 -0.038583253
-0.044902146 -0.08234616 0.011460372 -0.10785384 0.043491226 -0.0015832463 0.030321814 -0.044996414
0.02745803 0.044007134 -0.056842282 0.0341334 -0.07102771 -0.04529913 0.027683828 0.03876757
0.07066606 0.07361873 -0.04698928 -0.0728767 0.0398753 -0.013817036 -0.026444802 0.03313132
-0.057252713 -0.056028932 -0.029617557 0.05762616 0.08795917 -0.0047944277 -0.022978786 0.10361604
-0.063359626 -0.01873546 -0.0053825895 0.008449989 0.09319277 -0.09895093 -0.0109843835 -0.06694117
0.061689895 -0.0068741348 -0.03383683 -0.007089863 0.046978634 0.0055388496 0.0024676146 0.0046678153
-0.036454182 0.07758475 -0.006935985 0.04048153 0.04701658 0.027459666 0.02802493 0.028946346
0.040314324 0.074774325 -0.011601484 0.00989096 -0.0141141545 -0.050143912 0.0134614855 -0.055387817
-0.046937738 -0.028856033 0.013581354 0.048592817 0.12335214 -0.058475625 -0.09649735 -0.045638498
0.062725 0.007159517 0.0028530569 -0.07577753 -0.031986672 -0.03690157 0.008231689 0.048363715
-0.05750713 0.008001952 0.028403474 -0.091946945 0.030091459 0.07557709 -0.044070594 0.014188878
-0.04093257 0.027492642 -0.024822012 -0.07710305 0.035176672 -0.032790992 0.0509086 -0.01863502
0.0054883547 -0.118247055 0.075332455 -0.040616438 -0.04969017 -0.015182796 -0.0511859 -0.0021426075
-0.049486466 -0.020526882 -0.045619134 -0.03621239 0.023198571 0.032985933 -0.06287602 0.042027224
0.030508606 0.03612839 -0.052392665 0.05905484 0.051634565 -0.07237085 -0.01269427 0.032059982
-0.038364634 0.10782803 0.07312315 0.03965811 -0.054864947 -0.011316383 -0.058816563 -0.03798006
-0.049494077 0.047379185 0.049271874 -0.0145231625 -0.05053726 0.044909056 -0.0018100687 -0.09305629
-0.061447397 0.084276855 -0.0068930434 0.015647223 0.0011505362 0.078700274 -0.039079014 0.06453724
-0.07703562 -0.015994778 -0.032364037 0.0316313 0.055402927 -0.055810284 0.018107466 0.09734567
0.020224562 -0.099650495 0.007729983 -0.091934144 -0.017206253 0.025145784 -0.027461775 -0.028048994
-0.04483171 0.0054600053 -0.04310862 -0.062259946 0.016034354 0.055401064 0.031397995 0.038657226
0.0358674 0.001222533 0.08499139 0.1296958 -0.002576356 0.05743796 -0.059706878 -0.019205224
-0.008404393 -0.00091551174 0.0810193 0.012798011 -0.0149308415 -0.046456277 0.03335095 0.0060727336
0.0096912 0.016350651 -0.061316255 0.037981953 -0.03499945 -0.030283257 -0.080821864 -0.058506522
0.0741807 -0.04755084 -0.016843725 -0.008315555 0.019287474 -0.042668708 0.08010697 -0.012961939
0.07043169 0.02715776 0.051874977 -0.029743567 0.021504141 0.067555845 -0.0336005 0.023467075
-0.0024528657 0.021187404 0.039851885 -0.0050804676 -0.019740123 -0.017707553 -0.033280365 0.034305513
0.048276097 0.0025019562 0.05288416 -0.024080493 -0.02001948 -0.02082579 -0.07115084 -0.008179031

conv_pep.0.bias f4 [16]
00000000: 5b90 283d d30a 8ebd c29b 683d 7323 843c
00000010: 18dc 1fbb 80b2 0ebd a307 763d 0f80 24bc
00000020: 091e 6bbd ed7f 833d 5684 723d 2d3d 4a3d
00000030: 3d6f 9cbc 4450 19bd c2bb e0bb 5deb 1d3c
0.041153293 -0.06935658 0.056789167 0.016130185 -0.002439266 -0.0348382 0.060065877 -0.010040297
-0.05740169 0.06420884 0.059208237 0.049374748 -0.019096011 -0.037430063 -0.00685832 0.0096386345

conv_pep.1.weight f4 [16]
00000000: c390 7e3f 3255 803f 5c1e 7f3f c615 793f
00000010: 75fe 7c3f 0851 793f bb99 7f3f bd8c 7d3f
00000020: 1b2d 803f dbfd 7d3f ca6f 843f df7a 823f
00000030: 1fdb 843f a144 813f e5a0 823f c8b6 773f
0.9943964 1.0026 0.996557 0.9729885 0.9882577 0.9738927 0.9984395 0.99042875
1.0013765 0.9921548 1.0346615 1.0193747 1.037937 1.0099069 1.0205351 0.9676328

conv_pep.1.bias f4 [16]
00000000: 43bd 043b bf10 a8bc 619f 0ebc 6713 1ebd
00000010: 101c b13c 682f 5abd 0c68 b4bc aaff 71bc
00000020: 7bc9 fbbc 5463 b9bc a932 123d 5c53 a9bc
00000030: ff6d 5fbc 54da 063d 474d 06bc 08d5 97bc
0.002025441 -0.020515798 -0.008704991 -0.038592722 0.021619827 -0.053267866 -0.02202227 -0.014770428
-0.030735722 -0.022630371 0.035692845 -0.020669632 -0.013637065 0.032923058 -0.008197135 -0.018534198

conv_pep.1.running_mean f4 [16]
00000000: 3c2e d83e 7eda f73e 76d4 823f d7b2 91bf
00000010: 76c2 153f d615 483e 5a91 15bf f008 edbe
00000020: e230 92be ed90 91bf 44a7 433e bf48 d4be
00000030: 4873 67be 155f b0bd 1d77 1bbf aab0 8ebf
0.42222774 0.48408884 1.0221088 -1.1382703 0.5849985 0.1953958 -0.58424914 -0.4629588
-0.2855292 -1.1372353 0.19106776 -0.4146175 -0.2260257 -0.086118855 -0.6072863 -1.1147664

conv_pep.1.running_var f4 [16]
00000000: b0e7 d93e c25e c73e d495 593f 36c1 063f
00000010: cd10 883e e607 763e d451 0f3f b898 093f
00000020: 6020 283e 6a50 493f e7f0 743e 30db 9e3e
00000030: 6d64 903e dba2 9c3e 249f 003f 98b9 9e3e
0.42559576 0.38939482 0.84994245 0.52638566 0.26575318 0.2402645 0.55984235 0.53748655
0.164186 0.7863833 0.23920022 0.31026602 0.2820162 0.30593 0.5024283 0.31000972

conv_pep.3.weight f4 [64, 16, 3]
00000000: fbd2 9d3c 76f2 8c3d aa88 20ba b3ac 01be
00000010: 8a0d 7e3d 3b10 083e a2e1 743d 6d71 173d
00000020: 849a 8dbd 8425 273c 9faa 103e 58c9 cebd
00000030: 388f cfbd c6ef 3ebd c696 103e 491c 1b3d
00000040: bd3f fa3d 7995 aebd ccc3 a9bc 436e c83d
00000050: 757e 9cbd 1943 293d 0188 fdbd c60c f03d
00000060: 8983 d1bd 34d8 6ebd 036e 0abe 4140 4b3d
00000070: 302d 783d 4313 0d3e 59b9 593d 42bb 5dbd
00000080: 049d 6a3d b2ed b0bd 38a1 0abc 8c41 25be
00000090: 2e82 b13d 58df 953c ed77 e3bb 1ca8 e63c
000000a0: 47aa 87bc 9b36 ff3d 377b a5bc 770f d6bd
000000b0: 35e8 343d c38c 2f3d 082d e53c dac4 6abd
000000c0: 8635 9b3d 2a4e f13d d726 0cbe 62c0 423d
000000d0: 7972 13bd bc4e a4bd 2e32 9cbd 22ba 173e
000000e0: 34c1 97bc 142c a0bd d7c0 e43c be8e 44bc
000000f0: 6bb1 11bb fe08 3abd 8f3e 09bc 5cce ad3d
00000100: c330 2ebe 3b9d 3e3d 4444 d53c 67bd 76bc
00000110: cedc aebd 68a4 11bd a3e8 c1bd ce57 313d
00000120: 42f1 353c 5a75 5cbd 276f b23d 5314 dd3d
00000130: 9ae1 953d f1ef 03be 61ed 153e f713 3abb
00000140: 94aa d03d 819c 17be b988 023e 8691 d6bd
00000150: f9d4 4dbd e137 f03d bf22 eabd a7d0 01be
00000160: 738a 89bd 38dd 403d 2c71 29bb 0af0 d03d
00000170: e7d6 de3d 954b f7bd a827 19bc af2d 17be
00000180: c170 a0bc 42d1 313d 22df d83d cf15 823d
00000190: da31 84bd edfc 85bb 52a2 10be 6d74 ec3d
000001a0: f5eb 93bc 43a0 9fbd 1111 bc3d ee60 b5bd
000001b0: f359 083e 6916 253e 808b e3bd f424 e3bd
000001c0: d104 50bc 6320 073e 0559 083e 3a06 043e
000001d0: 207b 15bc af95 d13d 14dc db3d e035 5abd
000001e0: e7a9 72bd 1688 193e d57a 50bd 89ec 833a
000001f0: 9003 933d 1c97 7c3d 8aa0 15bd 4456 393d
00000200: 520d 27bd b2eb d1bc 8e55 063e 1948 e1bd
00000210: 9330 b53d bef6 a6bc 89e4 a43b 4b98 2f3e
00000220: 363d 123e 60e0 aebd f663 5abc 4fae f3bd
00000230: 2d56 033e a79d 1fbc 2c7c ec3d f17c 59bc
00000240: b439 8d3c 2973 cd3d 417d dc3d 0417 c23d
00000250: 05c7 a6bc bbbc 183e f2f3 a03d bb7c babd
00000260: 3db9 4abd 73b3 0cbe 9a69 b2bd 0169 0ebe
00000270: 4793 0abe ff56 acbd ad41 3bbd 8881 763c
00000280: b19f c63d 2a73 19bd c744 103e 2f93 123e
00000290: 4a29 15be bdb3 b1bd 0cd5 00be 64d2 dabd
000002a0: e3fa b83d 6468 f43d 2c0d 0b3e 99cc 423d
000002b0: a2c7 9c3d 7039 983c 5ca6 1d3c 048b 803c
000002c0: 58dc 713d b99a cebd 3c26 033e bffe 913d
000002d0: d36e 00bd 0dc6 063c 9b9e 82bb b75f ce3d
000002e0: 473b 253e ba3b 8ebd 74af c4bd c0e5 2bbd
000002f0: 090a e3bd 9579 abbd a1dc 8c3d 23a6 fdbd
00000300: 3bc5 9b3d 6b28 cb3c 48a3 8f3b 8143 233e
00000310: 8183 d23d d52c a73d 6de3 03be 35cf 99bc
00000320: 92b4 adbc 217b 603d d922 103c 9a44 ecbd
00000330: 4bb0 64bd f664 87bd 89f8 b13c 5c30 f9bc
00000340: c2af a3bc f9f9 243d eae2 2ebe cb6e 04be
00000350: 1cd7 ee3d 6da9 4c3d 9c3b b33d 5e31 00be
00000360: 5c25 e4bd 0f58 193e 4114 c83d b98c 3cbc
00000370: bc69 b53d d2fe 543d bea9 9dbd ac3f 21be
00000380: 6b89 0b3b 3f1e 363d 33d6 fc3c 287d a6bc
00000390: 98cd b9bc 809e cbbc 1c71 c63d 2174 e23d
000003a0: ff2c bf3d fa36 b43d 73ff 11be 847f 52bd
000003b0: 9eb7 313d e864 c53c 7f13 0abe 7219 233e
000003c0: 4250 9bbd 4cad 6e3d eabc 26be 7f94 8cbd
000003d0: fa00 543d fa02 a5bd 5e4f cabd 1b14 e23d
000003e0: 27d3 fabd a4b3 85bc 77d6 163e 6e10 803c
000003f0: 6d16 a9bc 0b7c eabd 80ef 8abc 2624 ef3d
0.019265642 0.06882183 -0.000612388 -0.12663536 0.06202463 0.13287441 0.059785493 0.036973406
-0.06914237 0.0102018155 0.14127587 -0.10096997 -0.10134739 -0.046615385 0.14120016 0.03786877
0.12219188 -0.085246034 -0.020723246 0.09786656 -0.07641307 0.041323755 -0.12379456 0.11721186
-0.102301665 -0.058311656 -0.13518529 0.049621824 0.06058997 0.13776879 0.053155277 -0.05413366
0.057278648 -0.08639087 -0.008461289 -0.16138285 0.08667408 0.018294975 -0.0069417865 0.028156333
-0.016560687 0.12461587 -0.020200355 -0.104521684 0.044166762 0.04285885 0.027975574 -0.05731664
0.07578568 0.11782487 -0.13686691 0.04754675 -0.03599784 -0.0802283 -0.076267585 0.14817098
-0.018524744 -0.07820907 0.027923984 -0.011996923 -0.0022230993 -0.045418732 -0.008376732 0.084866256
-0.17010789 0.046536665 0.026033528 -0.0150598055 -0.08538209 -0.03555718 -0.094682 0.043296628
0.011104884 -0.053822853 0.08712607 0.10794892 0.07318421 -0.12884499 0.14641334 -0.0028393248
0.10188785 -0.14805795 0.12747468 -0.10476975 -0.050251935 0.11729408 -0.114324085 -0.12677251
-0.0671586 0.04708597 -0.002585481 0.10202034 0.10880833 -0.12074963 -0.009347834 -0.1476352
-0.019585015 0.043412454 0.10589434 0.06351816 -0.06454821 -0.004088989 -0.1412442 0.11545644
-0.018056849 -0.07794239 0.09182943 -0.088563785 0.13315563 0.1612183 -0.11110592 -0.110910326
-0.012696461 0.13195948 0.13315208 0.12893 -0.009123594 0.10233628 0.10735336 -0.053274035
-0.059244063 0.14993319 -0.05089839 0.0010065 0.07178414 0.061667547 -0.036530055 0.045248285
-0.040784188 -0.025625084 0.13118574 -0.1100008 0.088471554 -0.020381328 0.0050321263 0.17147939
0.14281163 -0.0853889 -0.013329497 -0.11898481 0.12825842 -0.009742177 0.115471214 -0.013274417
0.017239429 0.10031731 0.10766078 0.09477046 -0.020358572 0.14915745 0.07859029 -0.09105822
-0.049493063 -0.1374033 -0.08711548 -0.13907243 -0.13532744 -0.08415031 -0.04571693 0.015045531
0.096984275 -0.037463345 0.14088736 0.14313959 -0.14566532 -0.086768605 -0.12581271 -0.1068466
0.09032228 0.119339734 0.13579243 0.0475584 0.076552644 0.018582076 0.009622183 0.015691288
0.059048027 -0.10088105 0.12807554 0.07128667 -0.03135569 0.00822593 -0.0039861924 0.1007685
0.16135894 -0.06944986 -0.096037775 -0.041967154 -0.110858984 -0.08372799 0.06878019 -0.12385204
0.07605978 0.024799546 0.0043834783 0.1594372 0.10278989 0.08162848 -0.12879725 -0.018775562
-0.021204267 0.054804925 0.008797371 -0.11536522 -0.05583219 -0.06611054 0.021724956 -0.030418567
-0.019981269 0.040277455 -0.17078748 -0.12932889 0.116621226 0.049966265 0.08751604 -0.12518832
-0.11139938 0.14974998 0.09769488 -0.01150816 0.08858058 0.052000828 -0.076983914 -0.15746945
0.0021291624 0.04446244 0.030863857 -0.020323351 -0.022681043 -0.024855852 0.09689543 0.11057306
0.09334754 0.087995484 -0.14257602 -0.05139114 0.043388 0.024095967 -0.13484 0.15927675
-0.07583667 0.058270738 -0.16283002 -0.06864261 0.051758744 -0.08057208 -0.09878419 0.11038991
-0.12247305 -0.01632101 0.1473025 0.015632834 -0.020640576 -0.114494406 -0.016959906 0.11676817

conv_pep.3.bias f4 [64]
00000000: 9425 063e c69a af3c 2aaf 0f3e d6be 203d
00000010: 4898 18bd 385a ad3d 1436 12be cd90 5f3d
00000020: fbb8 a33d b5ed c2bd 36a2 ca3d 6332 e03d
00000030: 6811 fd3c c168 993d e1b9 c5bd be9e 0abe
00000040: 2cf8 3fbc 59b5 0dbd 5065 fb3c 24ba 99bd
00000050: f638 a33d 577d a23d 5d3c 643c 0e49 cc3c
00000060: ee7e 92bd 7d02 da3d 968c d33d c5d7 c73b
00000070: c2e0 e0bd 451f 80bd ae6f c6bd e3ee ddbd
00000080: f1b3 2fbc d87d 293c 7805 ae3c 86b3 953c
00000090: 679d 94bd dca9 043e 339f 9abd f32d 11bd
000000a0: d87d 0ebe 9761 ec3c 1868 953d f3c6 533d
000000b0: d670 afbd 8ed9 11be c433 a03d f736 09be
000000c0: c458 863d 3ce3 cd3d 8e95 dc3b e034 e0bc
000000d0: 6864 c0bd 5352 893c 9a90 923d d3de d73c
000000e0: f2c7 543d 67e9 883d 42d7 fb3d bdc9 0fbc
000000f0: 0fbc fdbd 8e9d c43d 7784 fa3d 8a1a e2bd
0.13100272 0.021436106 0.14031664 0.039244495 -0.0372546 0.084644735 -0.14278442 0.054581452
0.079942666 -0.09517995 0.098942205 0.109471105 0.030892089 0.07490683 -0.09654594 -0.13537118
-0.011716884 -0.034596775 0.030687958 -0.07506207 0.07969849 0.07934063 0.013930407 0.024937179
-0.07153116 0.10645006 0.10329549 0.00609872 -0.10980369 -0.06255964 -0.0968927 -0.1083658
-0.010724054 0.010344945 0.021242842 0.01827408 -0.072565846 0.12955421 -0.07549896 -0.03544421
-0.13915193 0.028855128 0.07295245 0.051703405 -0.085664436 -0.14243147 0.078223735 -0.13399874
0.065598994 0.10053107 0.0067316955 -0.027368963 -0.09394151 0.016762888 0.07156487 0.026351368
0.051948495 0.06685143 0.122969165 -0.0087761255 -0.12389385 0.09600364 0.12232297 -0.11040218

conv_pep.4.weight f4 [64]
00000000: ca37 7f3f 7b9f 813f b81e 7a3f da3f 753f
00000010: 035d 7b3f 1e03 823f 4278 823f 3214 7a3f
00000020: 2f0b 7c3f c3df 793f 96c2 763f a808 7d3f
00000030: 09ba 813f e5e1 803f 8fdb 773f f553 853f
00000040: b3fe 823f 5a29 7f3f 3cba 833f 40ab 803f
00000050: 2d01 823f 6d44 833f fa06 823f 424f 7e3f
00000060: ddd8 803f 32f0 823f 28ef 803f 7060 7e3f
00000070: 17cb 823f c654 7f3f 870b 823f b8ed 763f
00000080: ba56 813f ce27 7f3f 5bb8 833f c4a1 7f3f
00000090: dfc0 803f 5951 803f a78f 7c3f c51f 7f3f
000000a0: 763c 863f a3ef 7b3f b049 7f3f 01ea 763f
000000b0: 05cc 813f b542 813f 1eb7 783f 2c2c 7e3f
000000c0: f99a 7b3f a04b 803f 72ff 783f 4624 813f
000000d0: 690d 863f b7bd 823f a5d3 823f 5605 813f
000000e0: ef85 7f3f 1dbe 7a3f d7a1 833f 6d0d 873f
000000f0: 43ed 753f d133 823f 577b 823f 41fb 7b3f
0.996945 1.0126795 0.97703123 0.95800555 0.981888 1.0157201 1.019295 0.97687066
0.98454565 0.9760706 0.96390665 0.98841333 1.0134898 1.0068938 0.96819395 1.0416247
1.0233978 0.9967247 1.0291209 1.0052261 1.0156609 1.0255257 1.0158379 0.9933969
1.0066181 1.0229552 1.0072985 0.993659 1.0218228 0.9973873 1.0159768 0.9645648
1.0104592 0.9967011 1.0290636 0.9985621 1.005886 1.0024825 0.98656696 0.9965785
1.0487201 0.9841253 0.99721813 0.9645081 1.0140387 1.0098482 0.97154415 0.9928615
0.98283345 1.0023079 0.9726478 1.0089195 1.0472842 1.0214146 1.0220839 1.0079753
0.9981374 0.9794634 1.0283765 1.0550972 0.9606516 1.0172063 1.019389 0.9843026

conv_pep.4.bias f4 [64]
00000000: e1af 75bc 4b7e 9b3c 1003 a2bc a5ea 28bd
00000010: 1d77 5dbc ef69 14bd 0250 76bc 7c5c dabc
00000020: baa7 62bc b863 08bc 29dd 37bc 2cc6 99bc
00000030: f4c6 2e3c 1586 ea3c 6660 213d 42eb 3e3d
00000040: 22ec b7bb 3d61 9ebc 4a2a f93c 3feb 47bd
00000050: 55d3 b4bb fb8b b43c a9b3 173d b755 44bd
00000060: 5e14 d5bc f080 353d a863 853b 0e76 423d
00000070: 4976 a03c 6d0d b73c aae1 26bd 993f 0fbd
00000080: e0a5 b9bc 7696 c93b 911f 723d e66c c23b
00000090: 321d 43bc 360a e0bc a2ca 60bc 5510 b3bc
000000a0: e2a2 893b bcc0 55bb 3903 16bd 713e d7bc
000000b0: 7ddb d7bc 4f79 13bb b222 0c3b 1b6f 42bd
000000c0: 4f6b 1bbd 2c05 cabc fd4e 08bd 4613 01bc
000000d0: f8ce 4b3d c116 133d 34e9 373d ce90 0f3d
000000e0: 470e 0e3c 3fa6 f4bc db8b 06bd 758e 9e3c
000000f0: 55df 9dbc 3100 2bbc e403 b1bb d226 24bc
-0.014995546 0.01898112 -0.019776851 -0.0412394 -0.013517168 -0.03623384 -0.015033724 -0.026655428
-0.013833934 -0.008324556 -0.011222162 -0.018771254 0.010667551 0.028628388 0.039398573 0.046611078
-0.005612866 -0.019333476 0.030415673 -0.048808333 -0.005518357 0.022039404 0.03703657 -0.047933307
-0.026010688 0.044312418 0.004070718 0.047475867 0.019587653 0.02234527 -0.040742554 -0.03497276
-0.022662103 0.0061519695 0.059112135 0.005933392 -0.011908816 -0.027348619 -0.013720186 -0.021858374
0.0042003253 -0.00326161 -0.036624167 -0.026274892 -0.026349777 -0.0022502725 0.0021382985 -0.04746924
-0.037944134 -0.02466067 -0.033278454 -0.00787813 0.049757928 0.03591037 0.044900134 0.035050206
0.008670396 -0.029864429 -0.03284822 0.019355038 -0.019271532 -0.010437057 -0.005402075 -0.010019021

conv_pep.4.running_mean f4 [64]
00000000: e3f3 623e 8372 a3bd 6018 ec3e c40c 8b3c
00000010: 7253 373c b77b 0abe d544 aabe 10ac d53d
00000020: f83b 123e 45cc ebbd b76e 123e 0722 243e
00000030: ca29 0ebe 808d a9bd 2afd 82be 2738 06bd
00000040: b3ab 04be 753b 8c3e 3892 b2bc 5139 723d
00000050: 4949 28be e574 6bbe fde8 cabc e6a9 e03d
00000060: 9f08 32bd 0dbf b2bd dade ed3d 3bfa 83bc
00000070: 874d abbe 93b9 6bbd a3de 82bd 9482 89be
00000080: d02c 213e de5d f2bc ab51 f8bd 9ea9 71bd
00000090: 40a3 5dbe f61f a63c f77a 81be 7697 76bd
000000a0: 8198 73be c68a 083e 3ccc 0ebe bb8c 1e3e
000000b0: c5ef 00be 6ef4 dcbd b169 28bd 1c5c 94be
000000c0: 1a57 bd3e 6257 853e 5911 373e 5b70 7d3d
000000d0: d2e0 dcbe 98b7 40be ed45 bb3e 10c4 25be
000000e0: 37e8 91bc cf2f 10be a15a 81bd 40da 49bd
000000f0: e2a2 bebe a89c 40bd 05e8 883d 7397 f2bd
0.22163348 -0.07980826 0.46112347 0.01697386 0.0111893285 -0.13523756 -0.3325564 0.10433209
0.14280689 -0.11513571 0.14300047 0.16028605 -0.13883129 -0.08278942 -0.25583774 -0.032768395
-0.12956123 0.27389112 -0.021798238 0.059136692 -0.16434206 -0.2299381 -0.0247693 0.109699056
-0.043465253 -0.08727846 0.11614771 -0.01611053 -0.33457586 -0.057550024 -0.06390121 -0.26857436
0.15739751 -0.029585775 -0.12124952 -0.05899965 -0.21644306 0.020278912 -0.25289127 -0.06020304
-0.23788644 0.13334188 -0.13945097 0.15483372 -0.12591465 -0.10788809 -0.04111642 -0.28976524
0.36980516 0.2604323 0.17877711 0.06187473 -0.43140274 -0.18820035 0.36576787 -0.16188073
-0.017810924 -0.14080738 -0.06316114 -0.049280405 -0.37233645 -0.0470244 0.06684879 -0.11845293

conv_pep.4.running_var f4 [64]
00000000: 3db0 b43d e65a 783e 2741 f33e 0e37 203e
00000010: 9f30 533e 6f8b ac3d eebd 173e 783c 253e
00000020: fb09 473e a9aa ba3d dc8b 153e 8b47 a43d
00000030: 5a78 1f3e 6bda 5c3e f48a e73d 209d af3e
00000040: cc9b 243e 3380 093e 9767 043e 742a 213e
00000050: 5ef8 813e 8b4f d83e 08ae f43d 6f15 fb3d
00000060: e2fe 0e3e fa6a 183e 234e f73d 229d 4a3e
00000070: 57b4 3b3e 64c9 bb3d 828c 153e 53a8 8d3e
00000080: 4861 1e3e 293f 173e afb1 e83d fab6 f03d
00000090: 008e cd3d e69e 513e 95e2 043e 2f46 fd3d
000000a0: 91f6 013e 1b2b 293e 3f32 e33d 1a39 b43e
000000b0: 50f7 f53d 0792 073e b87a 5d3e 099d 393e
000000c0: 5b17 2c3e 9675 233f 3550 0d3e 2ddf b33d
000000d0: cb6a 463e 8571 1f3e 100c 413e 12c0 ca3d
000000e0: 3e05 453e e028 ea3e 2aa0 1c3e 28cc 073e
000000f0: 2040 1f3f f8c5 3e3e 3346 433e c0fe 0e3e
0.08822677 0.24253425 0.47510645 0.15646002 0.20624016 0.08425032 0.14818546 0.16136348
0.19437401 0.09114582 0.14604133 0.08021458 0.15573254 0.21567695 0.113058 0.34299564
0.16075057 0.1342781 0.12930141 0.15738851 0.25384802 0.42248186 0.11947256 0.122599475
0.13964418 0.14884558 0.1207545 0.19786504 0.18330513 0.091692716 0.1460438 0.27667484
0.15466797 0.14770187 0.113620155 0.1175365 0.1003685 0.20470771 0.12977059 0.12366902
0.12691714 0.1652035 0.11093568 0.35199815 0.12010062 0.13239299 0.21628845 0.1812631
0.16805784 0.63851297 0.13800128 0.08782802 0.19376676 0.15570648 0.18852258 0.09899916
0.19240281 0.4573431 0.15295473 0.13261473 0.6220722 0.18630207 0.19069748 0.13964367

conv_pep.6.weight f4 [64, 64, 3]
00000000: fed2 d63c aa08 143d 56b4 57bd 9788 b63c
00000010: 0cda 99bd 0c16 2d3c 571c 0dbd 71a7 0ebd
00000020: aab2 ddbc 0727 d33c 1870 8abd c8ff 923d
00000030: 1cc1 f3bc 922d 14bd 22fc acbd 15ee 19bc
00000040: f939 55bb 07b1 963a fdcb 2a3d 16ba 81bd
00000050: ccf7 eabc 46af a4bc 5de4 a43c a134 92bd
00000060: c588 143d 7530 94bd a356 1fbd f0f1 233d
00000070: 3e4f 2eba 2887 753d 6dfd babc 6f56 24bc
00000080: 6e2c 77bd 3241 2fbd 2be0 2b3c 3da0 633d
00000090: 494a 50bd 10b8 b4bd 84c1 85bd 05b6 54bd
000000a0: d788 403d 12b9 1bbc 7e87 173c 3571 583d
000000b0: afef a33c 6976 50bd f338 9d3d 2f41 183d
000000c0: 126d 04bd f4d9 bd3c efce ec3c 9fa6 b93d
000000d0: abc2 11bc 3fe5 debd fb54 a4bd 066d c8bc
000000e0: 26ca 79bd 5991 033d baf5 9fbd 5f39 08be
000000f0: 0202 acbd a69f 9cbc 5e64 af3c b9ce 823d
00000100: 1425 7ebd 6d46 0bbd fb7b 6dbb 579c 8cbd
00000110: f5a0 0cbc 94fc 613d 3398 283c 26da c6bb
00000120: 8ce1 3c3d f42e 35bc 0d04 9a3b 6c24 153d
00000130: 6c1b 51bc f85e ca3d 5c54 56bd 927c 3abd
00000140: c064 973d 9eb9 dd3c 0923 2fbd b050 873d
00000150: ec36 7c3d e31f 61bd 2dd4 d6bd c3f4 2ebd
00000160: c9f1 76bd 370e 67bd 5acc 343d 53b7 8bbd
00000170: c55e db3d 6574 82bd 9b15 9dbd 0bdc ca3c
00000180: 66c5 193d 83d7 86bd 08fa 633d 7c0c cd3d
00000190: aff3 143d 01c2 a13d c924 623c 38d2 1c3d
000001a0: 00bf e3bd a1e7 4a3b 73ad ec3c 3823 48bd
000001b0: 63c7 833d d787 193d 309c 9d3c 640b 103d
000001c0: 6898 63bd 7214 883d f16b c6bc eba0 1d3d
000001d0: 8548 b3bc 7449 eabc 7781 fe3c 003a 873b
000001e0: 7f40 623d d06f b73b 3f12 903d b232 793d
000001f0: f208 98bd 1f65 4c3d ef36 8b3d 5d0d 23bd
00000200: df10 c1bd c82d 57bd 5ebf a93d 1d1f 1c3d
00000210: 2e3f b7bd b6db 1cbd 87e4 29bc c71a 4d3d
00000220: d2fa fd3b 3a4e 823c 15bc 203d 5fdb 8d3d
00000230: de87 013d 224c 12bd 7974 443d e931 b63b
00000240: cf42 64bc 5161 8f3d 8ef3 7bbd 7035 803d
00000250: 9cc8 47bc 9399 7f3b b02e 9dbd 79e5 b5bd
00000260: fd19 0a3d 35ed f9bc d33a 7dbd b6d5 37bd
00000270: 7183 01bd b4c2 a93c f4ac 083d 5f30 783d
00000280: ed05 53bc 0bad afbc e31a 803d ec08 e33c
00000290: 6ee4 51bc c1e9 16bd e885 373d e72e 803d
000002a0: 5c18 e23c b469 8ebb b7d9 73bb 5f30 7cbd
000002b0: 4f7d 0c3d d02a 333b 2991 e5bb 099f 0c3c
000002c0: 4ec7 0f3d 599a 183d 3c40 923d 4db7 8a3d
000002d0: 766c 60bd 73e1 febc 650c 5abd 6db7 b93b
000002e0: 1b72 1dba a3d2 5cbc 485c 723d 5dc1 47bd
000002f0: bf2f 1abd 0372 363a f649 1a3d c39c 0d3d
00000300: e20b b2bb fb06 64bd 7a47 40bc d2a0 9f3c
00000310: 87fd 30bd 1ea1 bd3c 0a89 d53d d1e3 7cbc
00000320: 17b8 96bd a372 b03d 13e2 ea3c e663 06bd
00000330: f71a b93d 8583 68bd dc55 4a3d 7045 bcbc
00000340: b29e c93c 2d4e 623c b87f c93c f21e 3a3d
00000350: 62bf 3ebc 8012 bdbd 9525 d83c 9499 6ebd
00000360: 7280 acbc 2d6e 2c3d eaf0 803d 2b46 c13c
00000370: db0c cdbb 5ce6 853d 7c84 983c 66b0 023d
00000380: 777a 513d 1e51 da3c 7896 8b3d 6d10 b93d
00000390: 1ca0 88bd a74b e73c 20d2 73bd 23d0 183d
000003a0: 235d 91bd ec28 48bd a0ba f4b9 0017 6e3c
000003b0: 506f 663d 616b c23c 40c0 c1bd d052 d53c
000003c0: f78c a7bd 4a7a 07bd d0f1 d2bc 71f4 a5bc
000003d0: 7421 41bd ea39 fa3b 0a49 5d3d 2bb4 6e3d
000003e0: ce0c b13d 2350 543d 87ee d43c 1d53 71bc
000003f0: d32c 71bd 10a1 7e3d 4a89 42b9 76f4 8ebd
0.026223656 0.036141075 -0.052662216 0.022281928 -0.07512292 0.010564338 -0.034450855 -0.034827653
-0.027062733 0.025775446 -0.067596614 0.07177693 -0.029755168 -0.03617627 -0.08446528 -0.009395142
-0.0032535775 0.001149685 0.041698445 -0.06334321 -0.028682612 -0.020103108 0.020128423 -0.071389444
0.036263246 -0.07235805 -0.038900983 0.04002565 -0.0006649381 0.05994335 -0.022825921 -0.010030373
-0.060345106 -0.042786784 0.0104904575 0.055572737 -0.050852094 -0.0882417 -0.06531051 -0.0519314
0.0470055 -0.009504573 0.009248612 0.052842338 0.020011751 -0.050894175 0.07676878 0.03717154
-0.03233058 0.023175217 0.028907267 0.090649836 -0.00889651 -0.10883569 -0.08024021 -0.024466049
-0.0609838 0.032121036 -0.078105405 -0.13303135 -0.083988205 -0.019119095 0.021410163 0.063870855
-0.06204708 -0.03400271 -0.0036237228 -0.06865757 -0.008583297 0.055172518 0.010290193 -0.006068486
0.046113536 -0.011058558 0.00470019 0.036411688 -0.012762886 0.09881395 -0.052326545 -0.045528956
0.073922634 0.027066048 -0.04275802 0.06607187 0.061575815 -0.05496205 -0.10489688 -0.04271389
-0.060289178 -0.05641004 0.044140197 -0.06822076 0.10711435 -0.06369857 -0.076701365 0.024763128
0.03754177 -0.06584074 0.05565837 0.10012147 0.036365207 0.078983314 0.013802716 0.038286418
-0.11120415 0.0030960815 0.0288913 -0.048861712 0.064345144 0.037483063 0.019239515 0.035167113
-0.055565268 0.06644525 -0.024221392 0.03848354 -0.021885166 -0.028599478 0.031067593 0.004126787
0.05523729 0.005598046 0.0703473 0.060839362 -0.07423581 0.049901124 0.06797587 -0.039807666
-0.09427046 -0.052533895 0.082884535 0.03811561 -0.089475974 -0.03829547 -0.010369427 0.050074365
0.0077508474 0.015906442 0.03924187 0.06926607 0.031623714 -0.035717137 0.04796264 0.005560149
-0.013931944 0.070009835 -0.06151157 0.062601924 -0.012193825 0.003900145 -0.076749206 -0.08881659
0.03371619 -0.030508617 -0.061823677 -0.044881545 -0.031619493 0.020722724 0.033368066 0.060593005
-0.012879831 -0.021444818 0.06255128 0.027714215 -0.01281081 -0.03684402 0.044805437 0.06258946
0.027599506 -0.004346097 -0.0037208626 -0.061569568 0.03429919 0.002733875 -0.00700583 0.008582839
0.03510218 0.037256572 0.07141158 0.06773243 -0.054790936 -0.031113362 -0.053234477 0.005667618
-0.0006006078 -0.013477954 0.059170038 -0.04876839 -0.03764319 0.0006959738 0.03766819 0.034573328
-0.0054335454 -0.05567072 -0.011735791 0.019485865 -0.043210533 0.023148116 0.10426529 -0.015435175
-0.07359331 0.08615615 0.028672254 -0.032810114 0.09038346 -0.05676605 0.049398288 -0.02298233
0.024611805 0.013812584 0.024597034 0.045439668 -0.011642309 -0.09232044 0.026385108 -0.058251932
-0.021057341 0.04209726 0.06295951 0.023593029 -0.006257636 0.06538078 0.018617861 0.031906508
0.051142182 0.026650008 0.06815809 0.09036336 -0.066711634 0.028234316 -0.059526563 0.03730787
-0.070978425 -0.04886715 -0.00046678353 0.014531851 0.0562585 0.023732843 -0.09460497 0.026040465
-0.08181184 -0.03307561 -0.02575007 -0.02025816 -0.047151044 0.0076362984 0.054024734 0.05827729
0.086450204 0.051834237 0.025992645 -0.014729288 -0.05888064 0.06216532 -0.00018552426 -0.06980221

conv_pep.6.bias f4 [64]
00000000: d97f 3f3d b25c f0bb 5b9c 5fbb 36ab 713d
00000010: 4a60 0e3d 1469 7d3c 1034 f8bc 0f61 213d
00000020: 9e10 f23a d4c5 2f3c 58e7 353d 4809 9d3c
00000030: 0da1 a3bc e344 17bd efb0 64bd 7fe9 233d
00000040: 8f6f 4dbb 61f8 8dbc 9453 43bd f981 babb
00000050: d392 293d c9b0 273d f376 9abc 649e 33bd
00000060: b23c 6d3d 7541 49bc c5b0 813d 307f 33bd
00000070: cf90 6fbd 4a01 053d 86a9 20bd 362e 293d
00000080: 65a0 0bbd 8b49 e93b f101 a93c de17 7abd
00000090: 12d4 d4bc 6f22 b7ba 8eb7 8f3d 4dc4 843d
000000a0: f6ca 84bd c71a 793d d982 0ebc 89fe aabc
000000b0: b3b8 7fbc 7826 a4bc 73b1 79bd d92b ac3b
000000c0: 2ed8 803d b225 6dbd eddd 22bd 35ab 6e3d
000000d0: 555a 70b9 e6cb 5f3d d132 1a3c 7bca c8bc
000000e0: 3445 13bc 8591 17bc 5496 25bd 9da7 dcbc
000000f0: ce20 3a3d ae1b 603d 80fc 5e3d e047 193d
0.046752784 -0.007335269 -0.0034120295 0.05900117 0.034759797 0.015466947 -0.030298263 0.039399203
0.0018468087 0.010728318 0.04441008 0.019169465 -0.019974256 -0.03693093 -0.0558328 0.0400176
-0.0031347012 -0.01733035 -0.04768713 -0.0056917635 0.041399788 0.04094008 -0.018855548 -0.043852225
0.05791921 -0.012283673 0.06332544 -0.043822467 -0.05848771 0.032471932 -0.03922417 0.041303836
-0.03408851 0.0071193627 0.020630809 -0.061057918 -0.02598003 -0.0013972054 0.07017432 0.06482754
-0.06484024 0.060816552 -0.008698189 -0.020873325 -0.015608001 -0.020037875 -0.060960244 0.0052542505
0.06291233 -0.057897277 -0.039762426 0.058268744 -0.00022921835 0.054637812 0.00941153 -0.024510613
-0.008988667 -0.009251003 -0.040426567 -0.026935393 0.04544144 0.054713897 0.05444002 0.03742206

conv_pep.7.weight f4 [64]
00000000: 397b 783f 17c3 7e3f eb7a 813f 8f7e 7a3f
00000010: 2a00 763f 300b 833f e65d 773f fb4b 783f
00000020: 71c3 7f3f f29d 7a3f 5032 813f 44b4 723f
00000030: bdd2 7d3f d012 783f 2bc7 753f a015 7f3f
00000040: 5a29 783f 1580 7b3f 62cd 813f 0fc3 803f
00000050: 31b0 7b3f b62e 833f fbb4 7c3f 589f 7b3f
00000060: 1600 813f 6c37 813f 94bd 753f 9f82 813f
00000070: 69a6 803f 911e 7e3f 6dc1 7d3f 424f 783f
00000080: acd9 7e3f 0872 7d3f 91ba 823f 1357 803f
00000090: 88b0 7c3f fd8e 7e3f 07eb 7f3f 96e7 7b3f
000000a0: 973a 7c3f 7aa6 7b3f ae8f 783f 9170 793f
000000b0: 8854 7f3f a908 7e3f 397c 7d3f 8fe7 753f
000000c0: df49 7a3f ef7f 783f 7eab 7f3f cabe 793f
000000d0: 769a 7c3f 3cf3 7c3f 2974 7c3f 1286 7b3f
000000e0: c562 7e3f 1d33 813f 1e69 763f fbb6 7f3f
000000f0: 026e 813f 1b0a 7f3f 762a 753f f7d8 7a3f
0.9706302 0.99516433 1.0115637 0.97849363 0.96094 1.0237789 0.9662765 0.96990937
0.99907595 0.97897255 1.0093479 0.94806314 0.99149686 0.96903706 0.9600703 0.9964237
0.969381 0.9824231 1.0140803 1.0059527 0.9831572 1.024863 0.98713654 0.98290014
1.0078151 1.0095038 0.959924 1.0117987 1.0050784 0.9926539 0.9912327 0.9699594
0.9955089 0.9900212 1.0213186 1.0026573 0.98706865 0.9943693 0.99968 0.9840025
0.985269 0.983009 0.9709424 0.9743739 0.9973836 0.99231964 0.99017674 0.96056455
0.9776897 0.9707021 0.9987105 0.97556746 0.9867319 0.98808646 0.98614746 0.9825145
0.9936946 1.0093724 0.96254146 0.9988858 1.0111697 0.99624795 0.95767915 0.9798731

conv_pep.7.bias f4 [64]
00000000: 581d d5bb 7765 eabb 7746 fa3c 9b20 6ebd
00000010: ef11 67bd 6744 a4bd e542 0ebc 8c2e 9abd
00000020: f50f 8c3c 2da9 f8bc 8628 c93c be06 2fbd
00000030: d093 f83b f41e 7ebd cc83 423c 4e5c bb3c
00000040: 903e f8bc f373 1bbd b06a 80bd c529 973c
00000050: cdba 86bc 5f3e 8fbd 41cd 61bd 0d7e 95bd
00000060: 0848 743c 2cff be3c 25a3 37bd 31e2 87bd
00000070: ea78 92bd d09d b33c 1d7f 2bbd ad6f b7bb
00000080: 741d 88bd 0e91 943c 3db7 49bd a29d a1bd
00000090: b32a 83bd 3f99 14bd fafd 18bd 3112 22bd
000000a0: 05c8 743c 039c 3cbc f7b4 93bd 97b9 31bd
000000b0: 090e 61bd 23df c1bc afb2 693c 1cf0 03bd
000000c0: c806 60bc 890a ebbc 5e59 033d cec7 0a3d
000000d0: 8a5a 393c 3a56 32bc 37bc a8bd 127b 6eba
000000e0: f577 f93b fce3 ad3c 9b8c f8bb 2aae 75bd
000000f0: df47 c53c 22a7 413c 322f fabc 7fed 62bd
-0.006503742 -0.007153209 0.030551178 -0.058136564 -0.056413587 -0.08020859 -0.008682941 -0.07528409
0.017097453 -0.030354107 0.024555456 -0.04273104 0.00758598 -0.062041238 0.011872243 0.022871163
-0.03030327 -0.037952375 -0.06270349 0.018452534 -0.016446495 -0.06994318 -0.055127386 -0.07299433
0.014909752 0.023315035 -0.04483332 -0.066349395 -0.07151969 0.021925837 -0.04186927 -0.0055980296
-0.06646243 0.018135574 -0.049247015 -0.07891394 -0.064046286 -0.03627896 -0.037351586 -0.03956813
0.0149402665 -0.0115118055 -0.07212251 -0.043389883 -0.054945026 -0.02366597 0.014263793 -0.032211408
-0.013673492 -0.028691547 0.03206765 0.033881955 0.01131309 -0.010884816 -0.08239024 -0.00090973184
0.007613177 0.021226875 -0.007585121 -0.05998055 0.024082122 0.011819633 -0.030540083 -0.055402275

conv_pep.7.running_mean f4 [64]
00000000: 31ac abbd d098 8e3d c2e6 9d3c 00d1 25bf
00000010: f69c 0d3e 9214 a8be 5ad3 5eba 02ee 88bc
00000020: ebd7 d4be a266 5abd fdf8 413e 13af 52bd
00000030: cc78 b9bd 6ca5 abbe 2917 93bd dbe0 e9bd
00000040: 0adc 5d3d 83b0 df3d fb3c 91be 6a09 97bd
00000050: 8bea 98bd 5467 05bf bdcc aabd b8a6 24bf
00000060: 891d 7f3c 18a9 c7bb 9203 95be c124 b3be
00000070: dcb8 00bf d3c7 5a3e 1003 47bf 190d 83be
00000080: 1169 50bf f4d5 d03c 3ca3 04be a0d0 2dbf
00000090: 68aa 21bf 113d 113d 67dc a6be 2eb0 95be
000000a0: c8fd bebe 39ae b9be a6fe 9cbe f2b5 b93d
000000b0: 7736 abbe a5b0 efbe 5e32 8cbe 584d 66be
000000c0: 8dbd 0a3d d830 9e3e 01f0 b2bd adfb a0be
000000d0: ebb3 26be 034b 77be 0039 06bf 259a a6be
000000e0: a4f3 bfbe 2fb9 8fbd 5df5 24be 7c4a f9be
000000f0: 5871 e3bd 1c3c a73d e34e 89be 4ca5 96be
-0.08382452 0.069627404 0.019275073 -0.64772034 0.13829407 -0.32828194 -0.0008500122 -0.016715053
-0.41570982 -0.053320535 0.18942638 -0.051436495 -0.09056243 -0.33524644 -0.07182152 -0.11419841
0.054164924 0.10922339 -0.28366837 -0.073748425 -0.074666105 -0.5211079 -0.08339832 -0.6431689
0.015571007 -0.0060931556 -0.29104286 -0.34988979 -0.50282073 0.2136529 -0.7773905 -0.2559593
-0.8141032 0.025492646 -0.12952894 -0.6789646 -0.63150644 0.035458628 -0.3259003 -0.29235977
-0.37302995 -0.36265734 -0.3066303 0.090679064 -0.3343999 -0.46814457 -0.27382177 -0.22490442
0.033872176 0.3089664 -0.08737183 -0.31442013 -0.16279571 -0.24149708 -0.52430725 -0.32539478
-0.3749057 -0.07017743 -0.16109224 -0.4868964 -0.11105603 0.08165762 -0.26817998 -0.29422987

conv_pep.7.running_var f4 [64]
00000000: 109e 9c3e 41a5 673e 233d d53e 34e1 863e
00000010: 784f d53e 4e31 a33e c0c2 833f c7a1 593e
00000020: 3d7c c03e 931b d43e a383 853e 2f42 283f
00000030: 6246 1b3f 1cbd 8f3e ac58 133f 802f c03e
00000040: a841 573f 06aa 403e f2f2 883e d215 0e3f
00000050: 5727 333f 4554 343e 6501 543e 05e4 ab3e
00000060: 9e1d f03e 5d68 933e de7a 543e 28c3 a13e
00000070: 77bb bb3e 6d66 873e 9029 6c3e 265e c83e
00000080: 2955 783e 4030 883e bf91 5d3e c4ca 6b3e
00000090: 1a32 9e3e 40a4 ae3e 44fc 713e 4129 7c3e
000000a0: 9e67 1d3f bc51 9f3e c720 b93e 1c9d f43e
000000b0: adb5 b43e eeab a33e bd71 d53e 749e 0b3f
000000c0: 05c5 253f 227e f03e a417 d13e f6ff 8a3f
000000d0: 0f53 1a3f 520a c43e 4520 bf3e 3756 3f3f
000000e0: 7453 363e f6cd 3e3f b67a d43e 02ed 963e
000000f0: 6f62 833e 7b26 ef3e aad5 af3f bc2a 8e3e
0.30589342 0.22621633 0.41648206 0.2634369 0.41662192 0.31873554 1.0293808 0.2125312
0.37594786 0.41427287 0.26076993 0.6572599 0.6065427 0.28073967 0.5755718 0.3753624
0.8408456 0.18814859 0.26747853 0.55502045 0.699819 0.17610271 0.20703657 0.33572403
0.46897596 0.2879056 0.20749995 0.31594205 0.36666462 0.26445332 0.2306273 0.3913433
0.24251236 0.26599312 0.21637629 0.23026568 0.308976 0.34109688 0.23631388 0.24625112
0.6148623 0.31117046 0.3615782 0.47776115 0.35294858 0.3196711 0.41688338 0.54538655
0.6475375 0.46971232 0.4083835 1.0859363 0.6028299 0.38289124 0.37329307 0.7474093
0.17805272 0.7453302 0.4149987 0.29477698 0.25661036 0.46709046 1.373708 0.2776698

attention.in_proj_weight f4 [192, 64]
00000000: 0eeb 70bd 4c36 f0bc 3620 6bbd 800c f13c
00000010: 40f9 333b ba56 f1bd 5834 ce3c d5ed c8bd
00000020: 8688 f9bd af3a 0d3e 5833 edbc 5e92 f1bd
00000030: a587 143e 8e40 d6bd 6653 c8bd 59be 9fbd
00000040: 00a2 42bb ea87 8cbd ec70 8c3d 0e88 c43d
00000050: c054 2a3d 980d 86bc 9c80 43bd fa4b 86bd
00000060: 20ef 7f3d 8e94 10bd a322 183e c4c9 24bd
00000070: cea0 15be 38ed 523d 3a2b e73d c8a2 de3c
00000080: 8c6b a4bd e3c3 143e 2ad3 eb3d f449 15be
00000090: fa1b eebd 0e62 f33d f688 14bd 93fe 153e
000000a0: c89d dabc 7af0 54bd c64c 5bbd 8050 3f3c
000000b0: 046f 05bd 4c30 6a3d cc4d 18be c032 673b
000000c0: 08cc 553d c097 a93c ce8d c73d 80fa 0bbc
000000d0: d0af 813d b413 b83d 7842 96bc d09f ee3c
000000e0: 7cfb 54bd d242 ee3d c7be 0a3e e5e6 c8bd
000000f0: d6ee d73d f001 673d 0062 e8bb 7cc6 373d
00000100: 45ca 193e d34e 103e 6e8a c8bd 1820 923d
00000110: 9ff8 043e 4a28 0dbe b7c7 a0bd f095 22bc
00000120: 5137 1c3e c8ac a83d b086 5cbc 99d7 cdbd
00000130: 28bf 193d c05b 3ebc 685d dbbd 6c35 9e3d
00000140: 6040 c13b 5843 97bd 9f61 1bbe 18f6 f13c
00000150: c9f8 133e 7dde d0bd 90c0 f3bd 40c1 61bc
00000160: daa1 03be 282d 253d 12c2 d6bd d089 ec3c
00000170: 140b 40bd e2ac cdbd 712d 00be 8090 01be
00000180: 84e3 a53d b667 06be 1039 d0bd a07a a23c
00000190: b8e4 783d 4c03 ba3d 68a9 f6bd 00e1 a63d
000001a0: 5c16 2d3d 5433 c9bd 4931 163e 8043 f6ba
000001b0: 5024 153d 7e1b c7bd b606 04bd 6006 143c
000001c0: f8be e7bd 00fd a5bb e037 7e3c 9e90 e53d
000001d0: 1526 003e 20d1 353d 7740 81bd 60fb 29bd
000001e0: 0ae6 e93d 2a1b 1bbe 1664 82bd 2020 e93b
000001f0: 01b3 0b3e b262 b53d 3bfe 003e 7854 86bc
00000200: 2686 97bd 60b4 4fbd 09e1 ecbd ee44 03be
00000210: 1808 f83c 1446 10bd af96 043e 10a2 9ebc
00000220: a5de f2bd 904d 6f3d 8691 cc3d c970 b1bd
00000230: 102b 07bd 74fd c03d f001 423c 0e50 823d
00000240: 76b1 db3d 44e5 583d a0cb 9b3d 00b6 e239
00000250: 8ae0 10be 4203 84bd 0033 8abb dc59 4bbd
00000260: 90ee b43d c894 e2bd 3d08 023e 00e8 4ebb
00000270: 98ae ac3c 4047 bdbd eefa 71bd 94ee c2bd
00000280: 3c6b 0bbe 4ac2 3ebd 781f c03c f416 883d
00000290: a620 dabd a26e f03d f8f2 923d 100d 803d
000002a0: ea37 d7bd e4a9 573d a4c0 093d 00a3 29bc
000002b0: 2a03 1ebd 18a0 153d c693 eb3d b46e 7d3d
000002c0: 9273 803d 1f3e 0c3e b035 2abd 785f b53c
000002d0: 46a4 56bd af68 d1bd f497 56bd a0ad cd3c
000002e0: 10f3 9cbc 484b f73c 20a2 a83b 5c7a f9bd
000002f0: bd10 143e 10b1 48bc 80f5 883d 6fb8 073e
00000300: 28a8 ad3d f084 07bc cfe2 f6bd 6c9b fbbd
00000310: 5d2c 173e 32b1 813d 1004 9e3c 9012 b63c
00000320: d06e 3fbd ccaf 3fbd 6cf5 763d bdcf c3bd
00000330: 10c3 4abc f041 1fbd f121 02be 8924 1cbe
00000340: 1d0d e7bd a918 cbbd 94d3 7e3d 7472 0cbd
00000350: c799 0f3e fe20 c13d 8804 133d 5ad0 e73d
00000360: 9254 50bd 761b 963d 405e 7fbb baac e83d
00000370: 783a 0fbe 269b f03d 3e84 bbbd 2e24 fa3d
00000380: 617b 0e3e 301c a8bc f415 35bd 380a ac3d
00000390: 101b 3a3d e0d6 893d e601 a0bd 5f65 05be
000003a0: 76aa b13d dccb 313d 3715 013e c25b a53d
000003b0: 7693 d0bd 9836 cebc 9625 ab3d 4259 07bd
000003c0: 363d 43bd 7df0 a1bd 019d 8bbd daa2 c43d
000003d0: d484 2b3d 0565 0b3e d478 f2bc ee0a ef3d
000003e0: 10da 9cbc fccd 403d f000 d6bc ee18 05be
000003f0: 5a2f 18be 3e4c febd e0fb 8f3b a046 39bc
-0.058817916 -0.029322766 -0.057403766 0.029424906 0.0027461797 -0.1178412 0.025171444 -0.09810988
-0.12184243 0.13791917 -0.028955147 -0.117954955 0.1450487 -0.104615316 -0.09781532 -0.07799978
-0.002969861 -0.06861861 0.06857476 0.09596263 0.04158473 -0.016363904 -0.047730073 -0.0655746
0.062483907 -0.035297923 0.14856963 -0.04023148 -0.14612123 0.05149576 0.11287542 0.02717723
-0.080283254 0.1452785 0.11514886 -0.14578992 -0.1162643 0.11883937 -0.03626343 0.14647894
-0.026686564 -0.05198715 -0.053540014 0.011676908 -0.032576576 0.057174966 -0.14873427 0.0035278052
0.052196532 0.020702243 0.09743844 -0.008543611 0.06332362 0.08988133 -0.018342242 0.029128939
-0.051997647 0.11633839 0.13549338 -0.09809665 0.10543601 0.056398332 -0.0070917606 0.044867024
0.15018566 0.14092569 -0.09792028 0.07135028 0.12985466 -0.137849 -0.078505926 -0.009923443
0.15255477 0.082360804 -0.013459846 -0.100508876 0.037535816 -0.011618555 -0.10711175 0.07725033
0.0058975667 -0.07385892 -0.15173958 0.029536292 0.14450373 -0.10198686 -0.11901963 -0.013778985
-0.1285471 0.040326267 -0.10486235 0.028874308 -0.046885565 -0.100427404 -0.12517335 -0.12652779
0.08100036 -0.131255 -0.10167134 0.019833863 0.060765 0.0908266 -0.120440304 0.08148384
0.04225765 -0.09824243 0.14667238 -0.0018788427 0.036411583 -0.097220406 -0.032232963 0.009034723
-0.11315721 -0.0050655603 0.015516251 0.11209224 0.12514527 0.04438889 -0.06311124 -0.041499496
0.114208296 -0.15147081 -0.06366746 0.0071144253 0.13642503 0.08856715 0.12596981 -0.0163977
-0.07398634 -0.05070913 -0.115663595 -0.12819263 0.030277297 -0.03522308 0.12948106 -0.019364387
-0.11858872 0.05842358 0.09988694 -0.0866409 -0.033000052 0.09423342 0.011841282 0.063629255
0.10727207 0.05295302 0.07607198 0.0004324168 -0.14148155 -0.06445934 -0.0042175055 -0.049646243
0.08834565 -0.11063534 0.12698455 -0.0031571388 0.021079347 -0.092421055 -0.059077196 -0.095181614
-0.13615125 -0.046572007 0.023452505 0.06645003 -0.106507584 0.117398515 0.07175249 0.062524915
-0.10508712 0.052652255 0.033630982 -0.010353804 -0.038577236 0.03652963 0.11502795 0.061873153
0.06272043 0.13695572 -0.041555107 0.02214025 -0.052402757 -0.10225045 -0.052391008 0.025107205
-0.01915887 0.030187264 0.00514628 -0.12181541 0.1445951 -0.012249246 0.066874504 0.1325395
0.08479339 -0.008271441 -0.12054979 -0.12285504 0.14763017 0.063326254 0.019289047 0.022225648
-0.04673654 -0.046798512 0.060292646 -0.09561107 -0.012375608 -0.038881242 -0.1270826 -0.15248312
-0.11281798 -0.09916813 0.062213495 -0.03428884 0.14023505 0.09430121 0.035892993 0.11319037
-0.050861903 0.073294565 -0.003896609 0.1136107 -0.13987148 0.11748342 -0.091560826 0.12213932
0.13914253 -0.020521253 -0.04421039 0.084003866 0.045435965 0.06730437 -0.07812862 -0.13026951
0.08675091 0.043407306 0.12605749 0.08074142 -0.10184376 -0.025172517 0.08356778 -0.033044107
-0.047665797 -0.079071976 -0.068170555 0.09601374 0.04187472 0.13612755 -0.029598631 0.116720065
-0.019146949 0.047071442 -0.026123494 -0.12997791 -0.14861813 -0.12416886 0.0043940395 -0.011308342
