trained models/DSSO/DeepIntRa_Params_03.pt (torch, 194310 bytes, 27 tensors)

pep_embed.weight f4 [26, 60]
0	0xbe151e7a	-0.14562407
1	0xbf004af4	-0.5011437
2	0x3e14a8b4	0.1451748
3	0xbf6229a1	-0.8834477
4	0x3d15ef86	0.03660538
5	0x3f323cd9	0.69624096
6	0xbc8773aa	-0.016534645
7	0xbefcbed9	-0.49364355
8	0xbe5cc43a	-0.2155923
9	0x3f5f1f35	0.87156993
10	0xbf3a491e	-0.7276782
11	0xbea8c6e6	-0.32964247
12	0xbeb47579	-0.35245875
13	0xbfb02b88	-1.3763285
14	0x3e999859	0.29999045
15	0xbf818b1b	-1.0120577
16	0x3f4a73bf	0.79082865
17	0xbd50ddfe	-0.05099296
18	0xbf3762a4	-0.7163489
19	0xbfcd7b0c	-1.6053176
20	0x3e8abaad	0.27095547
21	0x3f030c75	0.5119088
22	0xbebd99de	-0.37031454
23	0xbf2d5bb6	-0.67718065
24	0xbe579c70	-0.2105577
25	0xbfbad100	-1.4595032
26	0x3e7efc71	0.24900986
27	0x3e8208a6	0.25397223
28	0xbfaf410f	-1.3691729
29	0x3f392dbd	0.72335416
30	0xbf2615fa	-0.64877284
31	0x3f98ada4	1.1927991
32	0xbfbeab29	-1.4895984
33	0x3f635785	0.8880542
34	0xbf934035	-1.150397
35	0xbf706fc0	-0.93920517
36	0xbf0a76e3	-0.54087657
37	0xbe8a800c	-0.27050817
38	0xc00cc8d6	-2.199758
39	0x3eb67e8e	0.3564343
40	0x3f6d9388	0.9280324
41	0x3cfe1090	0.031013757
42	0xbe8d24af	-0.2756705
43	0xbf958721	-1.1681863
44	0x3fec8bc4	1.8480153
45	0xbf7eb1ea	-0.99490225
46	0x3f9a69b1	1.2063504
47	0x3e2caa27	0.16861783
48	0x3fc7a520	1.5597267
49	0xbd4919a5	-0.049096722
50	0xbfc69404	-1.5513921
51	0xc00004cf	-2.0002935
52	0xbfc53dee	-1.5409524
53	0x3ec6b993	0.38813457
54	0xbf94cbb5	-1.1624666
55	0x3f35afff	0.70971674
56	0x3fa9e6c4	1.3273549
57	0x3feb1e83	1.8368686
58	0x3f2cd92a	0.67518866
59	0x3f32f218	0.69900656
60	0x3d3afe2f	0.045652565
61	0xbfd3ed1f	-1.6556739
62	0xbfeb1cfc	-1.836822
63	0x3f396780	0.72423553
64	0x3f68510c	0.9074867
65	0x3f6e39fa	0.93057215
66	0x3e3e9559	0.18611659
67	0xbd76ec35	-0.06028386
68	0x3e97d74d	0.2965645
69	0xbf8337ac	-1.0251365
70	0x3e599b5c	0.21250671
71	0x3f1ebe92	0.6200954
72	0x3d604d51	0.054761235
73	0xbea4bf0e	-0.32177013
74	0xbfe2f9b4	-1.7732453
75	0x3f5d95bb	0.86556596
76	0x3f4ab0d1	0.7917605
77	0xbe0b1a9c	-0.1358437
78	0xbf7662a7	-0.9624428
79	0x3f375979	0.716209
80	0x3e125e0d	0.1429369
81	0xbf35198c	-0.70742106
82	0xbf18cb73	-0.5968544
83	0xbf396561	-0.72420317
84	0x3ecc2299	0.39870146
85	0x3e97d751	0.2965646
86	0xbe7f38a5	-0.24923952
87	0x3e6dd84f	0.23227046
88	0x3f554fb1	0.83324724
89	0xbfaf02c3	-1.3672718
90	0xbde4a9ac	-0.11165175
91	0xbf46c1e4	-0.77639604
92	0x3e854606	0.26029986
93	0x4024fa82	2.5777898
94	0xbfdb4f04	-1.7133489
95	0x3e493648	0.19649613
96	0x3f3ea0c7	0.74464077
97	0x3fcaf414	1.5855737
98	0xbe4f900a	-0.2026979
99	0xbe8ed02a	-0.27893192
100	0x3fa6c2c3	1.3028187
101	0x3fc9abd6	1.5755565
102	0xbf8a62fd	-1.0811459
103	0xbea90a16	-0.33015507
104	0xbf241423	-0.64093226
105	0xbdfe1750	-0.1240679
106	0xbfd227dc	-1.6418414
107	0x3f9ca556	1.2237957
108	0x3f148d9a	0.58028567
109	0x3d624f48	0.05525139
110	0xbca1746b	-0.019708833
111	0x3f633813	0.8875744
112	0x3f7675a4	0.96273255
113	0xbf134365	-0.5752471
114	0x402a8cb6	2.6648383
115	0x400856bd	2.130294
116	0xbf5217a7	-0.8206734
117	0xbf3a824e	-0.7285508
118	0x3fadba2e	1.3572443
119	0x3f83a619	1.0285064
120	0x3e1671ef	0.146919
121	0xbf67c15a	-0.90529406
122	0xbeb7ada3	-0.35874662
123	0x3fd195fb	1.6373895
124	0x3f308f45	0.6896861
125	0xbf159e05	-0.58444244
126	0x3f686481	0.90778357
127	0x3ef83a9c	0.48482215
128	0xbe86c43a	-0.26321584
129	0xbf0b111d	-0.5432299
130	0xbfd1fe69	-1.6405765
131	0x3f6df0a1	0.92945296
132	0x3fa535a2	1.2906992
133	0x3e85beca	0.26122123
134	0xbf160ede	-0.58616436
135	0xbfc158fc	-1.5105281
136	0xc000fd37	-2.015455
137	0x3f32452c	0.696368
138	0xbf2ae8f1	-0.6676169
139	0xbf57aa51	-0.8424426
140	0x3f076901	0.528946
141	0xbf0b6ea7	-0.5446572
142	0x3f4f469c	0.80967116
143	0x3f8fb06e	1.1225717
144	0xbf1ce839	-0.61291844
145	0x3e644c1d	0.2229466
146	0x3eeb2d01	0.45932773
147	0xbfd9fea1	-1.7030832
148	0xbfa38a3b	-1.277656
149	0xbf3e29ef	-0.74282736
150	0x3f78994b	0.97108907
151	0x3eb5d220	0.35511875
152	0xbfc23b68	-1.5174379
153	0xbeb68dce	-0.35655063
154	0x3f720adc	0.9454782
155	0xc00afb77	-2.1715982
156	0xbf4dc920	-0.8038502
157	0xbee7f0de	-0.45300955
158	0xbe63074b	-0.22170751
159	0xc005c3d7	-2.090078
160	0xbe354caa	-0.17705026
161	0xbf65e916	-0.89808786
162	0xbf7bc2ef	-0.9834432
163	0x3f41a20a	0.75637877
164	0x3eb1e3d8	0.34744143
165	0x3e92369a	0.28557283
166	0xbd4aefd3	-0.04954512
167	0x3f1f5935	0.62245494
168	0xbff5f953	-1.9216713
169	0xbfa8a7c5	-1.3176199
170	0x3f9d443e	1.2286451
171	0x3f33d474	0.7024605
172	0xbc8b0576	-0.016970377
173	0xbe90e28b	-0.2829784
174	0xbf250424	-0.64459443
175	0xbca2e500	-0.019884586
176	0x3de5f7ca	0.11228903
177	0xbf28fe39	-0.66012913
178	0xbf1fd2fb	-0.62431306
179	0xbf3ddbe7	-0.7416367
180	0x3e9acb2a	0.30233127
181	0xbe952ca0	-0.2913561
182	0xbf39965a	-0.72495043
183	0x3f67c942	0.9054147
184	0x3f434ed5	0.76292163
185	0x3e6de7dd	0.2323298
186	0xbe9b94b7	-0.30386898
187	0x3f6063e4	0.8765242
188	0xbd7d2fbe	-0.06181311
189	0x4005cee8	2.0907536
190	0xbf860116	-1.0469081
191	0x3fb1a6e0	1.3879051
192	0xbf53a0c0	-0.8266716
193	0x3f1fdb71	0.62444216
194	0xbe74a321	-0.23890354
195	0x3fd5f7b3	1.6716217
196	0x3fb5c361	1.420025
197	0x3f0b91c6	0.5451931
198	0x3e7ee825	0.24893244
199	0xbf50cdf5	-0.81564265
200	0x3f4515b5	0.7698625
201	0xbf4a0f9b	-0.7893006
202	0x3fc1d279	1.5142356
203	0xbf85ee0a	-1.0463269
204	0x3ccb2b92	0.02480105
205	0xbf641de2	-0.891081
206	0xbf7ae6dd	-0.9800852
207	0xbfef0401	-1.8673097
208	0x3e91a3f0	0.28445387
209	0xbf9658f2	-1.1745894
210	0xbfa0ece3	-1.2572292
211	0xbf458191	-0.7715083
212	0xbf7b4a27	-0.9816002
213	0x3f50c720	0.8155384
214	0xbe745a2c	-0.23862523
215	0x3e27db56	0.16392264
216	0x3f4c3e83	0.79782885
217	0xbee80d75	-0.45322767
218	0x3f665601	0.8997498
219	0xbf18064d	-0.59384614
220	0x3f66dd5b	0.9018151
221	0x3fc81b26	1.5633285
222	0xbe227258	-0.15863931
223	0xbe88fefb	-0.26757035
224	0x3f025f81	0.5092698
225	0x3d0d015c	0.034425125
226	0xbcada10b	-0.021194955
227	0x404106a4	3.0160303
228	0x3e11bb3b	0.14231579
229	0xbe3af196	-0.1825622
230	0x3f866902	1.0500796
231	0x3dd0772d	0.10178981
232	0x3eb524bf	0.35379598
233	0xc017e8e8	-2.3735905
234	0xbfac3f14	-1.345675
235	0x3f62d011	0.88598734
236	0xbe885f20	-0.26635075
237	0x3dc7e83a	0.097610906
238	0xbf8f27fa	-1.1184075
239	0x3e84e048	0.25952363
240	0xbe2c0037	-0.16796957
241	0x3f15ad69	0.5846773
242	0x3d06e5ee	0.03293412
243	0x3b1c313e	0.0023833062
244	0x3ec768de	0.38947195
245	0x3f37bc31	0.7177153
246	0xbeffc873	-0.49957618
247	0xbf8d1681	-1.1022493
248	0xbc27dcaa	-0.0102454815
249	0x3d0e773b	0.034781676
250	0xbf82fe4a	-1.0233853
251	0x3c2ab3ed	0.010418874
252	0xbf87f497	-1.0621518
253	0xbe454901	-0.1926613
254	0x3f5f44ff	0.87214655
255	0xbed69757	-0.41912338

mod_embed.weight f4 [4, 4]
0	0x3e309d95	0.17247613
1	0xbe1d7ccf	-0.15379642
2	0xbeeacb7f	-0.4585838
3	0xbeee8239	-0.46583727
4	0x3fc727ad	1.5558983
5	0xbefc18db	-0.49237713
6	0x3efc8c71	0.49325898
7	0x3f2d7293	0.6775295
8	0x3ef3f05e	0.47644323
9	0xbeaec87a	-0.34137326
10	0xbea98b26	-0.33113974
11	0xbf913c05	-1.1346442
12	0xbf501d84	-0.8129504
13	0x3fa4c6c4	1.2873158
14	0x3ef6b5e2	0.4818564
15	0x3f4863e2	0.7827741

conv_pep.0.weight f4 [16, 64, 3]
0	0xbcb61314	-0.022225894
1	0x3db389c2	0.087665096
2	0x3d4d3112	0.050095625
3	0xbcd02359	-0.02540748
4	0x3c466fbb	0.0121116
5	0xbcb4ae71	-0.022055836
6	0x3b23e49e	0.0025008093
7	0xbd4bc610	-0.049749434
8	0x3c11aacb	0.008890818
9	0x3d032335	0.032015998
10	0xbd7ca7d4	-0.06168349
11	0x3cb213df	0.02173799
12	0xbc386fe1	-0.011257143
13	0x3d7e67f9	0.062110875
14	0x3d622efa	0.05522058
15	0x3c451128	0.012028016
16	0xbd599d37	-0.053128447
17	0xbda94104	-0.08264354
18	0x3dcf75d6	0.10129897
19	0xbc4599b2	-0.01206057
20	0xbcbe4fc6	-0.023231398
21	0xbd346c92	-0.044048853
22	0xbd9d86e3	-0.07691743
23	0x3d44a887	0.048012283
24	0x3cbd6c09	0.023122804
25	0x3d38c707	0.045111682
26	0xbd73f2a0	-0.059557557
27	0x3d9c0ad4	0.07619253
28	0x3d2a736a	0.041613974
29	0x3d8e70f6	0.06955139
30	0x3d59ec09	0.053203616
31	0x3d5725c0	0.052526236
32	0x3c00614e	0.007835699
33	0xbd8a867c	-0.06763932
34	0xbdc86f67	-0.09786873
35	0x3d76fb1d	0.060298074
36	0x3d55ef27	0.052230027
37	0x3b33b00b	0.0027418162
38	0x3d26c51e	0.04071533
39	0xbc78781d	-0.015165356
40	0xbd0b3c80	-0.033993244
41	0x3d15d925	0.03658404
42	0x3cb040ab	0.021515211
43	0xbd151c07	-0.036403682
44	0xbd2fa3b7	-0.04288074
45	0x3d8511fe	0.06497572
46	0x3d92a66e	0.0716065
47	0x3aa25c41	0.0012387113
48	0xbda0dbc6	-0.078544185
49	0x3d03cdab	0.032178562
50	0xbd99a786	-0.07502656
51	0xbc74420a	-0.014908323
52	0x3d07b37a	0.033130147
53	0x3c86564f	0.016398577
54	0xbb9038ae	-0.004401288
55	0x3dc08caf	0.09401833
56	0x3cce29b6	0.025166374
57	0xbdb83335	-0.08994142
58	0xbd11bb37	-0.035578933
59	0x3d61b71f	0.05510628
60	0x3d398e9e	0.045302026
61	0x3d2a806e	0.041626386
62	0x3c93070d	0.017947698
63	0xbd4149bb	-0.047189455
64	0x3d66d47b	0.05635498
65	0xbd98bd67	-0.07458001
66	0xbd0433c5	-0.032275934
67	0x3d9805c3	0.07422974
68	0x3c85b204	0.016320236
69	0x3d672cf1	0.056439344
70	0xbd397ad2	-0.045283146
71	0x3bb8f26e	0.0056441342
72	0x3cadae65	0.021201322
73	0x3c5e73f4	0.01357745
74	0x3ca21377	0.019784672
75	0xbcd4a8c3	-0.025959378
76	0x3d3f8d92	0.04676587
77	0x3d32ca0c	0.04364972
78	0xbd1d0089	-0.03833059
79	0xbd952fd2	-0.072845116
80	0x3d1c988d	0.03823142
81	0xbcd4b97c	-0.025967352
82	0xbd952a17	-0.072834186
83	0x3d5379d8	0.05162987
84	0x3d1f32e0	0.038866878
85	0x3ce364b5	0.027757982
86	0x3d8bb982	0.06822492
87	0x3b8c8a34	0.004288936
88	0x3daf0b3c	0.08547065
89	0x3d531b75	0.051539857
90	0x3d7253f0	0.05916208
91	0xbd9bbf61	-0.07604862
92	0xbd579b63	-0.052638423
93	0x3d3fcccf	0.04682618
94	0x3d6396ca	0.055563726
95	0x3ce6dfd1	0.028182896
96	0xbc330ac5	-0.010927861
97	0xbc003496	-0.007825037
98	0xbaf5e918	-0.0018761484
99	0xbcacb178	-0.021080717
100	0x3d907cbd	0.07055042
101	0xbb2885dd	-0.0025714554
102	0xbd0a109b	-0.033707242
103	0x3cddf7bd	0.02709567
104	0xbd8c2958	-0.06843823
105	0x3d3dd905	0.046349544
106	0xbba9a151	-0.005176701
107	0x3cfabc90	0.030607492
108	0x3c3b920e	0.011448396
109	0xbce4742c	-0.027887426
110	0x3d6f9920	0.05849564
111	0xbd9a0806	-0.075210616
112	0x3c34808b	0.011016975
113	0x3d965b27	0.07341605
114	0xbd895239	-0.06705136
115	0xbd8c88e8	-0.0686205
116	0x3c1ab8af	0.009443446
117	0xbc467feb	-0.012115459
118	0xbcf44c4e	-0.029821541
119	0xbda626bc	-0.08112857
120	0xbce4596e	-0.027874675
121	0x3d33e498	0.043919176
122	0xbda09715	-0.078413166
123	0xbdac1113	-0.08401694
124	0x3d98cdd6	0.07461135
125	0xbd964d88	-0.07339007
126	0xbb7497a3	-0.0037321828
127	0x3d8b58c9	0.06804044
128	0xbd8dcdb2	-0.06923999
129	0x3b95f2b0	0.0045760497
130	0xba3cdfc1	-0.0007204973
131	0x3d8512ee	0.06497751
132	0x3c1cb564	0.009564731
133	0xbd3ef3aa	-0.046619095
134	0x3cfdbd01	0.030973913
135	0x3ca304c0	0.019899726
136	0x3db08ff2	0.086212054
137	0x3be6372b	0.0070256195
138	0xbd543866	-0.0518116
139	0xbd20db75	-0.03927179
140	0x3d57a749	0.05264977
141	0xbd1412a6	-0.036150597
142	0xbc483c3f	-0.012221395
143	0xbcddd28e	-0.02707794
144	0xbd29cd4c	-0.041455552
145	0x3d0f1bcc	0.03493862
146	0x3d9f56cd	0.07780228
147	0x3d8c28c5	0.06843714
148	0xbca70d24	-0.020392008
149	0xbd4261d7	-0.04745659
150	0xbd83520a	-0.06412132
151	0xbc81ec28	-0.015859678
152	0x3d43ce1b	0.04780398
153	0x3d15caac	0.036570236
154	0xbd07272e	-0.03299635
155	0x39b0e67c	0.0003374106
156	0xbba2b375	-0.0049652406
157	0x3cd76762	0.026294414
158	0x3d76188b	0.060082
159	0x3d75d04e	0.060013108
160	0x3d762318	0.06009206
161	0xbd4904fb	-0.049077015
162	0x3d856c4d	0.06514797
163	0x3d4f1dbb	0.050565463
164	0x3d3f8519	0.04675779
165	0xbd74ca9b	-0.059763532
166	0x3bb5a2be	0.005543082
167	0xbd1d92e4	-0.038470164
168	0xbb3497a3	-0.0027556203
169	0xbd859c47	-0.06523948
170	0x3d14a9dc	0.036294803
171	0x3d4326c1	0.04764438
172	0xbb5356da	-0.0032247812
173	0xbdd64bfb	-0.10463711
174	0xbd833c71	-0.06408013
175	0xbd77e378	-0.060519665
176	0xbd61c0c8	-0.05511549
177	0x3d7f0897	0.06226405
178	0xbd865582	-0.06559278
179	0x3d4ffe24	0.050779477
180	0x3d25c743	0.040473234
181	0x3c5ca6f3	0.013467538
182	0xbb56f964	-0.0032802457
183	0xbce0bc75	-0.027433613
184	0xbd2f1ebe	-0.042753927
185	0xbd545d27	-0.05184665
186	0x3d8715c9	0.06595952
187	0xbd14da77	-0.036341157
188	0x3d4545bd	0.04816221
189	0xbc7a2940	-0.015268624
190	0x3d9a6db4	0.075404555
191	0x3d8f9b7f	0.070120804
192	0xbb6c4467	-0.0036051513
193	0x3ccfb75b	0.025355985
194	0x3d23c3f5	0.0399818
195	0x3d2e1241	0.042497877
196	0xbb1951b3	-0.0023394644
197	0x3cdadac1	0.026715638
198	0xbd25dd66	-0.040494345
199	0xbd623235	-0.055223662
200	0x3d12d5fb	0.0358486
201	0xbc8eb3f9	-0.017419802
202	0xbcb8ae43	-0.022544032
203	0x3d9884ca	0.074472025
204	0xbcf9c565	-0.030489633
205	0x3b1f4b26	0.0024306267
206	0x3ca42a1a	0.020039607
207	0x3d2fe7f8	0.042945832
208	0x3c378064	0.011200044
209	0xbceaff9f	-0.028686343
210	0x3d65a299	0.05606327
211	0xbcda20fa	-0.026627053
212	0xba96b14b	-0.0011496929
213	0x3d0a285b	0.033729892
214	0xbcb0cab4	-0.021581031
215	0x3bbbe85a	0.0057344856
216	0xbd5856a2	-0.052816994
217	0xbbb6f2b6	-0.0055831326
218	0x3cf87868	0.030330852
219	0x3c88777f	0.016658543
220	0x3bb29663	0.0054500564
221	0xbd8a1e6e	-0.06744085
222	0xbba93456	-0.0051637096
223	0xbcecb2bd	-0.028893823
224	0x3dc9d209	0.09854514
225	0xbc2b2f5d	-0.010448304
226	0x3d063095	0.032761175
227	0xbda251ec	-0.079257816
228	0x3d1ee01c	0.038787946
229	0xbd2177ef	-0.03942102
230	0xbcf4eb2b	-0.029897293
231	0xbd4dbf97	-0.050231542
232	0x3d39e6cf	0.04538613
233	0xbca35eb4	-0.019942619
234	0xbd740b96	-0.05958136
235	0x3d2d2e35	0.042280395
236	0x3da61d98	0.08111113
237	0x3d26605b	0.040619235
238	0x3d378643	0.044805776
239	0xbd8c414e	-0.068483934
240	0x3d2a1a27	0.041528847
241	0xbd307baa	-0.043086685
242	0xbdb7fafb	-0.089834176
243	0xbc851aa7	-0.01624806
244	0xbd0c0236	-0.034181796
245	0x3c497eed	0.012298328
246	0xbc748483	-0.014924171
247	0x3cd86c17	0.026418729
248	0xbd6c8aaa	-0.057749428
249	0x3d732605	0.05936243
250	0x3d8bd6c5	0.068280734
251	0x3d715a46	0.058923982
252	0x3d1ba942	0.038003214
253	0xbd460ba3	-0.04835094
254	0xbcb3fb8c	-0.021970533
255	0xbd8720b2	-0.06598033

conv_pep.0.bias f4 [16]
0	0x3d64a8b2	0.055824943
1	0xbd6591ee	-0.056047373
2	0x3d522516	0.0513049
3	0x3d8ae7a1	0.06782461
4	0xbc86e55f	-0.016466795
5	0x3d09ef75	0.03367563
6	0xbd742c55	-0.05961259
7	0xba86a476	-0.0010272402
8	0xbd33ea5e	-0.04392468
9	0x3d0d9cba	0.034573294
10	0x3cbffb92	0.023435388
11	0xbd70e302	-0.05881024
12	0x3cb05be9	0.021528201
13	0xbbaf9db2	-0.005359375
14	0xbd8521b8	-0.06500572
15	0xbd7eb777	-0.062186684

conv_pep.1.weight f4 [16]
0	0x3f7bae9e	0.9831332
1	0x3f823a0e	1.0173967
2	0x3f8167bc	1.0109782
3	0x3f810706	1.0080268
4	0x3f8287ca	1.019769
5	0x3f82475d	1.0178028
6	0x3f73be14	0.9521191
7	0x3f7e1667	0.99252933
8	0x3f7b6869	0.9820619
9	0x3f779fb2	0.9672805
10	0x3f7aae6f	0.97922415
11	0x3f7ede20	0.99557686
12	0x3f817c6a	1.0116093
13	0x3f8563bb	1.042106
14	0x3f7aa723	0.9791128
15	0x3f84fb23	1.0389141

conv_pep.1.bias f4 [16]
0	0xbd02f6e0	-0.03197372
1	0xbca61012	-0.020271335
2	0xbca71c73	-0.020399308
3	0x3d13a2c9	0.036043916
4	0x3cfd33ab	0.030908426
5	0x3c6db1c8	0.014507718
6	0xbd926dd7	-0.071498565
7	0xbbbe6abb	-0.005811063
8	0xbcbc3bb3	-0.022977686
9	0xbceb25cf	-0.028704552
10	0xbd0e1a76	-0.034693204
11	0xbc9f055a	-0.019411732
12	0x3cf922e8	0.030412152
13	0x3c7ee9e1	0.015558691
14	0xbcc44de5	-0.023962924
15	0xbd062f96	-0.032760225

conv_pep.1.running_mean f4 [16]
0	0xbf0d9f75	-0.5532144
1	0xbf6578e0	-0.89637566
2	0xbf4cc5a8	-0.799891
3	0x3f6ce504	0.9253695
4	0xbec04c99	-0.3755844
5	0x3e33fbe5	0.17576559
6	0xbf3d1945	-0.73866683
7	0x3f6c54f5	0.92317134
8	0xbf8a78b2	-1.0818083
9	0xbf430091	-0.7617274
10	0xbef1a49a	-0.47195894
11	0xbe761a15	-0.24033387
12	0x3f548bf0	0.8302603
13	0xbf42a931	-0.76039416
14	0xbf8c808f	-1.0976733
15	0xbf4d03dc	-0.80084014

conv_pep.1.running_var f4 [16]
0	0x3e555a74	0.20835286
1	0x3f32dcda	0.6986824
2	0x3ecc9758	0.39959216
3	0x3f1601f6	0.5859674
4	0x3e65bafb	0.22434609
5	0x3e45384d	0.19259758
6	0x3eb815df	0.35954186
7	0x3f369db1	0.7133437
8	0x3f2b92e7	0.6702103
9	0x3f1ff289	0.62479454
10	0x3e9375ef	0.28800914
11	0x3ea7db39	0.3278444
12	0x3eb37c45	0.35055748
13	0x3f1e7c54	0.6190846
14	0x3f545338	0.8293948
15	0x3f109bfa	0.56488

conv_pep.3.weight f4 [64, 16, 3]
0	0xbc5b48fe	-0.013384102
1	0x3cc99d0c	0.024611019
2	0x3ab0c89f	0.0013487524
3	0xbda92ca0	-0.08260465
4	0xbdae91b7	-0.08523887
5	0x3e1aaaec	0.15104264
6	0xbdb8c02e	-0.0902103
7	0xbdcf2d0a	-0.101160124
8	0xbdeaae48	-0.11459023
9	0xbd9e51b2	-0.07730426
10	0xbd9a1548	-0.0752359
11	0x3e1eacad	0.15495558
12	0xbd927878	-0.07151884
13	0xbdded913	-0.10881247
14	0xbcd66a6b	-0.02617379
15	0xbe0a9e19	-0.13536872
16	0x3ddadf2a	0.106870964
17	0xbb77db1e	-0.0037819813
18	0xbdd10482	-0.10205938
19	0xbbe7c4eb	-0.007073035
20	0xbb0956d4	-0.0020956295
21	0x3def625e	0.11688684
22	0xbde1d3e3	-0.11026742
23	0x3dbf56c7	0.09342723
24	0xbbbd70af	-0.005781255
25	0xbdeb0ba5	-0.114768304
26	0xbe08a7e7	-0.133453
27	0x3cd61859	0.026134657
28	0x3d67ed54	0.056622818
29	0x3dfd7b70	0.123770595
30	0xbde05cfe	-0.10955237
31	0xbd40af85	-0.04704239
32	0x3ccfd78b	0.025371334
33	0x3cd32aa1	0.025777163
34	0xbdaf0ad6	-0.08546989
35	0xbbe90b5a	-0.007111949
36	0x3da39634	0.07987633
37	0x3e0d48bb	0.13797276
38	0xbddc8261	-0.10767055
39	0x3a36dcfe	0.00069756794
40	0x3d8cc8b9	0.06874222
41	0x3dcc9fc9	0.09991414
42	0x3c89e7f2	0.016834233
43	0xbd4fb8d2	-0.050713368
44	0x3d82d459	0.06388158
45	0xbcdd33c2	-0.02700222
46	0xbe013bcc	-0.12620467
47	0xbcac0526	-0.020998549
48	0x3d814ab8	0.063130796
49	0x3d7236c5	0.059134264
50	0xbd6e5303	-0.058184635
51	0x3dd5fbd7	0.10448425
52	0x3cf20ed8	0.029548094
53	0xbd82009b	-0.06347772
54	0x3db8eab7	0.09029143
55	0xbd52e72d	-0.051489998
56	0xbd0aebe2	-0.03391636
57	0x3d1787ac	0.03699462
58	0xbd62579b	-0.05525933
59	0x3d9d511e	0.076814875
60	0x3dffe239	0.124943204
61	0xbe05786a	-0.13034216
62	0xbd4dc6a2	-0.05023826
63	0x3d83e3e2	0.064399496
64	0x3d317c7f	0.04333162
65	0x3dafd259	0.085850425
66	0x3d89638e	0.06708442
67	0xbda142ce	-0.0787407
68	0xbd5ce9c4	-0.053933874
69	0xbd105001	-0.035232548
70	0xbd8903d2	-0.06690182
71	0xbcfde404	-0.030992515
72	0xbbc3dff7	-0.0059776264
73	0x3d38315f	0.04496896
74	0xbe400df3	-0.18755321
75	0xbe1fcea1	-0.15606166
76	0x3db1ea02	0.086872116
77	0xbda6c1d6	-0.0814244
78	0x3d5ca211	0.053865496
79	0x3db175d2	0.086650506
80	0xbd9a47d4	-0.075332314
81	0x3df09c9b	0.1174862
82	0xbdb17417	-0.086647205
83	0xbd7513e7	-0.059833433
84	0x3d2a015d	0.041505206
85	0xbcd3cd9f	-0.025854884
86	0x3d434fc5	0.047683496
87	0xbd814c41	-0.063133724
88	0x3c322314	0.010872621
89	0x3b4767dd	0.0030426898
90	0x3c41a7a8	0.0118197575
91	0xbb1670bc	-0.0022955379
92	0xbbe676ed	-0.00703322
93	0x3e1c2e60	0.15252066
94	0x3ba82222	0.005131022
95	0xbe2902d1	-0.1650498
96	0x3ca8d391	0.020608695
97	0x3ce23569	0.027613359
98	0xbd878946	-0.0661798
99	0x3e070bca	0.13188091
100	0x3d1a401d	0.0376588
101	0x3d8a0310	0.067388654
102	0x3d588c00	0.05286789
103	0xbd265c59	-0.040615413
104	0x3d3b594d	0.04573946
105	0xbd65bc79	-0.056087945
106	0x3dc1fa4c	0.094715685
107	0x3d339064	0.043838874
108	0xbda9ffdd	-0.08300755
109	0x3d443476	0.047901593
110	0xbda06347	-0.07831436
111	0xbded3dd5	-0.11584059
112	0x3ca9f6eb	0.020747622
113	0x3d3cf8bc	0.04613565
114	0xbe06d63e	-0.13167664
115	0xbc934f43	-0.01798213
116	0x3da44959	0.080218025
117	0x3d37db69	0.04488698
118	0xbc93b7a6	-0.018031906
119	0x3d5ea6af	0.05435818
120	0xbdf706a6	-0.12061815
121	0xbe2ab9a2	-0.16672376
122	0x3d98e9bb	0.074664555
123	0xbd74e43d	-0.059787977
124	0x3e1547a8	0.14578116
125	0xbd07dacc	-0.033167645
126	0xbd8bbe81	-0.06823445
127	0xbdb1ae46	-0.08675818
128	0xbd2e3308	-0.042529136
129	0xbcee8d9e	-0.029120263
130	0xbd996042	-0.07489063
131	0x3ceedf33	0.029159164
132	0x3df6b6dc	0.120465964
133	0x3e086e85	0.1332341
134	0x3bc4bba4	0.006003814
135	0xbe607abf	-0.21921824
136	0x3d8c1d47	0.06841522
137	0xbcd2051d	-0.025637204
138	0x3ad75e62	0.0016431327
139	0x3e0f23e0	0.13978529
140	0xbd356c6d	-0.044292856
141	0xbc21ec4a	-0.009882996
142	0xbdc5053e	-0.096201405
143	0xbdd9650d	-0.10614977
144	0xbd54d5de	-0.051961772
145	0xbcdbf6e8	-0.026851133
146	0xbd797fdd	-0.060912956
147	0x3d7c2244	0.061556116
148	0xbc8a5640	-0.01688683
149	0xbe13caf2	-0.14432886
150	0x3db10c3b	0.08644911
151	0xbd0677c9	-0.03282908
152	0x3c462838	0.01209455
153	0x3d76aaa9	0.060221348
154	0xbd3c465e	-0.045965545
155	0x3dfdd084	0.12393287
156	0xbd3abf50	-0.045592606
157	0x3e0ddb1c	0.13853115
158	0xbd6f190f	-0.058373507
159	0xbd84f1e4	-0.064914495
160	0x3c14398b	0.009046922
161	0xbbf6d900	-0.0075331926
162	0xbd860750	-0.065443635
163	0xbdd838e4	-0.10557726
164	0x3d8a2d4b	0.0674692
165	0xbd3bb233	-0.04582424
166	0xbbaf3290	-0.0053466037
167	0x3ddda424	0.10822323
168	0x3e231d55	0.15929158
169	0xbe066b1a	-0.13126794
170	0x3db241d0	0.08703959
171	0x3e12e8dc	0.14346641
172	0xbe0061e4	-0.12537342
173	0xbd287c31	-0.041134063
174	0x3da30cc7	0.079614215
175	0xbd2f3a4e	-0.042780213
176	0xbce96f13	-0.028495347
177	0x3b124c01	0.0022323134
178	0x3ccc8438	0.02496539
179	0xbe14b1c5	-0.14520939
180	0x3d1417fb	0.036155682
181	0xbda03e21	-0.0782435
182	0x3b606c97	0.0034244412
183	0x3e3cafca	0.18426433
184	0x3cb7e23e	0.022446748
185	0xbcb7b88b	-0.022426864
186	0x3d494152	0.04913456
187	0xbd8d5aa7	-0.06902056
188	0x3df42590	0.11921227
189	0x3db803d5	0.08985106
190	0x3cef4f04	0.029212482
191	0x3ca60a30	0.02026853
192	0x3dd2bdca	0.10290106
193	0xbe1de1f4	-0.15418226
194	0x3d9b9efe	0.07598685
195	0xbd03e8d5	-0.032204468
196	0xbd3d4ab2	-0.046213813
197	0xbd4c9701	-0.049948696
198	0xbd5e8073	-0.054321717
199	0xbd8173d9	-0.06320924
200	0x3c6e207e	0.014534114
201	0x3d88de62	0.06683041
202	0x3d097a85	0.03356411
203	0xbd1dbf99	-0.0385128
204	0x3dd08577	0.101817064
205	0xbdfa4186	-0.12219529
206	0x3d9d79e3	0.07689264
207	0xbe031dc0	-0.12804317
208	0x3dde3309	0.10849578
209	0x3d44ca51	0.048044506
210	0x3cd3aa18	0.025837943
211	0x3d76f137	0.060288634
212	0xbc0f8794	-0.008760352
213	0x3c44cd74	0.0120118745
214	0x3e02cf46	0.12774381
215	0xbde9d0bf	-0.11416768
216	0x3cf26666	0.029589843
217	0x3b92cf7f	0.004480302
218	0xbd5f3ada	-0.054499485
219	0xbca66998	-0.020314023
220	0xbe02df53	-0.12780504
221	0x3ce38fc0	0.027778506
222	0x3d92f1fd	0.07175062
223	0x3d6dd25e	0.05806195
224	0x3d208271	0.0391869
225	0x3d86b587	0.06577592
226	0x3d8a7326	0.06760244
227	0x3e0e269f	0.1388192
228	0x3b67e171	0.0035382176
229	0xbd3e8cfd	-0.046521176
230	0x3ddd7e88	0.108151495
231	0x3c58e4ff	0.013238191
232	0xbd3d89f3	-0.046274137
233	0xbde31d48	-0.11089569
234	0x3d8795e3	0.066203855
235	0xbe02af2f	-0.1276214
236	0x3e14842c	0.14503545
237	0xbd96a3ef	-0.073554866
238	0x3df65dbe	0.12029599
239	0x3db6d26e	0.08926855
240	0xbd808fbe	-0.06277417
241	0xbd7a5795	-0.06111868
242	0xbd929215	-0.07156769
243	0x3d2cf221	0.0422231
244	0x3d18ae64	0.037275687
245	0xbde4cf5e	-0.11172365
246	0xbd912eb3	-0.07088985
247	0x3dfee98f	0.124468915
248	0x3d86837f	0.0656805
249	0x3c123146	0.0089228805
250	0xbda06c71	-0.078331836
251	0xbd0c5df8	-0.034269303
252	0xbc9ff99a	-0.019528199
253	0x3d358a6b	0.04432146
254	0x3cd579c5	0.02605904
255	0xbd51fc4c	-0.051266

conv_pep.3.bias f4 [64]
0	0xbe0dfbe3	-0.13865618
1	0x3cb813e0	0.022470415
2	0x3c0a3949	0.008436509
3	0xbc37c8bb	-0.0112172915
4	0xbd827bc5	-0.063712634
5	0x3d426f68	0.047469527
6	0xbd97a2bc	-0.07404086
7	0x3e11d750	0.14242291
8	0xbbb9e9bc	-0.0056736153
9	0x3d0921dd	0.03347956
10	0x3df07326	0.11740713
11	0x3cd56a75	0.02605174
12	0x3dba6126	0.09100561
13	0xbd1e5928	-0.038659245
14	0x3daa0af5	0.08302871
15	0x3bcc2ee9	0.006231178
16	0x3df4750c	0.119363874
17	0xbdf8d8fb	-0.12150761
18	0xbb505e41	-0.003179446
19	0x3db9ee3e	0.09078644
20	0x3d87a387	0.06622987
21	0x3dc4c2e1	0.09607483
22	0x3cfa43e9	0.03054996
23	0x3de2135b	0.11038848
24	0x3de4fb96	0.11180799
25	0xbde12a4c	-0.109943956
26	0x3cf7ecbd	0.030264253
27	0xbd865a02	-0.065601364
28	0x3d96facc	0.073720545
29	0xbdb31e96	-0.08746068
30	0xbdfe1866	-0.124069974
31	0xbc8e30a2	-0.017357174
32	0xbcde1ca8	-0.027113274
33	0xbd9dbe37	-0.07702296
34	0x3d190390	0.037356913
35	0x3c90c828	0.017673567
36	0x3ddebd72	0.108759776
37	0xbdc31e38	-0.09527248
38	0xbd3af9b9	-0.04564831
39	0x3ced6aca	0.028981585
40	0x3b469c3c	0.0030305525
41	0x3dda4a17	0.10658663
42	0x3d63d8a8	0.05562654
43	0x3a756a27	0.0009361826
44	0xbde6381a	-0.11241169
45	0xbda364ee	-0.07978235
46	0x3db31ada	0.08745356
47	0xbde080e7	-0.10962086
48	0xbdd45742	-0.103682056
49	0xbdbae7d7	-0.09126251
50	0x3db49f0c	0.08819398
51	0xbd80a995	-0.06282345
52	0x3d2fad74	0.042890027
53	0xbcf70329	-0.030152874
54	0x3ca588d3	0.020206844
55	0xbdf67b5b	-0.12035247
56	0xbd29ef14	-0.04148777
57	0xbe0a720f	-0.13520072
58	0xbdca65fb	-0.098827325
59	0x3dd54770	0.10414016
60	0xbd972f66	-0.073820874
61	0x3dc95e01	0.09832383
62	0x3deda5a8	0.11603862
63	0xbc899d2a	-0.016798574

conv_pep.4.weight f4 [64]
0	0x3f79e7b0	0.9761915
1	0x3f860644	1.0470662
2	0x3f803715	1.001681
3	0x3f80b773	1.0055984
4	0x3f840e3e	1.0316846
5	0x3f7a0910	0.9767008
6	0x3f7f9e34	0.99850774
7	0x3f801a6e	1.0008066
8	0x3f7ad61b	0.9798295
9	0x3f7e6a68	0.99381113
10	0x3f7cdc68	0.98773813
11	0x3f81217e	1.0088346
12	0x3f7e6c1b	0.99383706
13	0x3f816f70	1.0112133
14	0x3f835dcd	1.0263001
15	0x3f77469b	0.9659211
16	0x3f7e6617	0.99374527
17	0x3f81eeda	1.0151017
18	0x3f815475	1.0103899
19	0x3f845645	1.0338827
20	0x3f81053f	1.0079726
21	0x3f81d473	1.0142959
22	0x3f802a37	1.0012883
23	0x3f7bd9f2	0.98379433
24	0x3f83d36c	1.0298896
25	0x3f7ef390	0.99590397
26	0x3f769cf0	0.9633322
27	0x3f84c616	1.0372951
28	0x3f8409c8	1.0315485
29	0x3f7dd4e7	0.9915299
30	0x3f841283	1.0318149
31	0x3f828f83	1.0200046
32	0x3f81116a	1.0083439
33	0x3f8321ec	1.0244727
34	0x3f792082	0.9731523
35	0x3f85e74e	1.0461214
36	0x3f81ae11	1.0131246
37	0x3f7f85c8	0.9981351
38	0x3f78b5f5	0.97152644
39	0x3f7eac12	0.9948131
40	0x3f7c1476	0.9846872
41	0x3f84bff0	1.0371075
42	0x3f7b692c	0.98207355
43	0x3f87a8ce	1.059839
44	0x3f7bd44a	0.983708
45	0x3f80072c	1.0002189
46	0x3f76b3ed	0.96368295
47	0x3f775ac2	0.9662286
48	0x3f726cb3	0.9469711
49	0x3f7107f7	0.9415278
50	0x3f8281e0	1.0195885
51	0x3f803b85	1.0018164
52	0x3f8057e4	1.0026822
53	0x3f85539c	1.041614
54	0x3f7f352a	0.99690497
55	0x3f7f3a4e	0.9969834
56	0x3f7911b7	0.97292656
57	0x3f82270c	1.0168166
58	0x3f836018	1.02637
59	0x3f8017ca	1.000726
60	0x3f7d6a91	0.9899073
61	0x3f7a78ed	0.9784077
62	0x3f7697a5	0.9632514
63	0x3f7ef00e	0.99585044

conv_pep.4.bias f4 [64]
0	0xbcd67553	-0.026178991
1	0x3d6b1db6	0.05740138
2	0xbce8c062	-0.028412048
3	0xba2e012e	-0.0006637749
4	0xbc92c6a2	-0.017916981
5	0xbd0fb296	-0.035082422
6	0x3a775730	0.0009435294
7	0x3ba5c317	0.005058657
8	0xbc1b9c54	-0.009497721
9	0xbca34963	-0.019932454
10	0xbc56fc8a	-0.013121733
11	0xbc50323a	-0.012707287
12	0xbcd86633	-0.02641592
13	0xbc5158e1	-0.012777538
14	0xbbb05958	-0.0053817444
15	0xbcc615fa	-0.024180401
16	0xb9ace078	-0.0003297364
17	0x3d348384	0.044070736
18	0xbcb8ad1b	-0.02254348
19	0x3b621ea8	0.0034503136
20	0xbcb29a9a	-0.021802235
21	0x3cc066cd	0.02348652
22	0xbc110692	-0.008851664
23	0xbd8ee3ab	-0.06977018
24	0x3d0aad43	0.03385664
25	0xbd18963c	-0.03725265
26	0xbd6ddb7c	-0.058070645
27	0x3c463536	0.012097647
28	0x3c3e22d1	0.011604981
29	0xbbd81c50	-0.006595172
30	0x3b4d412c	0.0031319363
31	0xbc0f8c60	-0.008761495
32	0x3d599c65	0.053127665
33	0x3c97efbe	0.018546935
34	0xbb30e614	-0.0026992606
35	0x3d98705e	0.07443307
36	0x3ca4a029	0.020095902
37	0xbcda6940	-0.026661515
38	0xbcef73f9	-0.029230105
39	0x3c16a377	0.0091942465
40	0xbbad621f	-0.005291238
41	0x3d86b4b9	0.06577439
42	0x3b82272c	0.003971955
43	0xbc0daddc	-0.008647408
44	0xbd90ec2c	-0.07076296
45	0xbcd167b4	-0.025562145
46	0x3c66569f	0.014058738
47	0xbd181872	-0.037132688
48	0xbceab7ce	-0.028652098
49	0xbd1bf3ac	-0.03807418
50	0xbb2dd547	-0.0026524828
51	0xbceadda3	-0.028670138
52	0xb9d5abe9	-0.0004075461
53	0xbc56e227	-0.013115442
54	0x3cbac123	0.022797173
55	0xbcce01e9	-0.025147395
56	0xbd42da7d	-0.047571648
57	0xbd7909f1	-0.060800496
58	0xbcb927ae	-0.022601929
59	0x3bf7a182	0.007557095
60	0x3b11ca22	0.0022245725
61	0xbd0f055e	-0.034917228
62	0xbc259c94	-0.010108132
63	0x3be3f87a	0.006957111

conv_pep.4.running_mean f4 [64]
0	0xbea3ffaf	-0.3203101
1	0xbce0a352	-0.027421627
2	0xbd5c8f1f	-0.05384743
3	0x3de07f16	0.1096174
4	0x3d26ab84	0.040690914
5	0xbe1aa071	-0.15100266
6	0x3b847749	0.00404254
7	0x3eaaff70	0.33398008
8	0xbe2943a0	-0.16529703
9	0xbeaa7328	-0.33290982
10	0x3e41227d	0.18860812
11	0xbea54cc8	-0.32285142
12	0x3e2ca0b6	0.16858181
13	0x3eda2302	0.42604834
14	0xbe2db042	-0.16961768
15	0x3e49d6f2	0.19710901
16	0xbd5e959e	-0.054341905
17	0xbecfc563	-0.40580282
18	0x3d34dd81	0.044156555
19	0xbe29bd77	-0.16576181
20	0x3e718a22	0.2358785
21	0xbcded52d	-0.02720126
22	0x3dd36d92	0.10323633
23	0x3e1cc70a	0.15310302
24	0x3e09a3eb	0.13441436
25	0xbd13f2bb	-0.036120158
26	0x3d06ae51	0.032881085
27	0xbe6192dc	-0.22028679
28	0x3c36640c	0.0111322515
29	0xbe068ce5	-0.13139684
30	0xbe4569c1	-0.19278623
31	0xbe6a53ca	-0.22883525
32	0x3e432bbd	0.19059654
33	0x3d0e96aa	0.034811653
34	0x3df551ef	0.11978518
35	0xbcef2d0c	-0.029196285
36	0xbe737cfe	-0.2377815
37	0x3e701ad6	0.23447737
38	0xbe50e6e6	-0.20400581
39	0x3dbacc5c	0.0912101
40	0x3d5925e5	0.053014655
41	0xbe2c912d	-0.16852255
42	0x3df9a679	0.12189955
43	0xbe12adc5	-0.143241
44	0x3eed9ce2	0.46408755
45	0xbe53d1a8	-0.20685446
46	0x3e6ac284	0.22925764
47	0x3e89bd3c	0.26902187
48	0xbda812aa	-0.08206685
49	0x3eb61f02	0.35570532
50	0xbe42346d	-0.18965311
51	0x3ea7d54a	0.32779914
52	0x3d3ccb57	0.046092357
53	0x3c7872aa	0.015164057
54	0x3d989c01	0.074516304
55	0xbe70a4af	-0.23500322
56	0x3e4b44c4	0.19850451
57	0xbe5d74f2	-0.21626642
58	0xbec74d30	-0.38926077
59	0xbd524798	-0.05133781
60	0xbeb2ef0d	-0.34948006
61	0xbec37207	-0.38172933
62	0x3df382b8	0.11890167
63	0xbe3c1ae6	-0.18369636

conv_pep.4.running_var f4 [64]
0	0x3e9bf4a0	0.30460072
1	0x3e14090a	0.14456573
2	0x3e9b4d29	0.30332306
3	0x3df69e47	0.12041908
4	0x3e1cb372	0.15302828
5	0x3df05ce8	0.117364705
6	0x3e1e18d9	0.15439166
7	0x3e6d8e57	0.2319883
8	0x3e22451c	0.15846676
9	0x3e5d92ef	0.21638082
10	0x3e66f4a4	0.2255426
11	0x3ef0a520	0.4700098
12	0x3dbd12a5	0.09232072
13	0x3e8d8bd9	0.27645758
14	0x3e054361	0.13013984
15	0x3e2e3876	0.17013726
16	0x3e2252c5	0.15851887
17	0x3e7d423d	0.24732299
18	0x3dac6779	0.08418173
19	0x3e80584c	0.25067365
20	0x3e89c32c	0.26906717
21	0x3e941112	0.28919274
22	0x3e874277	0.26417896
23	0x3ddfb21d	0.10922644
24	0x3e3dcd1a	0.18535271
25	0x3e4ae21f	0.19812821
26	0x3dff516e	0.12466703
27	0x3e5366f1	0.20644738
28	0x3e100791	0.14065386
29	0x3dbf6a5c	0.09346458
30	0x3e356950	0.17715955
31	0x3e839628	0.25700498
32	0x3e4110a7	0.18854009
33	0x3db289ec	0.08717713
34	0x3e3f6328	0.18690169
35	0x3e52128f	0.20514892
36	0x3e3f12e1	0.18659545
37	0x3e8dffdd	0.2773427
38	0x3e72745f	0.23677205
39	0x3deb0792	0.11476053
40	0x3e47b709	0.19503416
41	0x3de704c5	0.112802066
42	0x3e0062eb	0.12537734
43	0x3e254fdc	0.16143745
44	0x3efdd39a	0.49575502
45	0x3eb21280	0.3477974
46	0x3e832327	0.25612757
47	0x3ee2f32a	0.44326144
48	0x3e67ec91	0.22648837
49	0x3eb87221	0.36024573
50	0x3dce9a93	0.100880764
51	0x3eb4d257	0.35316727
52	0x3e100c2b	0.14067142
53	0x3dda3573	0.10654726
54	0x3ddaa84b	0.106766306
55	0x3e070f35	0.13189395
56	0x3e81f034	0.25378573
57	0x3e093e70	0.13402724
58	0x3dd3c293	0.103398465
59	0x3dc26b3d	0.0949311
60	0x3e37940f	0.17927574
61	0x3ef98160	0.48731518
62	0x3dfa149f	0.122109644
63	0x3dfd9bba	0.12383218

conv_pep.6.weight f4 [64, 64, 3]
0	0xbd557c17	-0.052120294
1	0x38e85318	0.000110780995
2	0xbd219c06	-0.039455436
3	0xbd8e9f22	-0.06963946
4	0x3d42a812	0.047523566
5	0xbd48fc37	-0.049068656
6	0xbc2e43ba	-0.010636264
7	0xbd0ad8d7	-0.0338982
8	0x3d61f49d	0.055164922
9	0x3d2f542a	0.042804874
10	0xba95488d	-0.001138942
11	0x3d6cc9d5	0.05780967
12	0x3db67637	0.089092664
13	0xbdc280fc	-0.09497258
14	0xbc8d1840	-0.017223477
15	0xbd29facc	-0.041498944
16	0x3c9f49c0	0.019444346
17	0xbd62c573	-0.055364083
18	0xbcdf89b5	-0.027287344
19	0x3d8e7613	0.069561146
20	0x3d80cd42	0.0628915
21	0xbca74e3c	-0.020423047
22	0x3cb86eec	0.02251383
23	0xbc85c2ab	-0.016328176
24	0x3c7dff2e	0.015502734
25	0xbcf44c5e	-0.029821571
26	0xbb2334f9	-0.00249034
27	0xbd53b6cc	-0.051688
28	0xbb951f60	-0.0045508593
29	0xbd27360f	-0.04082304
30	0xbd990e6c	-0.07473454
31	0x3d9fce5f	0.07803034
32	0x3d778447	0.060428884
33	0xbcd82539	-0.026384937
34	0xbd66c7bf	-0.056342836
35	0xbd457d5b	-0.04821525
36	0x3d8c0f30	0.06838834
37	0x3d629c06	0.055324577
38	0xbc4b420c	-0.0124058835
39	0x3c0bd685	0.008535032
40	0xbd6fe6b0	-0.05856961
41	0x3d660614	0.05615814
42	0xbcf6f84d	-0.030147696
43	0x3c79b030	0.01523976
44	0xbca414fa	-0.020029534
45	0xbc5acae5	-0.013354038
46	0x3dceef29	0.1010421
47	0xbc6b2508	-0.014352091
48	0xbdb57b0c	-0.0886136
49	0xbd9de7f8	-0.0771026
50	0xbceacb08	-0.028661266
51	0xbc4cbeb4	-0.012496639
52	0xbb078c19	-0.002068287
53	0xbb42fd01	-0.0029752853
54	0xbd449dc5	-0.048002023
55	0x3d991ad8	0.07475823
56	0xbdcdf956	-0.10057323
57	0x3b33daa1	0.0027443545
58	0xbd051aa6	-0.032496117
59	0xbd3a7069	-0.04551736
60	0x3d60b7d8	0.054862827
61	0x3dbd48af	0.09242379
62	0x3afbb18a	0.0019202691
63	0xbdd2b809	-0.10289008
64	0x3c64e846	0.013971394
65	0xbcc81193	-0.024422443
66	0xbd4100ca	-0.047119893
67	0xbd1eff3e	-0.038817637
68	0x3c86a53e	0.016436215
69	0xbd8f3a0a	-0.06993492
70	0x3d008dff	0.031385418
71	0xbbbdf6a0	-0.0057972223
72	0x3c9ded10	0.01927808
73	0xbb4d1274	-0.0031291516
74	0xbc8f8866	-0.017521095
75	0xbdbcc55f	-0.09217333
76	0xbcea6935	-0.02861462
77	0x3d16740e	0.036731772
78	0xbd3279e8	-0.04357329
79	0xbb3832a6	-0.002810636
80	0xbb7dd0f2	-0.0038729277
81	0x3d14ce86	0.03632977
82	0x3a5ed59a	0.0008500457
83	0x3d846133	0.06463852
84	0xbd66ae9e	-0.05631887
85	0x3b4dae28	0.0031384323
86	0xbc047342	-0.00808412
87	0x3cdb7c1e	0.026792582
88	0xbc314b07	-0.010821111
89	0xbd4a68fc	-0.049416527
90	0xbd24b12c	-0.040208027
91	0xbd74b472	-0.0597424
92	0x3c35b620	0.011090785
93	0x3ccef354	0.025262512
94	0xbd0893b4	-0.033343986
95	0x3cdb2bfb	0.02675437
96	0xbd3ff02e	-0.046859913
97	0xbd851b26	-0.06499319
98	0x3d8fc12e	0.07019268
99	0xbc01e152	-0.007927256
100	0xbd98f8a1	-0.07469297
101	0xbc01661d	-0.007897881
102	0x3bfecab9	0.0077756313
103	0xbd5417cd	-0.05178051
104	0x3d968188	0.07348925
105	0x3d5221e4	0.051301852
106	0xbb866498	-0.004101347
107	0xbdb560f7	-0.08856385
108	0xbc89252d	-0.01674136
109	0xbd5f165b	-0.05446468
110	0xbd8666e8	-0.065625966
111	0xbd3990cf	-0.045304116
112	0x3c8d4d42	0.017248753
113	0xbc81e8ce	-0.01585808
114	0x3cdd1b6d	0.026990617
115	0xbdb26c8b	-0.08712109
116	0x3d44bf09	0.048033748
117	0x3d2e33f1	0.042530004
118	0x3d9f48e1	0.077775724
119	0x3b3479e5	0.0027538475
120	0x3d107a43	0.035272848
121	0xbda4ad16	-0.08040826
122	0x3db2bdcc	0.08727607
123	0x3d23d9a8	0.040002495
124	0xbc8b0277	-0.016968949
125	0x3d798a83	0.06092311
126	0xbd0c2043	-0.034210455
127	0x3c343cf8	0.011000864
128	0xbc0dd1a2	-0.008655937
129	0xbe00375e	-0.12521121
130	0x3b88f7cd	0.004179931
131	0x3bc12c98	0.0058952086
132	0x3d4bc6a1	0.049749974
133	0x3c8c31a4	0.017113514
134	0xbd83eac5	-0.06441263
135	0x3d812645	0.063061275
136	0x3d13cee6	0.036085986
137	0xbc1009bf	-0.008791386
138	0x3c4317cd	0.01190753
139	0x3da4f2fc	0.08054158
140	0xbd24196c	-0.040063307
141	0xbcde1fb0	-0.02711472
142	0x3d96e69d	0.07368205
143	0xbc0c7d0b	-0.008574734
144	0x3cc1c9f7	0.023655875
145	0xbc687284	-0.014187459
146	0x3cc3caa9	0.023900347
147	0x3db19e8b	0.08672818
148	0x3cae7dfc	0.021300308
149	0x3d948142	0.072512165
150	0xbd892a69	-0.06697542
151	0x3bbd33eb	0.0057740114
152	0xbc0ca247	-0.008583612
153	0xbd5d208b	-0.053986114
154	0xbd371e20	-0.044706464
155	0x3d3a0f75	0.045424897
156	0x3d917ecb	0.07104262
157	0xba54cc8a	-0.0008117637
158	0xbcda11e2	-0.026619855
159	0xbc6590df	-0.014011591
160	0xbd3c4828	-0.04596725
161	0xbd222bb3	-0.039592456
162	0x3d4022b6	0.046908103
163	0x3d0f5ecc	0.035002515
164	0xbcffa4dd	-0.031206543
165	0xbd1df252	-0.038561173
166	0x3ca9271b	0.02064853
167	0xbc80c521	-0.015718998
168	0x3cbe8bb3	0.023259973
169	0x3d1839a2	0.037164338
170	0x3d89ce09	0.06728751
171	0xbbc0565a	-0.005869669
172	0x3db94a2e	0.09047352
173	0xbddf5cdf	-0.10906386
174	0x3d8716fd	0.065961815
175	0xbd8a2b54	-0.067465454
176	0xbd993d6f	-0.07482421
177	0xbd45dd6e	-0.048306875
178	0x3d36e26d	0.04464953
179	0x3d49e817	0.049293604
180	0xbdbe0556	-0.092783615
181	0x3dbe0ebf	0.09280156
182	0x3de8a554	0.11359659
183	0x3d4fb303	0.05070783
184	0x3d86df42	0.06585552
185	0xbd3185b0	-0.043340385
186	0xbd779274	-0.060442403
187	0xbc6e35fe	-0.01453924
188	0x3dc5b064	0.096527845
189	0xbcc8cbf0	-0.024511307
190	0xbc6ef1d0	-0.01458402
191	0xbd694d2e	-0.05695837
192	0x3c318557	0.010835013
193	0x3d441591	0.04787213
194	0x3c5e8b7c	0.01358306
195	0xbce3ecae	-0.027822819
196	0x3c7bd898	0.015371464
197	0x3cc667ab	0.024219355
198	0x3dc0b3c1	0.09409285
199	0x3c96398f	0.018337993
200	0xbceef2b4	-0.029168464
201	0x3d8c684d	0.06855831
202	0xbbeefdf9	-0.0072934595
203	0xbb663b21	-0.0035130458
204	0x3d2cbf9f	0.04217493
205	0xbd38db34	-0.045130923
206	0xbc28a05e	-0.010292141
207	0xbd42d8a8	-0.0475699
208	0x3cd2a7e5	0.025714824
209	0x3ddcd216	0.10782258
210	0x3d1605d8	0.036626667
211	0xbd52b319	-0.051440332
212	0x3b8b4d60	0.004251167
213	0x3d388cef	0.04505628
214	0x3d1f06eb	0.038824957
215	0xbc1724e3	-0.009225103
216	0x3cf8d19f	0.030373393
217	0x3d8b1278	0.06790632
218	0x3d9aa105	0.07550243
219	0x3d35d31e	0.04439079
220	0xbdb59e13	-0.08868041
221	0xbc80df91	-0.015731605
222	0xbd2cb806	-0.042167686
223	0xbd58e618	-0.05295381
224	0x3cf82670	0.030291766
225	0xbc81064c	-0.015750073
226	0x3ce58462	0.028017227
227	0x3d0d549b	0.034504514
228	0x3c318273	0.010834324
229	0x3c0976cb	0.008390139
230	0xbdaf867d	-0.085705735
231	0x3cee5796	0.029094499
232	0xbd5b6950	-0.05356723
233	0x3dd1cf3b	0.10244604
234	0xbdc160fc	-0.094423264
235	0xbd00bf07	-0.031432178
236	0x3d4caacd	0.049967576
237	0xbc255ef0	-0.010093436
238	0xbc5546b7	-0.013017348
239	0x3cc5aacf	0.0241293
240	0x3d8a88b7	0.067643575
241	0xbd39c416	-0.045353018
242	0xbcd74d24	-0.0262819
243	0x3daafbc7	0.08348804
244	0xbd418151	-0.047242466
245	0x3cb15a5c	0.021649532
246	0x3b3e6602	0.00290525
247	0xbda089f2	-0.07838811
248	0xbab293b3	-0.001362434
249	0xbca828aa	-0.020527203
250	0x3d8eb587	0.06968217
251	0x3c45976b	0.012060027
252	0xbc8aff56	-0.016967457
253	0xbd9371f5	-0.0719947
254	0x3d4afa07	0.04955485
255	0xbcf952e2	-0.03043503

conv_pep.6.bias f4 [64]
0	0x3c94f2ed	0.018182242
1	0x3c06f890	0.008237973
2	0xba30c5fe	-0.00067433703
3	0x3d3617a7	0.04445615
4	0x3c796ef4	0.015224207
5	0x3c864999	0.016392516
6	0xbd22e681	-0.039770607
7	0x3d8fd492	0.070229664
8	0x3d15f783	0.036613
9	0x3d4784ce	0.048710637
10	0x3d58b0c5	0.052902956
11	0x3be3775a	0.006941718
12	0x3bae52c3	0.0053199246
13	0xbd1e4886	-0.038643382
14	0x3d0f12ed	0.03493016
15	0x3c08f681	0.008359552
16	0x3d0ee40e	0.03488546
17	0x3cbc8ecc	0.02301731
18	0x3d4d0318	0.05005178
19	0xbc3c087e	-0.011476634
20	0xbd32ce27	-0.043653633
21	0xbd3a7fdf	-0.045532104
22	0xbcc54995	-0.024082938
23	0xbc69fdc8	-0.014281698
24	0x3cdae432	0.02672014
25	0x3c173a6e	0.009230239
26	0xbbef42f0	-0.0073016807
27	0xbc839d68	-0.016066268
28	0xbd639edc	-0.055571422
29	0x3c8e2571	0.017351838
30	0x3d5628d4	0.05228503
31	0xbcb6db16	-0.022321265
32	0xbcda9603	-0.02668286
33	0x3d1a926c	0.037737295
34	0xbd069aa4	-0.03286232
35	0xbd2886ca	-0.04114417
36	0xbd599638	-0.053121775
37	0x3b49950e	0.003075901
38	0xbd3e7aa1	-0.046503667
39	0x3d3e603d	0.0464785
40	0x3d453c5e	0.048153274
41	0xbca35e80	-0.019942522
42	0xbcfd78b2	-0.030941341
43	0xbbe196ab	-0.006884416
44	0xbd44c764	-0.048041716
45	0xbc68d244	-0.0142102875
46	0xbd52f3fa	-0.051502205
47	0xbd8ab65d	-0.06773064
48	0xbd16fec1	-0.036864046
49	0x3d2c56ea	0.042075075
50	0x3d15ff6f	0.036620554
51	0x3d3efadf	0.046625968
52	0x3d5ea241	0.054353956
53	0xbd0b3f3f	-0.033995863
54	0x3d3f96e8	0.046774775
55	0x3c8509ff	0.016240118
56	0x3d89800f	0.06713878
57	0x3d4a709d	0.049423803
58	0x3d71ea6c	0.059061453
59	0xbcffbefc	-0.031218998
60	0xbd36866e	-0.044561796
61	0x3d349f92	0.04409749
62	0x3cb84bdb	0.022497108
63	0xbd297078	-0.041367024

conv_pep.7.weight f4 [64]
0	0x3f827d4d	1.0194489
1	0x3f732b0d	0.94987565
2	0x3f7a33b6	0.97735155
3	0x3f7f6a11	0.9977122
4	0x3f839e48	1.0282679
5	0x3f7a16c1	0.9769097
6	0x3f813d7a	1.0096886
7	0x3f817ff2	1.0117171
8	0x3f81aa8b	1.013017
9	0x3f8020ac	1.0009971
10	0x3f80c3c4	1.0059743
11	0x3f7ef4e7	0.9959244
12	0x3f816155	1.0107828
13	0x3f80dce7	1.0067414
14	0x3f7cbe44	0.9872782
15	0x3f7be24c	0.98392177
16	0x3f7ba0e3	0.9829237
17	0x3f7a2fba	0.97729075
18	0x3f7ab2f2	0.979293
19	0x3f7ef230	0.995883
20	0x3f808e9e	1.0043523
21	0x3f81412b	1.0098013
22	0x3f7c5436	0.98565996
23	0x3f821db4	1.0165315
24	0x3f78f7db	0.972532
25	0x3f7f3c7d	0.9970167
26	0x3f803c52	1.0018408
27	0x3f79bccd	0.9755371
28	0x3f7cbef8	0.98728895
29	0x3f82c1da	1.0215409
30	0x3f8136cf	1.0094851
31	0x3f7793f4	0.96710134
32	0x3f798b2a	0.9747797
33	0x3f7a7aa2	0.9784337
34	0x3f841c68	1.0321169
35	0x3f82727e	1.019119
36	0x3f80dcac	1.0067344
37	0x3f7659f5	0.96231014
38	0x3f798cfd	0.97480756
39	0x3f7f718f	0.9978265
40	0x3f81123f	1.0083693
41	0x3f8134bd	1.009422
42	0x3f7899a7	0.97109455
43	0x3f7a74c3	0.97834414
44	0x3f7baafe	0.9830779
45	0x3f823516	1.017245
46	0x3f7b2286	0.98099554
47	0x3f8063f6	1.0030506
48	0x3f804953	1.0022377
49	0x3f7c273a	0.98497355
50	0x3f7e4441	0.993229
51	0x3f78b08f	0.9714441
52	0x3f7a6b53	0.97820014
53	0x3f7eac49	0.99481636
54	0x3f80022b	1.0000662
55	0x3f7afd42	0.9804269
56	0x3f80b06d	1.0053841
57	0x3f7c4ec3	0.9855768
58	0x3f840e32	1.0316832
59	0x3f7db3c3	0.9910242
60	0x3f7ad06d	0.9797428
61	0x3f800dbd	1.0004193
62	0x3f7ba3d2	0.98296845
63	0x3f7e6e79	0.9938732

conv_pep.7.bias f4 [64]
0	0x3c26136e	0.010136468
1	0xbd7ff3ac	-0.062488243
2	0xbc2bef59	-0.010494077
3	0x3c7ebb0d	0.015547526
4	0x3d0c5bd2	0.034267254
5	0xbccc1f7d	-0.024917359
6	0xbd510816	-0.051033102
7	0x3bf0280e	0.0073289936
8	0xbd0ab10e	-0.03386026
9	0x3c53a935	0.01291876
10	0xbc003cc9	-0.007826992
11	0x3c96fb80	0.018430471
12	0x3bf4d9e9	0.007472266
13	0xbd8e9108	-0.06961256
14	0x3bd4b006	0.00649071
15	0xbd3ef7a7	-0.0466229
16	0xbd312cc8	-0.043255597
17	0xbc91bd35	-0.017790416
18	0xbd54eb32	-0.051982112
19	0x3c86978c	0.016429685
20	0x38fe396f	0.00012122362
21	0x3cd9f6c3	0.026606923
22	0xbd33766c	-0.043814108
23	0x3cf5525a	0.029946495
24	0xbd1e8f99	-0.038711164
25	0x3bd23746	0.0064152805
26	0x3cc315ed	0.023814166
27	0xbcbe9e0b	-0.02326872
28	0xbc5f688a	-0.013635764
29	0x3d08db65	0.033412356
30	0x3c5a673c	0.013330277
31	0xbd1c1723	-0.038108002
32	0x3c9ed9ce	0.019390967
33	0xbc5bc092	-0.013412612
34	0xbcb0cbcf	-0.021581559
35	0xbd3864b0	-0.045017898
36	0x3c3bcd39	0.011462503
37	0xbd8eabc6	-0.06966357
38	0xbc2e999f	-0.010656743
39	0x3ba80819	0.0051279184
40	0xbcf8f6f5	-0.030391196
41	0xbcfaa4e4	-0.030596204
42	0xbd917922	-0.071031824
43	0xbd4bbb9f	-0.049739476
44	0xbd25ebbc	-0.040508017
45	0x3c95d331	0.01828918
46	0xbce8b61f	-0.028407155
47	0xbd603fa3	-0.05474819
48	0xbd3faf89	-0.046798263
49	0xbd63c671	-0.05560917
50	0xbc151e39	-0.009101444
51	0xbd15ca3e	-0.036569826
52	0xbbe40267	-0.006958294
53	0xbd4b6738	-0.049658984
54	0xbd33b488	-0.04387334
55	0xbd846df9	-0.06466288
56	0x3c91b047	0.01778425
57	0x3c0952f0	0.00838159
58	0x3bf6b6e1	0.007529125
59	0xbc9d791a	-0.019222785
60	0xbd917dcd	-0.07104073
61	0x3c671874	0.014104951
62	0xbd83a04a	-0.06427057
63	0x3b2f5d83	0.0026758618

conv_pep.7.running_mean f4 [64]
0	0xbdf5e650	-0.12006819
1	0x3eacfec4	0.3378812
2	0x3cefb762	0.029262248
3	0xbeb17188	-0.3465693
4	0x3de2e8b8	0.11079544
5	0x3d8a67d5	0.06758086
6	0x3e5b10c1	0.2139311
7	0xbe31a168	-0.17346728
8	0xbf04beaf	-0.5185346
9	0xbdb479fc	-0.08812329
10	0xbd4a20d6	-0.04934772
11	0x3d999ad3	0.075002335
12	0xbdfbd081	-0.12295628
13	0xbea62338	-0.32448745
14	0xbe85d2e5	-0.26137462
15	0xbead26db	-0.33818707
16	0xbe86a509	-0.26297787
17	0x3ebd8ac7	0.3701994
18	0x3eaa2208	0.3322909
19	0xbdc8fc6b	-0.0981377
20	0x3e0febb8	0.14054763
21	0xbdefa709	-0.11701781
22	0xbe1b51b7	-0.1516789
23	0xbdbeda28	-0.09318954
24	0xbea8ce00	-0.32969666
25	0x3ef7a7b4	0.48370135
26	0xbde9af68	-0.11410409
27	0xbefa31f2	-0.4886623
28	0xbf25bc3d	-0.64740354
29	0x3e5880f5	0.21142943
30	0x3ea711ae	0.32630676
31	0x3da18c92	0.0788814
32	0x3e481ecb	0.19542997
33	0xbd826600	-0.06367111
34	0xbeb20e53	-0.34776554
35	0xbf5b572e	-0.856799
36	0x3dbd1104	0.09231761
37	0x3f3df852	0.7420703
38	0xbf3253c8	-0.6965909
39	0x3ef7be02	0.48387152
40	0xbee1f6d6	-0.44133633
41	0xbeb4da0d	-0.3532261
42	0xbd4ed191	-0.050492827
43	0xbecd4229	-0.4008954
44	0xbea5c383	-0.32375726
45	0x3e9e5d9f	0.30930802
46	0xbc46c9c9	-0.01213307
47	0x3e37a31e	0.17933318
48	0xbf1aa4a4	-0.6040747
49	0xbeaa89fe	-0.33308405
50	0xbe16eac3	-0.14737992
51	0xbe83d193	-0.2574583
52	0x3dee339d	0.11630938
53	0xbf027a2d	-0.50967675
54	0xbf1c4a26	-0.6105064
55	0x3e5ed7ad	0.21761961
56	0xbe323c6f	-0.17405866
57	0xbdf1511b	-0.11783048
58	0x3e38e729	0.1805693
59	0xbdfa91bd	-0.122348286
60	0xbf14d899	-0.58143
61	0x3d694f4a	0.05696038
62	0x3dde04c3	0.10840752
63	0xbe2adb55	-0.16685231

conv_pep.7.running_var f4 [64]
0	0x3eac7a20	0.33686924
1	0x3eb34f9b	0.35021672
2	0x3f356b8d	0.70867234
3	0x3f1607c8	0.58605623
4	0x3eb63860	0.35589886
5	0x3f1f187d	0.6214674
6	0x3efb38db	0.49066815
7	0x3ea92fb6	0.33044213
8	0x3f0f7e07	0.5605168
9	0x3eb3d717	0.35125038
10	0x3ef6a007	0.48168966
11	0x3e892db0	0.2679267
12	0x3e952189	0.29127148
13	0x3e5f4354	0.21803027
14	0x3f685825	0.907595
15	0x3ecfb4fc	0.40567768
16	0x3e3dd659	0.18538798
17	0x3ed4ccb4	0.41562426
18	0x3e892ee2	0.2679358
19	0x3ebfac7e	0.3743629
20	0x3ebffbcf	0.37496802
21	0x3ea296de	0.31755728
22	0x3e8856a3	0.266286
23	0x3eb3eca2	0.35141474
24	0x3ee73b36	0.45162362
25	0x3e55bff6	0.20874009
26	0x3e8aae30	0.2708602
27	0x3ef0f092	0.4705854
28	0x3f9af6cd	1.2106568
29	0x3e7d3026	0.24725398
30	0x3f1488ec	0.58021426
31	0x3e8f5f51	0.28002408
32	0x3ecae738	0.3962953
33	0x3f9ae16d	1.2100044
34	0x3e954d32	0.29160458
35	0x3e38009d	0.17968984
36	0x3ebe6cec	0.37192476
37	0x3ebead0f	0.37241408
38	0x3ff406da	1.9064591
39	0x3e703e64	0.234613
40	0x3e546a9a	0.2074379
41	0x3e43adf2	0.19109324
42	0x3e8599ea	0.2609399
43	0x3e8ea101	0.2785721
44	0x3e4ad662	0.19808343
45	0x3f0424a9	0.5161844
46	0x3eb2f5ee	0.34953254
47	0x3e606106	0.21912012
48	0x3e81efc5	0.25378242
49	0x3e8156c6	0.25261515
50	0x3e815757	0.25261948
51	0x3f2b10d3	0.66822547
52	0x3f09a99d	0.53774434
53	0x3e952259	0.29127768
54	0x3e7b171a	0.24520531
55	0x3e4b6f15	0.19866593
56	0x3f6bbb84	0.92083
57	0x3f1f486c	0.6221988
58	0x3e402f6b	0.18768089
59	0x3e6f9fca	0.23400798
60	0x3e71f89b	0.23629992
61	0x3edf2af3	0.43587455
62	0x3ea490b9	0.32141665
63	0x3ed54a23	0.41658124
