trained models/DSBSO_finetune/fine_tuned_model_DSBSO_CW.pt (torch, 194792 bytes, 27 tensors)

pep_embed.weight f4 [26, 60]
-1.6428427 -0.4480129 1.6588732 1.143099 0.1914931 -0.33821213 1.6442459 -1.1728196
-0.39607033 0.9812705 -1.8564436 0.7033349 0.27033508 1.3511931 0.21206844 1.0601751
0.07737449 2.595971 -1.2810555 0.81175035 1.0661231 0.53917664 0.11860968 -1.333889
-0.26144958 1.4571377 1.6866161 -0.25711522 -1.2757976 1.0690416 -1.0557047 -0.4115357
-0.681562 0.85028213 -1.2939444 -0.8121658 -2.203686 -2.0165005 0.95164734 0.48801267
2.1175056 0.79830045 -0.010392032 0.11483356 -0.19076914 -2.24292 0.4071194 0.19084646
-0.43050042 -0.20788477 1.1804839 1.0540842 -0.9938943 2.2941546 0.9999801 1.1066873
-0.59615004 0.13482936 0.39099047 -0.3005411 1.9419394 -1.0374181 1.1253421 1.5769545
2.0996504 -2.2013333 -0.95727545 -0.3131715 0.2160466 -0.46214515 0.09874005 1.3985689
-0.5744482 -1.013461 -0.40760544 0.46509057 -1.4162277 2.2628298 0.73421556 -0.26321346
-1.0844103 -1.7919647 -0.17565137 -0.14388727 -0.7290996 -2.0542598 1.0262048 -0.3499351
-1.8632301 0.36438763 1.1040369 -0.31689942 -0.017462205 -0.029540228 -1.8000706 1.2565236
-1.0925767 -0.2972838 1.0152336 0.6354466 0.30156723 0.5387659 -0.0723478 1.1588551
-0.81057495 -0.39336637 0.75158733 -0.5716625 -1.2543044 0.77620494 -1.3291029 -1.7298819
0.36765146 1.0567034 -2.0411897 -0.43855464 3.0690935 -0.26899236 -0.517863 -1.5863333
0.52691853 -0.48562944 0.24319643 -0.50672424 -2.1424453 -1.7244372 0.25091377 1.0106181
-0.3447897 1.5107049 1.3002932 -0.07854219 -0.15682502 0.3483393 0.37756205 -0.76767445
-0.13597141 -0.52308935 -0.6562904 -1.0565679 0.09760658 -0.8264706 0.008353841 1.3589543
-0.6247585 1.1715794 -0.09534203 -1.7458405 -0.10066697 0.93605465 -0.5137718 -0.2433762
0.6241409 0.36054462 0.6848766 -1.1421854 -1.6132262 -1.8447492 -0.1547912 -0.7710953
0.9912203 1.1044791 -0.7678136 0.13315216 1.0095302 -0.15546167 0.26760772 0.4016959
0.22358519 0.2394818 0.78805363 0.31980947 1.4762112 -3.1884668 1.2922207 1.2401001
0.24667788 -0.5587604 0.40513125 -0.12041666 -1.1375835 -0.069016166 0.21655308 2.5308568
-0.61798024 -0.17740019 -0.1231687 0.83622944 0.21440603 1.6823391 -0.38600346 0.26770332
-0.1444316 -0.59300876 0.24501154 0.12432374 -0.008446005 -1.7102985 1.2394658 -2.1885147
0.64985293 0.24222799 -0.7363296 -0.15497313 0.14736806 -0.27491787 0.46653342 1.4295448
-0.394385 0.5592868 0.17741287 -0.55487955 0.51751375 0.7708458 -2.403371 0.07090497
-0.2916325 -0.9258127 -2.0163863 0.12937129 1.7546144 2.4098585 0.8964592 0.03787595
-0.831576 0.854728 1.1180935 1.5669141 1.3097776 -0.34494135 -0.35375813 0.5561716
-0.02945684 -1.0891185 0.018933333 -0.7609249 -0.6563642 0.83607 0.29355666 0.83001477
1.4926871 -0.2288414 -0.34873572 0.31321958 0.52190495 0.22533464 0.22491342 -0.30418205
-1.5456063 1.0987686 -1.413943 -0.72240657 0.11356853 1.7462023 0.13278419 0.3168287
00000000: ab48 d2bf f261 e5be f555 d43f 1151 923f
00000010: c416 443e 242a adbe a676 d23f f41e 96bf
00000020: bbc9 cabe 8b34 7b3f f29f edbf c20d 343f
00000030: 5c69 8a3e e5f3 ac3f 7828 593e d1b3 873f
00000040: 8476 9e3d 6424 2640 a0f9 a3bf dfce 4f3f
00000050: b976 883f 7b07 0a3f a2e9 f23d e0bc aabf
00000060: b8dc 85be 7d83 ba3f 09e3 d73f 9ba4 83be
00000070: 564d a3bf 5bd6 883f 5521 87bf cfb4 d2be
00000080: d97a 2ebf 17ac 593f f89f a5bf 19ea 4fbf
00000090: 3109 0dc0 580e 01c0 299f 733f ccdc f93e
000000a0: 3685 0740 6b5d 4c3f 5743 2abc dc2d eb3d
000000b0: fc58 43be 008c 0fc0 f471 d03e 416d 433e
000000c0: 8d6a dcbe bfdf 54be 191a 973f 3bec 863f
000000d0: db6f 7ebf 6ed3 1240 b2fe 7f3f eea7 8d3f
000000e0: 4a9d 18bf b510 0a3e e72f c83e 86e0 99be
000000f0: 7891 f83f 1eca 84bf 360b 903f a5d9 c93f
00000100: ac60 0640 a5e2 0cc0 0110 75bf 0458 a0be
00000110: 523b 5d3e 4a9e ecbe 3938 ca3d 4e04 b33f
00000120: 0a0f 13bf 17b9 81bf a9b1 d0be 5a20 ee3e
00000130: f346 b5bf 34d2 1040 8df5 3b3f eac3 86be
00000140: f5cd 8abf 195f e5bf f4dd 33be 2f57 13be
00000150: 45a6 3abf fe78 03c0 ae5a 833f b22a b3be
00000160: 537e eebf 0491 ba3e 1551 8d3f a440 a2be
00000170: e60c 8fbc 59fe f1bc b768 e6bf c4d5 a03f
00000180: 8ed9 8bbf 9535 98be 2df3 813f a1ac 223f
00000190: 0567 9a3e 90ec 093f 152b 94bd 5d55 943f
000001a0: d781 4fbf 5167 c9be 0768 403f 7958 12bf
000001b0: 0c8d a0bf 5eb5 463f 0b20 aabf c56c ddbf
000001c0: d03c bc3e 0f42 873f daa2 02c0 3c8a e0be
000001d0: 076c 4440 5eb9 89be ab92 04bf f80c cbbf
000001e0: 22e4 063f 6ca4 f8be 7c08 793e aeb8 01bf
000001f0: d31d 09c0 5cba dcbf c577 803e ef5b 813f
00000200: 4788 b0be c75e c13f 0270 a63f bada a0bd
00000210: bd96 20be 8759 b23e d04f c13e 5086 44bf
00000220: 173c 0bbe 2fe9 05bf a602 28bf 9e3d 87bf
00000230: f5e5 c73d 9493 53bf 8cde 083c 37f2 ad3f
00000240: 2cf0 1fbf 50f6 953f af42 c3bd b477 dfbf
00000250: 7c2a cebd 47a1 6f3f 8c86 03bf 9c37 79be
00000260: b3c7 1f3f 4e99 b83e 1354 2f3f 2233 92bf
00000270: 327e cebf be20 ecbf 9681 1ebe 8066 45bf
00000280: 9dc0 7d3f 925f 8d3f 6f8f 44bf 0a59 083e
00000290: 4938 813f 5831 1fbe e103 893e 16ab cd3e
000002a0: 84f3 643e b83a 753e e2bd 493f 11be a33e
000002b0: 7df4 bc3f d70f 4cc0 7d67 a53f 9abb 9e3f
000002c0: 2099 7c3e ec0a 0fbf 5d6d cf3e 039d f6bd
000002d0: 569c 91bf 5958 8dbd 17c0 5d3e 8ff9 2140
000002e0: f433 1ebf 65a8 35be df3f fcbd 2213 563f
000002f0: 418d 5b3e e356 d73f 3fa2 c5be 6910 893e
00000300: e1e5 13be 6ccf 17bf 4ee4 7a3e 729d fe3d
00000310: 1d61 0abc 10eb dabf d1a6 9e3f a010 0cc0
00000320: c35c 263f 9d0a 783e 1980 3cbf 47b1 1ebe
00000330: a7e7 163e 09c2 8cbe 78dd ee3e 53fb b63f
00000340: d5ec c9be 6b2d 0f3f b8ab 353e 960c 0ebf
00000350: c87b 043f 2656 453f d5d0 19c0 a036 913d
00000360: db50 95be 1002 6dbf 790c 01c0 e879 043e
00000370: 3497 e03f 1f3b 1a40 5a7e 653f d023 1b3d
00000380: 2ae2 54bf 74cf 5a3f b01d 8f3f a490 c83f
00000390: cba6 a73f 279c b0be c91f b5be 4361 0e3f
000003a0: 794f f1bc 3c68 8bbf 141a 9b3c f9cb 42bf
000003b0: 7c07 28bf af08 563f 0f4d 963e d97b 543f
000003c0: 5f10 bf3f 6655 6abe 7d8d b2be 515e a03e
000003d0: 909b 053f 20be 663e b44f 663e c0bd 9bbe
000003e0: 6dd6 c5bf 73a4 8c3f 16fc b4bf a3ef 38bf
000003f0: 9e96 e83d 8f83 df3f 94f8 073e 5f37 a23e

mod_embed.weight f4 [4, 4]
-0.39722583 0.8290173 1.6660006 0.9517497 -1.4939926 0.71670353 -1.7830003 1.6114106
-0.6933221 -0.539611 0.7657489 -0.6790434 1.3503 -2.1676078 1.1754825 -0.83005196
00000000: 2f61 cbbe 7a3a 543f 823f d53f dea5 733f
00000010: 263b bfbf e279 373f 5b39 e4bf b442 ce3f
00000020: 8f7d 31bf f223 0abf 1f08 443f cad5 2dbf
00000030: a1d6 ac3f 16ba 0ac0 3676 963f 497e 54bf

conv_pep.0.weight f4 [16, 64, 3]
-0.03322724 0.025013462 0.031651877 -0.049237687 -0.01298948 -0.08914463 -0.004063678 0.013244702
0.06340023 0.038831856 0.06331045 -0.06036125 -0.09046223 0.043408774 0.02851766 0.06762275
-0.0803965 -0.048294533 -0.01273724 -0.11095391 -0.015780343 -0.088000394 -0.008455362 -0.017498272
0.05273635 0.030276228 -0.06346636 0.021780966 -0.051939882 -0.027488548 -0.07124308 -0.023305168
-0.030468147 -0.1100698 0.034512874 -0.1352939 0.09649048 0.000496114 -0.030640488 -0.07531889
0.00033297014 0.0396909 -0.09064707 -0.015790569 -0.09220295 -0.096889384 0.07390878 0.038445596
0.024513792 0.061489914 -0.040914714 -0.055869285 0.044328667 -0.026488394 -0.026993025 -0.019898783
-0.054769758 -0.058457762 -0.026691806 0.007135277 0.06003514 -0.026466778 -0.050646737 0.06387442
-0.07389059 -0.021955198 -0.05213039 0.054639596 0.103740975 -0.08731024 -0.020735338 -0.075318635
-0.035644524 0.01766956 -0.06228317 -0.013341374 0.05701156 -0.0132431425 -0.007207755 -0.000417031
-0.05784695 0.060715664 -0.031811472 0.04711132 0.019049646 0.02803171 0.03205698 0.057816446
0.08827752 0.09991043 0.003818473 0.013611285 -0.019885205 -0.10426119 0.011215966 -0.1041446
-0.041197006 -0.0056564063 0.013921259 0.039857876 0.10067976 -0.08280577 -0.08571661 -0.08648061
0.037938975 -0.049348466 0.0134818675 -0.054739438 -0.037489817 -0.02171293 0.025597986 0.053218294
-0.049415402 0.017789625 0.03990345 -0.045613363 0.054354828 0.10702736 -0.058502283 0.041873183
-0.053216025 0.05555068 -0.02543031 -0.07163566 0.09502611 0.030469209 -0.0008142721 0.023442069
0.037974544 -0.17859744 0.053172518 -0.056498565 -0.015037031 -0.019414796 -0.08321756 -0.0019539911
-0.070780665 -0.0471179 -0.072445676 -0.054949027 0.021794735 0.016569823 -0.04490154 0.027095439
-0.010515208 0.04826004 -0.07753718 0.02103759 0.047014367 -0.106729284 -0.013147764 0.038044203
-0.036479533 0.09468245 0.08425816 0.07810166 -0.02300499 -0.0053311544 -0.06199047 -0.0065368405
-0.0682307 0.041749265 0.04870543 -0.027099015 -0.05784223 0.04541359 0.0005658622 -0.10767446
-0.043562572 0.11126616 0.041983303 -0.0069845775 0.06250746 0.11137016 -0.04108362 0.048129406
-0.09671834 -0.032732148 -0.04884113 0.040549044 0.13075098 0.11512748 0.009815288 0.114210874
0.09350196 -0.004954785 0.08369985 0.0800585 -0.019305887 0.009493757 -0.08347564 0.069986954
-0.063137874 0.011817709 -0.033006053 -0.069545425 0.0138718765 0.07273579 0.054016422 0.029481279
0.03326672 0.051080823 0.12304543 0.15497097 -0.007967811 0.03336931 -0.05453429 -0.03431865
-0.019375864 -0.015071879 0.10309653 0.0072128614 -0.008954625 -0.028776629 0.030133503 0.018155543
0.028230129 0.023525314 -0.074848995 0.058521207 -0.06529056 -0.031460952 -0.08821286 -0.0687954
0.09862061 -0.05790768 -0.058437318 -0.042390544 0.010802514 -0.027443616 0.07840257 0.012395138
0.0471064 0.015629776 0.093037955 -0.05022562 0.040974062 0.045406695 -0.05439369 0.022035714
-0.010575674 -0.0014906197 0.04988077 0.01863814 -0.025661545 -0.01955035 -0.0020392467 0.04212056
0.05971075 -0.015079431 0.054847766 -0.04435888 -0.053119507 -0.018802198 -0.09165033 -0.015508343
00000000: 4919 08bd 08e9 cc3c 66a5 013d 75ad 49bd
00000010: d4d1 54bc 7691 b6bd 9a28 85bb 4e00 593c
00000020: fbd7 813d 270e 1f3d e9a8 813d 5c3d 77bd
00000030: 4344 b9bd 66cd 313d de9d e93c cc7d 8a3d
00000040: eca6 a4bd 7dd0 45bd dbaf 50bc ce3b e3bd
00000050: c745 81bc 8d39 b4bd 5c88 0abc 8958 8fbc
00000060: 1202 583d da05 f83c a7fa 81bd ff6d b23c
00000070: eabe 54bd aa2f e1bc e4e7 91bd 7bea bebc
00000080: 5698 f9bc 466c e1bd 5f5d 0d3d 7c8a 0abe
00000090: cd9c c53d a60d 023a c301 fbbc ca40 9abd
000000a0: 7f92 ae39 ed92 223d 2ca5 b9bd 395b 81bc
000000b0: e6d4 bcbd f16d c6bd 7d5d 973d 2179 1d3d
000000c0: 26d1 c83c d9dc 7b3d 3096 27bd 31d7 64bd
000000d0: fa91 353d 30fe d8bc 7a20 ddbc c602 a3bc
000000e0: 4156 60bd 6871 6fbd c6a8 dabc 0bcf e93b
000000f0: 68e7 753d dbd0 d8bc f472 4fbd 98d0 823d
00000100: f353 97bd 63db b3bc ad86 55bd c5cd 5f3d
00000110: 2676 d43d b6cf b2bd 28dd a9bc a840 9abd
00000120: feff 11bd c1bf 903c a31c 7fbd c795 5abc
00000130: f484 693d c4f9 58bc 082f ecbb f4a4 dab9
00000140: ecf0 6cbd fdb0 783d bf4c 02bd cdf7 403d
00000150: 010e 9c3c c2a2 e53c 2e4e 033d f0d0 6c3d
00000160: d8ca b43d d79d cc3d 593f 7a3b de01 5f3c
00000170: 4ce6 a2bc e486 d5bd 2cc3 373c c449 d5bd
00000180: 31be 28bd 6059 b9bb fe15 643c 0342 233d
00000190: 3131 ce3d 1296 a9bd 318c afbd bf1c b1bd
000001a0: e665 1b3d 9e21 4abd 0de3 5c3c 7636 60bd
000001b0: ec8e 19bd 51df b1bc deb2 d13c 6dfb 593d
000001c0: ce67 4abd 8cbb 913c cd71 233d 14d5 3abd
000001d0: 2ba3 5e3d 2931 db3d 17a0 6fbd 3783 2b3d
000001e0: 0cf9 59bd 1c89 633d 3a53 d0bc b8b5 92bd
000001f0: 0d9d c23d 909a f93c e074 55ba 9509 c03c
00000200: 328b 1b3d 3fe2 36be 6dcb 593d 0a6b 67bd
00000210: e15d 76bc c70b 9fbc f86d aabd 880e 00bb
00000220: 74f5 90bd b3fe 40bd 665e 94bd 3b12 61bd
00000230: df8a b23c 70bd 873c adea 37bd 41f7 dd3c
00000240: fb47 2cbc 52ac 453d d0cb 9ebd 0657 ac3c
00000250: 2392 403d e294 dabd b869 57bc 3dd4 1b3d
00000260: 906b 15bd dfe8 c13d 8b8f ac3d c3f3 9f3d
00000270: f674 bcbc f7b0 aebb b8e9 7dbd fe32 d6bb
00000280: 8abc 8bbd 4701 2b3d 587f 473d c1fe ddbc
00000290: f9eb 6cbd 9a03 3a3d 5f56 143a 6d84 dcbd
000002a0: ab6e 32bd 83df e33d aff6 2b3d e2de e4bb
000002b0: e903 803d 0a16 e43d 4c47 28bd 5723 453d
000002c0: 4414 c6bd 2512 06bd a30d 48bd c116 263d
000002d0: 96e3 053e f5c7 eb3d 4dd0 203c 64e7 e93d
000002e0: f57d bf3d c05b a2bb d46a ab3d b6f5 a33d
000002f0: 6127 9ebc b48b 1b3c 47f5 aabd 5255 8f3d
00000300: 6e4e 81bd 109f 413c 5b31 07bd d56d 8ebd
00000310: de46 633c 80f6 943d 5340 5d3d b982 f13c
00000320: af42 083d 203a 513d 3eff fb3d b6b0 1e3e
00000330: 6c8b 02bc 42ae 083d 595f 5fbd b691 0cbd
00000340: 22ba 9ebc 0bf0 76bc 4624 d33d de59 ec3b
00000350: 6bb6 12bc f7bc ebbc 89da f63c efba 943c
00000360: df42 e73c 29b8 c03c 6e4a 99bd efb3 6f3d
00000370: 0fb7 85bd 33dd 00bd f2a8 b4bd 9ae4 8cbd
00000380: 9af9 c93d 9a30 6dbd f85b 6fbd b5a1 2dbd
00000390: 07fd 303c 6fd1 e0bc 8791 a03d fa14 4b3c
000003a0: a4f2 403d 040a 803c af8a be3d 61b9 4dbd
000003b0: 6bd4 273d 5ffc 393d ebcb 5ebd 3e84 b43c
000003c0: 9745 2dbc e660 c3ba c74f 4c3d 03af 983c
000003d0: 2938 d2bc 0e28 a0bc e2a4 05bb 9c86 2c3d
000003e0: 4293 743d b80f 77bc 0da8 603d a8b1 35bd
000003f0: d793 59bd 1107 9abc 2bb3 bbbd b516 7ebc

conv_pep.0.bias f4 [16]
0.046801645 -0.046704672 0.04408667 0.034310747 1.1315197e-07 0.003752989 0.09176663 -0.0066167815
-0.014777495 0.07577223 0.105017565 0.037042595 0.031180572 -0.017739676 -0.006236292 0.061864898
00000000: 15b3 3f3d 664d 3fbd 3994 343d 6d89 0c3d
00000010: f4fd f233 b5f4 753b 25f0 bb3d 96d1 d8bb
00000020: 4e1d 72bc 792e 9b3d 7313 d73d fab9 173d
00000030: 666e ff3c cc52 91bc cf59 ccbb 0c66 7d3d

conv_pep.1.weight f4 [16]
1.0097562 1.0323701 0.9611144 0.9569891 1.0332341 0.9817464 1.0011065 1.0381668
1.0075568 0.9749282 1.0775456 1.0071006 1.0285921 0.9934058 0.9791023 0.9418136
00000000: b13f 813f b424 843f 980b 763f 3dfd 743f
00000010: 0441 843f bb53 7b3f 4224 803f a6e2 843f
00000020: 9ff7 803f e594 793f 04ed 893f ace8 803f
00000030: e8a8 833f d84f 7e3f 73a6 7a3f b21a 713f

conv_pep.1.bias f4 [16]
-0.05717444 -0.060410667 -0.009201549 -0.019481365 0.011431018 -0.034432497 0.011232915 0.10330217
-0.042762563 -0.048103794 0.0020069587 -0.039490018 -0.0045458493 0.07542785 -0.005007145 -0.09685807
00000000: bf2f 6abd 2d71 77bd 18c2 16bc 6297 9fbc
00000010: 2a49 3b3c 1709 0dbd 430a 383c 1790 d33d
00000020: cc27 2fbd 7c08 45bd 2e87 033b 49c0 21bd
00000030: 59f5 94bb eb79 9a3d fa12 a4bb 865d c6bd

conv_pep.1.running_mean f4 [16]
1.1941731 0.52366996 1.14729 -1.0281934 0.93833137 -0.22087304 -0.8601249 -0.09107847
-0.5462673 -1.4706844 0.67361575 -1.181156 0.18954723 -0.29435325 -1.466919 -1.7898694
00000000: aada 983f 3c0f 063f 66da 923f d79b 83bf
00000010: 7c36 703f 8b2c 62be 2531 5cbf 5987 babd
00000020: 2cd8 0bbf 633f bcbf 1572 2c3f 1f30 97bf
00000030: ab18 423e 78b5 96be 00c4 bbbf 711a e5bf

conv_pep.1.running_var f4 [16]
0.6981481 0.8159118 0.8612219 0.5512288 0.45822945 0.57027715 0.47583422 0.38054162
0.2945452 1.0515474 0.40507075 0.8900144 0.4223021 0.5062393 1.0287508 0.664678
00000000: d5b9 323f 99df 503f 0a79 5c3f 551d 0d3f
00000010: 0d9d ea3e affd 113f 8ba0 f33e 5ad6 c23e
00000020: a1ce 963e 1b99 863f 6f65 cf3e fcd7 633f
00000030: fb37 d83e e698 013f 1bae 833f 5628 2a3f

conv_pep.3.weight f4 [64, 16, 3]
-0.006341457 0.030794205 -0.0015453794 -0.11485885 0.070760295 0.1824916 0.053223733 0.047869835
-0.08245108 0.026002167 0.1418901 -0.09367925 -0.030250903 -0.08092079 0.16211192 0.062846154
0.13102461 -0.13308047 -0.074199505 0.13056418 -0.0521249 0.03169125 -0.070004486 0.047001768
-0.09097186 -0.029444523 -0.1455171 0.06431603 0.06652794 0.10880567 0.087352216 -0.0926508
0.082844526 -0.08128099 0.025033826 -0.16681376 0.110692225 -0.05944846 0.0077104014 -0.033792302
-0.03032794 0.1331932 0.06106394 -0.08922806 0.030090565 0.097057015 0.036163975 -0.05018651
0.1042647 0.11124456 -0.15087074 -0.04270307 -0.028322445 -0.09710785 -0.036704607 0.11578676
-0.0004971046 -0.08968461 0.04242194 0.021747721 -0.051416535 -0.03698544 0.0075416868 0.10381087
-0.15595607 0.03995511 -0.019816041 -0.009615166 -0.11054426 -0.1008274 -0.109607704 0.08072148
0.03739896 0.0233896 0.12921162 0.16069247 0.03432371 -0.084926054 0.08021066 -0.026440836
0.08018855 -0.2067145 0.08400732 -0.09058207 -0.10589936 0.11208653 -0.0954499 -0.1576843
-0.09115896 0.08512423 -0.0056575406 0.1099505 0.069558874 -0.071819 0.074956805 -0.12552473
-0.05357718 0.063261576 0.14046238 0.08147944 -0.042142607 -0.044763375 -0.072723985 0.11231719
0.0003144483 -0.044344548 0.003964775 -0.115003236 0.17615707 0.12648205 -0.10932026 -0.09621076
-0.09676281 0.17372015 0.10286878 0.13666946 -0.0809431 0.11095687 0.13102902 -0.11675591
-0.02440785 0.11485803 -0.0376758 -0.069475524 0.08759358 -0.01773816 0.010240654 0.012512192
-0.013145118 0.019679496 0.11702707 -0.090564944 0.14791963 0.0324667 -0.054949254 0.1510604
0.09376544 -0.12004145 -0.008424105 -0.09830833 0.07516357 0.091455184 0.17480958 -0.05391838
0.042349223 0.062669575 0.11025543 0.085459486 -0.04338492 0.15271401 0.1093183 -0.09989028
-0.03680248 -0.17245464 -0.09157753 -0.15698257 -0.15615252 -0.103732355 -0.067067176 0.034379795
0.110234074 -0.011105327 0.10734131 0.09495 -0.14573723 -0.14188474 -0.16666035 -0.082641564
0.09992033 0.17423196 0.19328211 0.036993183 0.04410432 0.017463049 0.028105266 0.0018332328
0.0063443 -0.081882186 0.13577665 0.053144593 0.008230402 -0.025275353 -0.057120174 0.10563666
0.12833181 -0.098544836 -0.10302016 -0.052492753 -0.098919794 -0.054071043 0.09787626 -0.098616116
-0.02201079 0.05595685 -0.05256066 0.20221257 0.11955239 0.09470621 -0.101708874 0.013556337
-0.0712903 -0.02438807 -0.0096943015 -0.0551223 -0.030002834 -0.03854767 0.011293314 -0.026191099
-0.025218643 0.042089675 -0.21579593 -0.11074138 0.1504738 0.07949066 0.08529983 -0.14465193
-0.11880487 0.120726556 0.09146145 -0.0031056504 0.11710884 0.008005439 -0.015374426 -0.18805201
0.0025995325 -0.010600761 0.07338531 -0.018270625 0.030030312 -0.026601203 0.03273759 0.083298616
0.09058471 0.12889896 -0.20038524 -0.10505902 0.0680736 0.0335362 -0.09245728 0.10493472
-0.083135754 0.09370389 -0.23800738 -0.0045494824 -0.012731812 -0.09327335 -0.16107424 0.082055934
-0.1427681 -0.008459123 0.16281796 0.012967614 -0.018908933 -0.1489688 0.020082034 0.108452894
00000000: ffcb cfbb 2144 fc3c 548e caba 1e3b ebbd
00000010: c6ea 903d 14df 3a3e 2101 5a3d 2913 443d
00000020: 1ddc a8bd 7f02 d53c a34b 113e e8da bfbd
00000030: bed0 f7bc cdb9 a5bd ab00 263e 7cb5 803d
00000040: 512b 063e 3f46 08be e9f5 97bd 9eb2 053e
00000050: eb80 55bd afce 013d 835e 8fbd ed84 403d
00000060: 744f babd a435 f1bc 6f02 15be 1fb8 833d
00000070: cd3f 883d 82d5 de3d b8e5 b23d b4bf bdbd
00000080: 64aa a93d a676 a6bd bd13 cd3c 3ad1 2abe
00000090: 9bb2 e23d 3a80 73bd 89a7 fc3b cc69 0abd
000000a0: 4d72 f8bc cc63 083e 2f1e 7a3d 33bd b6bd
000000b0: 7d80 f63c d4c5 c63d ad20 143d 5f90 4dbd
000000c0: bb88 d53d 30d4 e33d dc7d 1abe 6ae9 2ebd
000000d0: 7904 e8bc 7be0 c6bd 9257 16bd 9c21 ed3d
000000e0: 2050 02ba 91ac b7bd a1c2 2d3d 4728 b23c
000000f0: 259a 52bd 0b7e 17bd 4120 f73b cb9a d43d
00000100: f3b2 1fbe f8a7 233d 4055 a2bc ee88 1dbc
00000110: 0765 e2bd 997e cebd 017a e0bd 4e51 a53d
00000120: a72f 193d 8c9b bf3c 0d50 043e 918c 243e
00000130: 0597 0c3d b6ed adbd 7d45 a43d 749a d8bc
00000140: e539 a43d f7ac 53be 080c ac3d 1883 b9bd
00000150: c3e1 d8bd 9f8d e53d 3d7b c3bd fe77 21be
00000160: 8cb1 babd 9d55 ae3d e462 b9bb ba2d e13d
00000170: e274 8e3d d715 93bd f482 993d 8e89 00be
00000180: bf73 5bbd 498f 813d 5fd5 0f3e b1de a63d
00000190: ba9d 2cbd cd59 37bd 50f0 94bd 8e06 e63d
000001a0: 89dc a439 a1a2 35bd f1ea 813b d186 ebbd
000001b0: 8562 343e 8384 013e 4de3 dfbd 260a c5bd
000001c0: 952b c6bd b2e3 313e deac d23d 14f3 0b3e
000001d0: 7fc5 a5bd 5b3d e33d 792c 063e b91d efbd
000001e0: f9f2 c7bc b03a eb3d f151 1abd 2f49 8ebd
000001f0: 4364 b33d 9e4f 91bc 6bc8 273c f0ff 4c3c
00000200: 9f5e 57bc e536 a13c e3ab ef3d 1d7a b9bd
00000210: 3e78 173e cdfb 043d 7812 61bd 94af 1a3e
00000220: 1808 c03d 4bd8 f5bd 4205 0abc e155 c9bd
00000230: 5cef 993d db4c bb3d 4801 333e 85d9 5cbd
00000240: 6176 2d3d e858 803d 99cd e13d 6205 af3d
00000250: 63b4 31bd 1061 1c3e 46e2 df3d 4693 ccbd
00000260: 33be 16bd f397 30be 008d bbbd 0ac0 20be
00000270: 72e6 1fbe a171 d4bd 845a 89bd d4d1 0c3d
00000280: 67c2 e13d 1ef3 35bc c3d5 db3d 2575 c23d
00000290: 243c 15be 3c4a 11be 03a9 2abe fb3f a9bd
000002a0: 08a3 cc3d dd69 323e bfeb 453e 2a86 173d
000002b0: bba6 343d ab0e 8f3c 043d e63c 1649 f03a
000002c0: d9e3 cf3b d9b1 a7bd 0909 0b3e 25ae 593d
000002d0: cfd8 063c 420e cfbc d8f6 69bd 0858 d83d
000002e0: 6a69 033e e0d1 c9bd 3cfc d2bd a402 57bd
000002f0: 7696 cabd 9979 5dbd 5973 c83d 3ff7 c9bd
00000300: f94f b4bc 0333 653d d949 57bd d010 4f3e
00000310: e2d7 f43d 54f5 c13d be4c d0bd 661b 5e3c
00000320: a600 92bd 7dc9 c7bc d9d4 1ebc ecc7 61bd
00000330: 81c8 f5bc 29e4 1dbd 9807 393c b78e d6bc
00000340: 5497 cebc 3966 2c3d 9cf9 5cbe 60cc e2bd
00000350: ce15 1a3e 00cc a23d adb1 ae3d a31f 14be
00000360: f84f f3bd 7c3f f73d 2450 bb3d 2b88 4bbb
00000370: c2d6 ef3d 3f29 033c 04e5 7bbc b590 40be
00000380: eb5c 2a3b d0ae 2dbc 0a4b 963d 47ac 95bc
00000390: 2102 f63c c4ea d9bc da17 063d 7798 aa3d
000003a0: 7a84 b93d 17fe 033e ca31 4dbe 2f29 d7bd
000003b0: 2c6a 8b3d 415d 093d 3e5a bdbd 04e8 d63d
000003c0: 1443 aabd d3e7 bf3d 35b8 73be d313 95bb
000003d0: 1799 50bc 1906 bfbd a5f0 24be f10c a83d
000003e0: cd31 12be 2298 0abc c0b9 263e 1e76 543c
000003f0: e8e6 9abc 478b 18be 1483 a43c 8d1c de3d

conv_pep.3.bias f4 [64]
0.15411346 0.02880433 0.15218489 0.054214083 -0.044321936 0.08875979 -0.09070039 0.042726595
0.066521466 -0.08307737 0.095248595 0.12036502 0.025825098 0.08981934 -0.09812463 -0.10208612
0.02726212 -0.07523222 0.065684535 -0.07002685 0.08757339 0.08220285 0.049730856 0.023943003
-0.06477422 0.061486606 0.08243761 -0.0013614538 -0.1328946 -0.043736048 -0.12044579 -0.10405969
-0.020038668 0.0435698 0.00020526515 -0.0052569346 -0.052215792 0.13357516 -0.09822023 -0.100695506
-0.13812335 0.015830401 0.0713864 0.057486303 -0.070893414 -0.14839816 0.087909 -0.11268265
0.03874481 0.106449574 0.021892708 -0.043271575 -0.09759213 0.043534182 0.06075867 -0.031616826
0.035228956 0.069360964 0.16588977 -0.01782451 -0.100602075 0.090209655 0.09788179 -0.1109369
00000000: ebcf 1d3e 0ff7 eb3c 5bd6 1b3e 960f 5e3d
00000010: eb8a 35bd b1c7 b53d 20c1 b9bd 1502 2f3d
00000020: 683c 883d 7824 aabd b211 c33d f081 f63d
00000030: 288f d33c 34f3 b73d 91f5 c8bd 8712 d1bd
00000040: cf54 df3c 5a13 9abd 9d85 863d 3d6a 8fbd
00000050: ad59 b33d f859 a83d 95b2 4b3d 1e24 c43c
00000060: 59a8 84bd 61d9 7b3d 0dd5 a83d cf72 b2ba
00000070: 8615 08be 9224 33bd 48ac f6bd 3f1d d5bd
00000080: 2228 a4bc 3f76 323d 723c 5739 5d42 acbb
00000090: 3ae0 55bd edc7 083e b027 c9bd 7239 cebd
000000a0: 3570 0dbe c2ae 813c 0833 923d c276 6b3d
000000b0: 9130 91bd b0f5 17be a209 b43d 29c6 e6bd
000000c0: e1b2 1e3d 3c02 da3d 5658 b33c 893d 31bd
000000d0: 62de c7bd e650 323d 15de 783d a580 01bd
000000e0: 3d4c 103d 1f0d 8e3d 02df 293e b504 92bc
000000f0: 7608 cebd d7bf b83d 3f76 c83d e332 e3bd

conv_pep.4.weight f4 [64]
0.998471 1.0841349 0.95094705 1.0331686 1.0283349 0.9401928 1.083978 0.935805
1.0661117 0.98144317 0.89986724 0.9820756 0.93884367 1.1161498 0.9507254 1.07475
1.0522141 0.9503431 1.1139488 0.9830189 1.0831399 1.1342626 1.0755951 0.9755629
0.947652 1.0437281 1.0490978 1.0148282 1.0789089 0.9506995 0.9697713 1.1301842
1.0310166 0.9985759 1.0267788 1.0411189 0.99748766 0.99557185 0.97143507 0.9704958
1.0729451 0.9764859 0.96307975 0.8896377 0.9960464 1.0298921 0.9725414 0.94062465
0.9574731 0.962048 0.9436714 0.941935 1.0897115 1.0431623 1.029743 0.96969527
1.0392777 1.0242724 1.0037524 1.0579054 1.1031556 1.0948005 1.1675395 1.0512859
00000000: cc9b 7f3f efc4 8a3f 4471 733f de3e 843f
00000010: 7aa0 833f 7ab0 703f cbbf 8a3f eb90 6f3f
00000020: 5976 883f dc3f 7b3f b35d 663f 4e69 7b3f
00000030: 0f58 703f ffdd 8e3f bd62 733f 6891 893f
00000040: f4ae 863f af49 733f e095 8e3f 20a7 7b3f
00000050: 54a4 8a3f 842f 913f 1aad 893f 7dbe 793f
00000060: 5299 723f e298 853f d648 863f e4e5 813f
00000070: b019 8a3f 0b61 733f ef42 783f e0a9 903f
00000080: 5af8 833f aca2 7f3f 7d6d 833f 6243 853f
00000090: 5a5b 7f3f ccdd 7e3f f8af 783f 6a72 783f
000000a0: 4456 893f fbfa 793f 658c 763f 4cbf 633f
000000b0: e6fc 7e3f 81d3 833f 79f8 783f c7cc 703f
000000c0: f51c 753f c748 763f 7394 713f a722 713f
000000d0: ab7b 8b3f 5886 853f 9ece 833f f33d 783f
000000e0: 0d07 853f 5c1b 833f f57a 803f 7269 873f
000000f0: 3434 8d3f 6c22 8c3f ef71 953f 8990 863f

conv_pep.4.bias f4 [64]
-0.03296874 -0.020680744 -0.056569032 -0.06583236 -0.092036 -0.116521746 -0.020385794 -0.016703052
-0.02988376 0.02316746 0.045713402 -0.05693003 -0.05488862 -0.04349217 0.04577652 0.039647937
-0.01882611 -0.02151587 -0.021333326 -0.07276683 -0.06295854 -0.022206321 0.0068944865 -0.092866205
-0.08908098 -0.046684846 -0.02692196 0.051883034 -0.016831538 -0.00200703 -0.037651293 -0.10140037
-0.0531507 -0.044192243 0.02840494 0.055950582 0.018398194 -0.007353712 -0.036269546 0.0061423266
0.006411155 -0.019668031 -0.03864603 -0.074995175 -0.0931336 -0.041016817 0.02970233 -0.101077765
-0.04603017 -0.13225546 -0.0525286 0.009182481 -0.009696008 0.020031799 0.04438788 0.008908928
0.006941526 -0.049202755 0.0092545515 0.034471076 -0.05784765 -0.05007355 -0.0170156 -0.023670197
00000000: 3b0a 07bd aa6a a9bc eeb4 67bd 1ed3 86bd
00000010: 5f7d bcbd f4a2 eebd 1c00 a7bc d7d4 88bc
00000020: c9ce f4bc afc9 bd3c fa3d 3b3d 772f 69bd
00000030: e4d2 60bd d824 32bd 2980 3b3d e065 223d
00000040: 3739 9abc 0d42 b0bc 3ac3 aebc c706 95bd
00000050: 68f0 80bd 08ea b5bc 25eb e13b a330 bebd
00000060: 1770 b6bd 9c38 3fbd 718b dcbc 4e83 543d
00000070: 4be2 89bc 6088 03bb 3e38 1abd ffaa cfbd
00000080: 8cb4 59bd ed02 35bd 7ab1 e83c 702c 653d
00000090: cfb7 963c 68f7 f0bb 608f 14bd 9245 c93b
000000a0: ab14 d23b da1e a1bc 4d4b 1ebd 1297 99bd
000000b0: d4bc bebd 4001 28bd 4d52 f33c dc01 cfbd
000000c0: 228a 3cbd fa6d 07be 3b28 57bd 1e72 163c
000000d0: 01dc 1ebc ba19 a43c 11d0 353d c1f6 113c
000000e0: be75 e33b d488 49bd 67a0 173c 8b31 0d3d
000000f0: a8f1 6cbd ec19 4dbd 4d64 8bbc 00e8 c1bc

conv_pep.4.running_mean f4 [64]
0.27336758 -0.087341025 0.40336552 -0.032176085 -0.0366712 -0.11779819 -0.29273072 0.1631569
0.060016453 -0.101673044 0.06620455 0.07231425 -0.123756446 -0.066047 -0.054410037 -0.09484522
-0.13704269 0.22623543 0.031637993 -0.032665014 -0.09857989 -0.17649078 0.040471945 0.15988731
-0.15177767 -0.090823844 0.1432094 -0.115825415 -0.4003972 -0.0216425 -0.049049187 -0.16990414
0.0674589 0.031741045 -0.17610103 -0.09326018 -0.14384419 0.08947899 -0.27058622 -0.13940991
-0.3338782 0.104687124 -0.172363 -0.015105487 -0.079738185 -0.12011572 -0.07039971 -0.20844705
0.29558 0.2632735 0.09576991 0.06840493 -0.42060104 -0.15163441 0.24248894 -0.122548245
-0.12604453 -0.06374103 0.018216725 -0.0792923 -0.18216391 0.08841129 -0.0009972906 -0.17301716
00000000: d6f6 8b3e dadf b2bd ed85 ce3e 12cb 03bd
00000010: 8a34 16bd 2d40 f1bd cde0 95be 9a12 273e
00000020: d0d3 753d f539 d0bd 4096 873d 7e19 943d
00000030: 0574 fdbd a643 87bd 0fdd 5ebd 363e c2bd
00000040: eb54 0cbe 43aa 673e d796 013d c0cb 05bd
00000050: 41e4 c9bd 00ba 34be e9c5 253d 80b9 233e
00000060: 9b6b 1bbe da01 babd 7ca5 123e e035 edbd
00000070: dd00 cdbe 9d4b b1bc cde7 48bd 5afb 2dbe
00000080: e427 8a3d e602 023d d453 34be 31ff bebd
00000090: e44b 13be c340 b73d 478a 8abe 79c1 0ebe
000000a0: 15f2 aabe 3466 d63d ed7f 30be 017d 77bc
000000b0: c64d a3bd 3bff f5bd b92d 90bd 2573 55be
000000c0: 4356 973e c9cb 863e 0423 c43d e217 8c3d
000000d0: 0559 d7be 0d46 1bbe 054f 783e 93fa fabd
000000e0: d111 01be a88a 82bd 3e3b 953c 0064 a2bd
000000f0: 2d89 3abe fa10 b53d 85b7 82ba 692b 31be

conv_pep.4.running_var f4 [64]
0.08677766 0.2109031 0.32612357 0.23673268 0.2445518 0.1270386 0.15909986 0.15952191
0.21631281 0.10138327 0.13656662 0.09443786 0.26649702 0.19257596 0.09579826 0.28315628
0.15005882 0.1620397 0.1663225 0.15770727 0.18636814 0.24681787 0.10606239 0.15082231
0.16227798 0.16675636 0.08200478 0.11995445 0.1485081 0.08678231 0.1827612 0.20067789
0.1373877 0.14649294 0.0835493 0.130638 0.11150207 0.10741271 0.13004893 0.16501981
0.11868607 0.104328506 0.11656327 0.27063978 0.103486046 0.10589407 0.12402496 0.22159903
0.17893669 0.6500905 0.113467105 0.09354751 0.17011373 0.16075277 0.16011657 0.08474394
0.20331806 0.17832175 0.15869832 0.18731947 0.32117528 0.18057807 0.18118979 0.17966744
00000000: 7cb8 b13d fbf6 573e abf9 a63e 0d6a 723e
00000010: c96b 7a3e 6816 023e 13eb 223e b659 233e
00000020: 1b81 5d3e 08a2 cf3d 1fd8 0b3e a368 c13d
00000030: 4c72 883e a232 453e e131 c43d dcf9 903e
00000040: 05a9 193e bced 253e 7250 2a3e 047e 213e
00000050: 4ad7 3e3e d3bd 7c3e 3d37 d93d 2a71 1a3e
00000060: 332c 263e 2ec2 2a3e 1ff2 a73d aeaa f53d
00000070: 8212 183e ecba b13d c125 3b3e 817e 4d3e
00000080: 5caf 0c3e 3f02 163e e51b ab3d f8c5 053e
00000090: 335b e43d 32fb db3d 8c2b 053e f4fa 283e
000000a0: af11 f33d 2faa d53d b9b8 ee3d 4c91 8a3e
000000b0: 7ef0 d33d fdde d83d cc00 fe3d dbea 623e
000000c0: 2e3b 373e 556c 263f 7161 e83d d695 bf3d
000000d0: 4b32 2e3e 609c 243e 99f5 233e 3b8e ad3d
000000e0: 9c32 503e fa99 363e d081 223e add0 3f3e
000000f0: 1671 a43e 75e9 383e d189 393e befa 373e

conv_pep.6.weight f4 [64, 64, 3]
-0.048655752 0.04511924 -0.08996156 0.04695963 -0.07644098 -0.0124138985 -0.07905096 -0.0760494
-0.024480278 -0.0047557834 -0.05549179 0.026097815 -0.052276384 -0.06625456 -0.1675182 0.02147557
-0.0012070636 -0.009004067 -0.022758085 -0.083609745 -0.01867145 -0.012524745 0.033313446 -0.11071728
0.0054038013 -0.008973708 0.07987028 0.04929353 0.063644916 0.054054674 0.00458499 0.041928902
-0.01669483 -0.0022229287 -0.015578218 0.021705355 -0.05511569 -0.04548161 -0.0014774043 0.053445578
0.04279367 -0.0310467 -0.022733716 -0.051086087 -0.024060009 -0.10051087 0.026433833 0.0892637
-0.030589435 0.04158273 -0.054865837 0.042217944 -0.023191568 -0.09343468 -0.016740277 -0.084895395
-0.12780191 0.0013356081 -0.06268302 -0.10286345 -0.09298835 -0.023919825 0.084751494 0.065232545
-0.09909414 -0.042105284 0.019801846 -0.03686262 0.08628279 0.052210305 0.053660933 0.04967408
0.030775893 -0.01268878 -0.016673125 0.05240868 -0.019937187 0.11953672 -0.13214958 -0.010371108
-0.009876773 -0.014984964 -0.02490053 0.032800794 0.13342631 -0.054166175 -0.0028251668 -0.036157038
-0.08402938 -0.072944656 0.03775725 -0.009448747 0.11207562 -0.012519487 -0.05842371 -0.059877932
0.016761556 -0.06609926 0.06970296 0.08949487 0.06974045 0.040067613 0.033048775 0.076976165
-0.09662132 -0.0044189794 -0.02689826 -0.02090757 0.064353436 0.09763093 0.014999586 0.048362076
-0.040145405 0.14679274 -0.032433685 0.037983306 -0.11193535 -0.015890427 0.0036602402 -0.06795424
0.031236148 -0.11943486 0.0657827 0.038792193 -0.13172044 0.037736665 0.15966989 -0.061671186
-0.040495723 -0.054894768 0.032328244 0.031737912 -0.08818662 -0.026744043 -0.07111912 0.020892255
0.0031094237 -0.018965602 0.014428352 0.04944718 0.0069308835 0.064221084 0.03759269 0.02960582
-0.03003179 0.070329204 -0.0045230086 0.06544233 -0.033766456 0.0020143536 -0.13882966 -0.04306597
0.07593572 -0.026731327 -0.084060706 -0.0138200745 0.03109552 0.03317054 0.013587024 0.032519694
0.019458607 0.01829432 0.029740449 -0.02224717 -0.09872241 -0.031476576 -0.019459669 0.08312652
-0.010979316 0.0254415 -0.11289577 0.015475866 0.10391397 0.05664245 -0.009828957 0.037111495
0.037664 0.07520806 0.066805355 0.0015965381 -0.11065044 0.024847738 0.0053818375 0.039362002
0.012750444 0.040091556 -0.020481277 0.014428621 -0.015562182 -0.06791919 0.009679593 0.047955424
-0.020296212 -0.0941549 -0.04600996 -0.022392822 -0.05449866 0.039303914 0.065489545 -0.02211588
-0.054444946 0.108946204 0.014075544 0.012822764 0.108881846 -0.03457886 0.05151754 -0.011070489
-0.061285432 -0.018188355 -0.101861 0.01974406 -0.02996817 -0.115185484 -0.0038386735 -0.068682455
-0.009598745 -0.03478474 0.027216287 -0.012071318 0.02090894 0.010720059 0.023528265 0.020662222
0.053675566 0.027174301 0.02136466 0.11271813 -0.060835067 0.029770344 -0.01978985 -0.03508017
-0.08911038 -0.035760432 0.032161027 0.016443962 0.03322044 0.087533094 -0.07559729 0.0352207
-0.20992285 -0.11891069 -0.008563534 -0.063028984 -0.04732819 0.036594603 0.049083836 0.08170512
0.11373184 0.038462017 -0.036411114 0.012587574 0.038566872 -0.10791325 -0.005863363 -0.061278746
00000000: 414b 47bd f4ce 383d c43d b8bd be58 403d
00000010: 178d 9cbd aa63 4bbc 78e5 a1bd cabf 9bbd
00000020: dd8a c8bc 67d6 9bbb 5c4b 63bd 16cb d53c
00000030: c31f 56bd 79b0 87bd e489 2bbe 89ed af3c
00000040: 5536 9eba cb85 13bc 2a6f babc 963b abbd
00000050: def4 98bc 9734 4dbc ae73 083d bebf e2bd
00000060: 5f12 b13b 7606 13bc 0893 a33d 03e8 493d
00000070: 4458 823d 6f68 5d3d af3d 963b a4bd 2b3d
00000080: 99c3 88bc 8eae 11bb c83b 7fbc 6ecf b13c
00000090: fdc0 61bd ed4a 3abd 76a5 c1ba c0e9 5a3d
000000a0: 6a48 2f3d a655 febc 0f3c babc a53f 51bd
000000b0: 7f19 c5bc a5d8 cdbd c48b d83c e3cf b63d
000000c0: b296 fabc a752 2a3d 00bb 60bd b9ec 2c3d
000000d0: 3efc bdbc ae5a bfbd e822 89bc a3dd adbd
000000e0: 81de 02be 920f af3a f55f 80bd 13aa d2bd
000000f0: ad70 bebd 82f3 c3bc 3192 ad3d a498 853d
00000100: def1 cabd 9776 2cbd 7b37 a23c 42fd 16bd
00000110: 08b5 b03d 79da 553d 91cb 5b3d 0c77 4b3d
00000120: ba1d fc3c 9ae4 4fbc 1496 88bc 7caa 563d
00000130: 5053 a3bc abcf f43d 3852 07be 94eb 29bc
00000140: 30d2 21bc 7f83 75bc 32fc cbbc 205a 063d
00000150: e8a0 083e 5add 5dbd 6f26 39bb 6719 14bd
00000160: 9817 acbd 0264 95bd 59a7 1a3d ebce 1abc
00000170: e787 e53d 891e 4dbc b34d 6fbd 9042 75bd
00000180: 884f 893c 0c5f 87bd 6dc0 8e3d 1649 b73d
00000190: 15d4 8e3d f01d 243d 275e 073d aea5 9d3d
000001a0: 66e1 c5bd 16cd 90bb bd59 dcbc 5a46 abbc
000001b0: bccb 833d baf2 c73d d3c0 753c 5017 463d
000001c0: 826f 24bd d650 163e 2fd9 04bd 6294 1b3d
000001d0: 5c3e e5bd a42c 82bc a4e0 6f3b 982b 8bbd
000001e0: f3e2 ff3c 449a f4bd 15b9 863d 90e4 1e3d
000001f0: b9e1 06be c391 1a3d 8180 233e ed9a 7cbd
00000200: d8de 25bd 56d9 60bd 9f6a 043d 9dff 013d
00000210: 309b b4bd 5316 dbbc e7a6 91bd 3c26 ab3c
00000220: 79c7 4b3b c05d 9bbc e564 6c3c 2089 4a3d
00000230: 771c e33b 5886 833d cbfa 193d e887 f23c
00000240: 3a05 f6bc c208 903d bf35 94bb a106 863d
00000250: b24e 0abd 3f03 043b 5d29 0ebe f165 30bd
00000260: 3084 9b3d a8fb dabc 0528 acbd 986d 62bc
00000270: 08bc fe3c d5dd 073d 1c9c 5e3c 5f33 053d
00000280: a867 9f3c f8dd 953c 3ea2 f33c b23f b6bc
00000290: fa2e cabd 95ed 00bd e269 9fbc 3d3e aa3d
000002a0: 97e2 33bc b16a d03c e635 e7bd 7d8e 7d3c
000002b0: d9d0 d43d ea01 683d a209 21bc 3902 183d
000002c0: 9145 1a3d af06 9a3d 3fd1 883d ee42 d13a
000002d0: b39c e2bd 7c8d cb3c 205a b03b 0d3a 213d
000002e0: 3de7 503c 0b37 243d 5ac8 a7bc 0666 6c3c
000002f0: 86f8 7ebc 3719 8bbd 2897 1e3c e86c 443d
00000300: 3e44 a6bc 49d4 c0bd f174 3cbd 2771 b7bc
00000310: fd39 5fbd 24fd 203d 621f 863d 5d2c b5bc
00000320: aa01 5fbd 301f df3d 1c9d 663c 9216 523c
00000330: 72fd de3d 90a2 0dbd 0e04 533d ff60 35bc
00000340: 6f06 7bbd bfff 94bc 809c d0bd 4bbe a13c
00000350: cf7f f5bc 5ee6 ebbd 4192 7bbb 63a9 8cbd
00000360: 0e44 1dbc 727a 0ebd b1f4 de3c c7c6 45bc
00000370: 3a49 ab3c 30a3 2f3c 59be c03c d243 a93c
00000380: e9da 5b3d a49c de3c f004 af3c c3d8 e63d
00000390: 312e 79bd f0e0 f33c 531e a2bc 39b0 0fbd
000003a0: 817f b6bd 8879 12bd 48bb 033d 7db5 863c
000003b0: 2812 083d 8d44 b33d c1d2 9abd 9543 103d
000003c0: 04f6 56be 7387 f3bd 114e 0cbc 5715 81bd
000003d0: 34db 41bd 39e4 153d 220c 493d 0455 a73d
000003e0: 3dec e83d 598a 1d3d d223 15bd 1d3c 4e3c
000003f0: 4cf8 1d3d 9f01 ddbd 7421 c0bb 6cff 7abd

conv_pep.6.bias f4 [64]
0.035226792 0.0030410679 -0.00493581 0.07616847 0.048838507 0.0097995745 -0.046151765 0.05007734
-0.0050286446 -0.026628373 0.008399714 0.016538242 -0.012998518 -0.028764647 -0.06142149 0.055312987
-0.007919689 -0.05132105 -0.061962612 -0.025267573 0.05018999 0.05685725 -0.04172421 -0.04496305
0.05237542 -0.02397086 0.0783233 -0.08507977 -0.06531859 0.05603721 -0.033164576 0.04519821
-0.02097493 0.0037525273 -0.006939065 -0.052553076 0.016182696 -0.009396154 0.08491723 0.07446841
-0.019890096 0.045002796 -0.021065483 -0.017972257 0.0013270776 -0.026752323 -0.057584655 -0.0085237175
0.058739576 -0.039672505 -0.06572944 0.09632473 0.0090177525 0.06617495 -0.019175276 0.0048930286
0.011584534 -0.010925529 -0.03635908 0.00032573158 0.03044147 0.03863451 0.072474524 0.019540425
00000000: f849 103d a74c 473b 93bc a1bb 37fe 9b3d
00000010: e30a 483d 658e 203c a209 3dbd e61d 4d3d
00000020: 54c7 a4bb bf23 dabc f49e 093c 357b 873c
00000030: bcf7 54bc d6a3 ebbc 1a95 7bbd df8f 623d
00000040: 95c1 01bc 0536 52bd 82cc 7dbd f1fd cebc
00000050: 0594 4d3d 26e3 683d 01e7 2abd 2d2b 38bd
00000060: 9c87 563d 895e c4bc f767 a03d 4d3e aebd
00000070: c1c5 85bd 4687 653d 94d7 07bd c221 393d
00000080: 9ed3 abbc f6ec 753b 1961 e3bb e541 57bd
00000090: 9391 843c 54f2 19bc 16e9 ad3d e582 983d
000000a0: 8ef0 a2bc da54 383d 8591 acbc 8e3a 93bc
000000b0: 56f1 ad3a b027 dbbc e3dd 6bbd 10a7 0bbc
000000c0: e998 703d a37f 22bd 289d 86bd e645 c53d
000000d0: 32bf 133c bb86 873d 7815 9dbc b355 a03b
000000e0: 0fcd 3d3c fd00 33bc 42ed 14bd f4c6 aa39
000000f0: 6460 f93c 383f 1e3d 866d 943d 3e13 a03c

conv_pep.7.weight f4 [64]
0.9830931 0.97652435 1.0015662 1.0192397 0.9769253 0.99099195 1.0226142 0.955953
0.9920104 1.007729 1.040762 1.0219277 0.978213 1.0440546 0.9952247 1.0051843
0.9779719 0.98828185 0.97206575 1.0306566 1.0660548 1.0258878 1.0038625 0.99177694
0.9662322 0.9689553 0.9789245 1.0235256 0.98363864 1.016782 0.9803548 1.0016572
1.0196526 0.97306794 1.0159009 1.0252185 1.0009034 0.9937976 1.0114866 0.9563291
0.9942804 0.95801497 1.0018545 1.0066353 1.0167401 1.0216686 1.0523571 0.9635174
1.0153638 0.9722334 0.9641161 1.0276341 0.9773251 1.0228273 1.0147618 1.0228896
1.0486486 1.0017582 0.9620998 0.97351027 0.98175055 0.9777414 1.0081214 0.9867127
00000000: fdab 7b3f 80fd 793f 5233 803f 7276 823f
00000010: c717 7a3f a6b1 7d3f 06e5 823f 56b9 743f
00000020: 65f4 7d3f 44fd 803f b037 853f 87ce 823f
00000030: 2b6c 7a3f 95a3 853f 0cc7 7e3f e1a9 803f
00000040: 5e5c 7a3f 0a00 7d3f 4dd9 783f 8eec 833f
00000050: 7c74 883f 4b50 833f 917e 803f 18e5 7d3f
00000060: fe5a 773f 740d 783f cc9a 7a3f e302 833f
00000070: becf 7b3f ea25 823f 88f8 7a3f 4e36 803f
00000080: fa83 823f fb1a 793f 0a09 823f 5c3a 833f
00000090: 9a1d 803f 8569 7e3f 6578 813f fcd1 743f
000000a0: 2989 7e3f 7840 753f c53c 803f 6dd9 803f
000000b0: 8a24 823f 09c6 823f a3b3 863f 14a9 763f
000000c0: 71f7 813f 4ae4 783f 50d0 763f 8489 833f
000000d0: fa31 7a3f 01ec 823f b7e3 813f 0cee 823f
000000e0: 1e3a 863f 9d39 803f 2c4c 763f f837 793f
000000f0: 0154 7b3f 434d 7a3f 1f0a 813f 3499 7c3f

conv_pep.7.bias f4 [64]
-0.03347755 -0.080301695 -0.0059408583 -0.014091417 -0.057632606 -0.07783282 -0.0016676409 -0.054743446
-0.03574561 -0.0870639 0.031124208 -0.07334823 -0.019425552 -0.017952768 -0.026758706 -0.00034007983
-0.08572749 -0.022843441 -0.089791276 -0.013940071 0.018845253 -0.053853594 -0.06898196 -0.058010705
-0.022176208 -0.00025865505 -0.056758218 -0.030197019 -0.05842851 -0.033342335 -0.055683207 -0.078188665
-0.0937973 -0.031025656 -0.05855276 -0.13769843 -0.06218884 -0.0508428 -0.060185563 -0.031008285
-0.030978192 -0.027597975 -0.13758102 -0.03377026 -0.037610386 -0.023975952 0.06255509 -0.069258735
-0.095913924 -0.027205223 0.005905999 0.009414434 -0.050676227 -0.016930826 -0.05660482 -0.053452194
0.03356964 0.004833567 -0.0086582145 -0.069543794 -0.0025599895 -0.033823006 -0.07271666 -0.07199775
00000000: c11f 09bd 3775 a4bd 88ab c2bb b0df 66bc
00000010: 2b10 6cbd d066 9fbd be94 daba aa3a 60bd
00000020: fd69 12bd 8f4e b2bd 32f8 fe3c 9937 96bd
00000030: 5622 9fbc af11 93bc 1335 dbbc be4c b2b9
00000040: e591 afbd 2b22 bbbc 7de4 b7bd e564 64bc
00000050: 5c61 9a3c 9695 5cbd 6a46 8dbd a29c 6dbd
00000060: e1aa b5bc 189c 87b9 4e7b 68bd bd5f f7bc
00000070: bc52 6fbd f991 08bd 1314 64bd 6121 a0bd
00000080: cc18 c0bd 8429 febc 05d5 6fbd d100 0dbe
00000090: bab9 7ebd 8a40 50bd 2385 76bd 1605 febc
000000a0: fac5 fdbc 2615 e2bc 0ae2 0cbe af52 0abd
000000b0: 590d 1abd 3769 c4bc e21c 803d 86d7 8dbd
000000c0: 856e c4bd 7ddd debc 1c87 c13b 003f 1a3c
000000d0: e091 4fbd 84b2 8abc 75da 67bd b0f0 5abd
000000e0: 5280 093d e662 9e3b 2fdb 0dbc fa6c 8ebd
000000f0: 7fc5 27bb fe89 0abd 79ec 94bd 8e73 93bd

conv_pep.7.running_mean f4 [64]
-0.14199989 0.17717892 -0.22989395 -0.34259406 0.11812851 -0.3035154 -0.3143278 -0.22097963
-0.48901588 -0.20224161 -0.23557757 0.15666309 0.154758 -0.4334823 0.037398476 -0.3200761
0.4121674 0.065927245 -0.33979976 -0.07648182 0.085607894 -0.4697832 -0.38032725 -0.515427
-0.1062243 -0.016305028 -0.5708591 -0.09834889 -0.6937024 0.17683871 -0.70770335 -0.20538698
-0.7477028 -0.21397164 -0.4986985 -0.8767201 -0.44845036 -0.64014626 -0.63198584 -0.32072106
-0.37591067 -0.3774998 -0.21589947 -0.19407278 -0.34027523 -0.5093022 -0.07928763 -0.21547063
-0.18202859 -0.03272776 -0.21395265 -0.2124568 -0.49596515 -0.2258607 -0.49236447 -0.46480402
-0.39456627 -0.13136931 -0.20677482 -0.38167983 0.1318079 -0.19788297 -0.34491873 -0.39861828
00000000: 6b68 11be 646e 353e 5269 6bbe 7d68 afbe
00000010: 5ced f13d 5f66 9bbe 93ef a0be 7c48 62be
00000020: 4a60 fabe 6d18 4fbe 3f3b 71be 4a6c 203e
00000030: e278 1e3e 64f1 ddbe 252f 193d 04e1 a3be
00000040: 9b07 d33e dd04 873d 3cfa adbe 80a2 9cbd
00000050: 3153 af3d 6c87 f0be 41ba c2be 06f3 03bf
00000060: 208c d9bd 1f92 85bc d223 12bf 256b c9bd
00000070: 7b96 31bf 3515 353e 0c2c 35bf f750 52be
00000080: 7369 3fbf 621b 5bbe 6955 ffbe ba70 60bf
00000090: 499b e5be a0e0 23bf d3c9 21bf 8d35 a4be
000000a0: 5d77 c0be a747 c1be c014 5dbe 04bb 46be
000000b0: 8e38 aebe a161 02bf 8e61 a2bd 55a4 5cbe
000000c0: b465 3abe 8b0d 06bd 6716 5bbe 468e 59be
000000d0: 25ef fdbe 0748 67be 3217 fcbe cbfa edbe
000000e0: 9704 cabe ad85 06be c7bc 53be 8a6b c3be
000000f0: a6f8 063e d5a1 4abe 3099 b0be b217 ccbe

conv_pep.7.running_var f4 [64]
0.26929495 0.12501235 0.22839034 0.34223354 0.29536662 0.34906197 0.4696569 0.22736344
0.28140876 0.38481233 0.37893993 0.1504578 0.43778098 0.23351055 0.5183363 0.43018526
0.21670502 0.30468488 0.22861649 0.5219422 0.40040874 0.34850127 0.20973194 0.3657169
0.24782185 0.5970629 0.25228715 0.241229 0.3208441 0.20239353 0.27589568 0.14112134
0.31889153 0.2809461 0.33431304 0.2751048 0.20172398 0.24092583 0.35336313 0.18284589
0.24365036 0.26553592 0.21099223 0.24599041 0.30745825 0.3363858 0.34403005 0.2415612
0.15177004 0.18479574 0.36267188 0.44450653 0.3172157 0.25522944 0.32361317 0.47877133
0.17300045 0.33255038 0.20207797 0.20022115 0.2392201 0.2932138 0.47626334 0.39222053
00000000: 07e1 893e 3d03 003e 28df 693e 3c39 af3e
00000010: 4b3a 973e 40b8 b23e df76 f03e f6d1 683e
00000020: cf14 903e 1f06 c53e 6a04 c23e 9c11 1a3e
00000030: d424 e03e 641d 6f3e b0b1 043f 3e41 dc3e
00000040: ece7 5d3e a8ff 9b3e 711a 6a3e 019e 053f
00000050: 6002 cd3e c26e b23e f8c3 563e 3f3f bb3e
00000060: 03c5 7d3e 1dd9 183f c82b 813e bc04 773e
00000070: ae45 a43e 4040 4f3e 3342 8d3e 1d82 103e
00000080: c045 a33e 2bd8 8f3e 142b ab3e 89da 8c3e
00000090: bb90 4e3e 43b5 763e 03ec b43e f43b 3b3e
000000a0: 7b7f 793e 53f4 873e 590e 583e e9e4 7b3e
000000b0: 2b6b 9d3e c23a ac3e b524 b03e d25b 773e
000000c0: 9b69 1b3e 183b 3d3e 21b0 b93e 5c96 e33e
000000d0: 196a a23e 6fad 823e a0b0 a53e 8421 f53e
000000e0: 0827 313e 0b44 aa3e 87ed 4e3e c606 4d3e
000000f0: 1df6 743e 1f20 963e cad8 f33e 21d1 c83e

attention.in_proj_weight f4 [192, 64]
-0.058817916 -0.029322766 -0.057403766 0.029424906 0.0027461797 -0.1178412 0.025171444 -0.09810988
-0.12184243 0.13791917 -0.028955147 -0.117954955 0.1450487 -0.104615316 -0.09781532 -0.07799978
-0.002969861 -0.06861861 0.06857476 0.09596263 0.04158473 -0.016363904 -0.047730073 -0.0655746
0.062483907 -0.035297923 0.14856963 -0.04023148 -0.14612123 0.05149576 0.11287542 0.02717723
-0.080283254 0.1452785 0.11514886 -0.14578992 -0.1162643 0.11883937 -0.03626343 0.14647894
-0.026686564 -0.05198715 -0.053540014 0.011676908 -0.032576576 0.057174966 -0.14873427 0.0035278052
0.052196532 0.020702243 0.09743844 -0.008543611 0.06332362 0.08988133 -0.018342242 0.029128939
-0.051997647 0.11633839 0.13549338 -0.09809665 0.10543601 0.056398332 -0.0070917606 0.044867024
0.15018566 0.14092569 -0.09792028 0.07135028 0.12985466 -0.137849 -0.078505926 -0.009923443
0.15255477 0.082360804 -0.013459846 -0.100508876 0.037535816 -0.011618555 -0.10711175 0.07725033
0.0058975667 -0.07385892 -0.15173958 0.029536292 0.14450373 -0.10198686 -0.11901963 -0.013778985
-0.1285471 0.040326267 -0.10486235 0.028874308 -0.046885565 -0.100427404 -0.12517335 -0.12652779
0.08100036 -0.131255 -0.10167134 0.019833863 0.060765 0.0908266 -0.120440304 0.08148384
0.04225765 -0.09824243 0.14667238 -0.0018788427 0.036411583 -0.097220406 -0.032232963 0.009034723
-0.11315721 -0.0050655603 0.015516251 0.11209224 0.12514527 0.04438889 -0.06311124 -0.041499496
0.114208296 -0.15147081 -0.06366746 0.0071144253 0.13642503 0.08856715 0.12596981 -0.0163977
-0.07398634 -0.05070913 -0.115663595 -0.12819263 0.030277297 -0.03522308 0.12948106 -0.019364387
-0.11858872 0.05842358 0.09988694 -0.0866409 -0.033000052 0.09423342 0.011841282 0.063629255
0.10727207 0.05295302 0.07607198 0.0004324168 -0.14148155 -0.06445934 -0.0042175055 -0.049646243
0.08834565 -0.11063534 0.12698455 -0.0031571388 0.021079347 -0.092421055 -0.059077196 -0.095181614
-0.13615125 -0.046572007 0.023452505 0.06645003 -0.106507584 0.117398515 0.07175249 0.062524915
-0.10508712 0.052652255 0.033630982 -0.010353804 -0.038577236 0.03652963 0.11502795 0.061873153
0.06272043 0.13695572 -0.041555107 0.02214025 -0.052402757 -0.10225045 -0.052391008 0.025107205
-0.01915887 0.030187264 0.00514628 -0.12181541 0.1445951 -0.012249246 0.066874504 0.1325395
0.08479339 -0.008271441 -0.12054979 -0.12285504 0.14763017 0.063326254 0.019289047 0.022225648
-0.04673654 -0.046798512 0.060292646 -0.09561107 -0.012375608 -0.038881242 -0.1270826 -0.15248312
-0.11281798 -0.09916813 0.062213495 -0.03428884 0.14023505 0.09430121 0.035892993 0.11319037
-0.050861903 0.073294565 -0.003896609 0.1136107 -0.13987148 0.11748342 -0.091560826 0.12213932
0.13914253 -0.020521253 -0.04421039 0.084003866 0.045435965 0.06730437 -0.07812862 -0.13026951
0.08675091 0.043407306 0.12605749 0.08074142 -0.10184376 -0.025172517 0.08356778 -0.033044107
-0.047665797 -0.079071976 -0.068170555 0.09601374 0.04187472 0.13612755 -0.029598631 0.116720065
-0.019146949 0.047071442 -0.026123494 -0.12997791 -0.14861813 -0.12416886 0.0043940395 -0.011308342
00000000: 0eeb 70bd 4c36 f0bc 3620 6bbd 800c f13c
00000010: 40f9 333b ba56 f1bd 5834 ce3c d5ed c8bd
00000020: 8688 f9bd af3a 0d3e 5833 edbc 5e92 f1bd
00000030: a587 143e 8e40 d6bd 6653 c8bd 59be 9fbd
00000040: 00a2 42bb ea87 8cbd ec70 8c3d 0e88 c43d
00000050: c054 2a3d 980d 86bc 9c80 43bd fa4b 86bd
00000060: 20ef 7f3d 8e94 10bd a322 183e c4c9 24bd
00000070: cea0 15be 38ed 523d 3a2b e73d c8a2 de3c
00000080: 8c6b a4bd e3c3 143e 2ad3 eb3d f449 15be
00000090: fa1b eebd 0e62 f33d f688 14bd 93fe 153e
000000a0: c89d dabc 7af0 54bd c64c 5bbd 8050 3f3c
000000b0: 046f 05bd 4c30 6a3d cc4d 18be c032 673b
000000c0: 08cc 553d c097 a93c ce8d c73d 80fa 0bbc
000000d0: d0af 813d b413 b83d 7842 96bc d09f ee3c
000000e0: 7cfb 54bd d242 ee3d c7be 0a3e e5e6 c8bd
000000f0: d6ee d73d f001 673d 0062 e8bb 7cc6 373d
00000100: 45ca 193e d34e 103e 6e8a c8bd 1820 923d
00000110: 9ff8 043e 4a28 0dbe b7c7 a0bd f095 22bc
00000120: 5137 1c3e c8ac a83d b086 5cbc 99d7 cdbd
00000130: 28bf 193d c05b 3ebc 685d dbbd 6c35 9e3d
00000140: 6040 c13b 5843 97bd 9f61 1bbe 18f6 f13c
00000150: c9f8 133e 7dde d0bd 90c0 f3bd 40c1 61bc
00000160: daa1 03be 282d 253d 12c2 d6bd d089 ec3c
00000170: 140b 40bd e2ac cdbd 712d 00be 8090 01be
00000180: 84e3 a53d b667 06be 1039 d0bd a07a a23c
00000190: b8e4 783d 4c03 ba3d 68a9 f6bd 00e1 a63d
000001a0: 5c16 2d3d 5433 c9bd 4931 163e 8043 f6ba
000001b0: 5024 153d 7e1b c7bd b606 04bd 6006 143c
000001c0: f8be e7bd 00fd a5bb e037 7e3c 9e90 e53d
000001d0: 1526 003e 20d1 353d 7740 81bd 60fb 29bd
000001e0: 0ae6 e93d 2a1b 1bbe 1664 82bd 2020 e93b
000001f0: 01b3 0b3e b262 b53d 3bfe 003e 7854 86bc
00000200: 2686 97bd 60b4 4fbd 09e1 ecbd ee44 03be
00000210: 1808 f83c 1446 10bd af96 043e 10a2 9ebc
00000220: a5de f2bd 904d 6f3d 8691 cc3d c970 b1bd
00000230: 102b 07bd 74fd c03d f001 423c 0e50 823d
00000240: 76b1 db3d 44e5 583d a0cb 9b3d 00b6 e239
00000250: 8ae0 10be 4203 84bd 0033 8abb dc59 4bbd
00000260: 90ee b43d c894 e2bd 3d08 023e 00e8 4ebb
00000270: 98ae ac3c 4047 bdbd eefa 71bd 94ee c2bd
00000280: 3c6b 0bbe 4ac2 3ebd 781f c03c f416 883d
00000290: a620 dabd a26e f03d f8f2 923d 100d 803d
000002a0: ea37 d7bd e4a9 573d a4c0 093d 00a3 29bc
000002b0: 2a03 1ebd 18a0 153d c693 eb3d b46e 7d3d
000002c0: 9273 803d 1f3e 0c3e b035 2abd 785f b53c
000002d0: 46a4 56bd af68 d1bd f497 56bd a0ad cd3c
000002e0: 10f3 9cbc 484b f73c 20a2 a83b 5c7a f9bd
000002f0: bd10 143e 10b1 48bc 80f5 883d 6fb8 073e
00000300: 28a8 ad3d f084 07bc cfe2 f6bd 6c9b fbbd
00000310: 5d2c 173e 32b1 813d 1004 9e3c 9012 b63c
00000320: d06e 3fbd ccaf 3fbd 6cf5 763d bdcf c3bd
00000330: 10c3 4abc f041 1fbd f121 02be 8924 1cbe
00000340: 1d0d e7bd a918 cbbd 94d3 7e3d 7472 0cbd
00000350: c799 0f3e fe20 c13d 8804 133d 5ad0 e73d
00000360: 9254 50bd 761b 963d 405e 7fbb baac e83d
00000370: 783a 0fbe 269b f03d 3e84 bbbd 2e24 fa3d
00000380: 617b 0e3e 301c a8bc f415 35bd 380a ac3d
00000390: 101b 3a3d e0d6 893d e601 a0bd 5f65 05be
000003a0: 76aa b13d dccb 313d 3715 013e c25b a53d
000003b0: 7693 d0bd 9836 cebc 9625 ab3d 4259 07bd
000003c0: 363d 43bd 7df0 a1bd 019d 8bbd daa2 c43d
000003d0: d484 2b3d 0565 0b3e d478 f2bc ee0a ef3d
000003e0: 10da 9cbc fccd 403d f000 d6bc ee18 05be
000003f0: 5a2f 18be 3e4c febd e0fb 8f3b a046 39bc
